models/HalfCheetah-v2/DisSample/Dagger_850.pth (torch, 11167 bytes, 4 tensors)

fc1.weight f4 [100, 17]
00000000: 318d b53e 401c 31bf d7c0 c43e 467e 65be
00000010: 808c 193e 37ec 863e eedd aabd 765a 2d3e
00000020: 7360 9cbd 37b3 d43e 13d5 2bbe 31bd 7fbd
00000030: 8c0c 003e 22b8 fbba 117d 293e 1a89 853d
00000040: 5b18 2b3e 6891 48bf 66d2 143f 1e3f d5bd
00000050: 9741 583c 36a7 533e 1c9f 653d d915 543e
00000060: ebea abbc f078 193e fa61 2bbe 30cb 7d3d
00000070: 4a50 053d a83f 8abc 9226 55be 04f0 813e
00000080: 2c73 f8bd f183 53bd 8b48 533f 6594 85bf
00000090: 6f8d 233f f687 8fbe c834 ed3d 0d06 af3e
000000a0: 6ffe a53d 04ca 123e ac20 c5be 8dd3 5b3e
000000b0: 7c96 9b3d a4b5 bbbd fb92 003c 4024 17bb
000000c0: 1448 a53d 7d4e 20bd 4661 5dbc 6ac7 303e
000000d0: 3e5d d9be 3324 c13e 38d6 2e3e 183a 23bb
000000e0: 2463 adbd 0c4e d93d 133d 423e d72f 483d
000000f0: b437 8d3e 04c4 e7be 5090 75bc e02e e83d
00000100: 12e9 cb3d 52db 20be e0f7 c63d 79c3 563d
00000110: 2c72 dc3e bfea 1bbf 047d 633d 58c8 903d
00000120: a761 e0bd a883 fabd 4ed0 65bb 4b9d 2a3d
00000130: 32ed 053e 26c9 e13e 16f6 3abe b604 2d3d
00000140: 0164 08be 7945 203d be25 653b 997c 83bd
00000150: dd09 85bd 5722 c5be b5fc e73e c37e 3d3e
00000160: eac7 9c3d dfec 243d 294e 543d da52 bd3d
00000170: 8bf9 4f3e 8dc9 2abe e76a 65be c68c dd3d
00000180: f23f e13d a716 bcbd 5de9 06bd 7e05 7f3e
00000190: 34df 86bd 5998 8fbd 6a20 47be 5a2d 273f
000001a0: f41c 03be 7476 983d b63e b7bd d9d4 31bd
000001b0: ab0d c8bd b4fb 0ebe 1ee9 923e 76dc c9bd
000001c0: ff94 aa3e b8eb d6bd 64aa 0b3e 1cd6 983d
000001d0: 3cb9 b23d e8cb 1ebe 0a97 8fbd 93ae b0be
000001e0: 3887 e73e b841 07be 5cf8 febd 4e8c 5b3d
000001f0: bdd6 653d 6d33 bc3d b4ff a7bb 1283 9cbe
00000200: da7b 59be b58a 543e d237 58bd ba5e c5bd
00000210: 6a3a 2d3e a515 cb3d 60f5 f93d 32f0 2d3e
00000220: bc5e f13e c64e 3abf 85a0 8f3e 41b6 df3d
00000230: efea 0f3d b3f2 643e a15f 3bbe ddf7 103e
00000240: a6ab 4cbe 7ff5 8c3d 42b4 0d3e f28b 03be
00000250: b922 263e 4efb 53bc 2086 d1bd b431 84bd
00000260: 22ab 523e 510f 033f eb4b 83bf 1087 c93e
00000270: 2c11 e0bd 247e 67be 631d 583c 3f3c 76be
00000280: 7a83 2bbe 7fdb 50be 3fc8 003f c305 dbbb
00000290: 5f41 edbc 69f1 fdbd 06c2 a6bd 3a46 bbbd
000002a0: d3d7 0ebe 2748 2ebd f0ce 843f c33e 87bf
000002b0: 2f20 cb3e 5cc0 40be 5a82 cabd 0ba3 4b3e
000002c0: 0e56 a5be 16a9 4eba 2c3d 1c3c 6cee dc3d
000002d0: c520 57bd 49e6 eebc 7903 ad3d 5623 b5bd
000002e0: d8a4 16be 3eaf 1ebe 2815 c53d 0d79 1b3f
000002f0: 1cc6 49bf e1d5 e43e e920 19be 1d1e 8fbc
00000300: c897 403d 6924 84bd 5a49 e13d 9f70 983e
00000310: 817c 8e3e ebe4 2abe d773 8dbd bd76 fd3d
00000320: 0a81 1e3d f38f cbbd d2fd d8bd d855 45bd
00000330: 722b 85bd ecdb 27be e22a 543e 541b 97bd
00000340: 00c6 923e 5304 163d 2c36 82bd 5c56 093d
00000350: ecf6 94be ce90 aabd 7453 5cbe 899b a73d
00000360: bf42 04be 02b0 b1bd 9402 3fbd 0c6b 5a3e
00000370: 91d8 b139 06f0 c93d c1a8 19bf 6f41 7c3d
00000380: f23c 5dbe 4fbc 333e 5ca6 10be 4d50 d23c
00000390: 995a 053e 924e bf3d 7ede cd3d 0c5b 53be
000003a0: 1bb7 a03d 5ee8 e13b 322e 733d b9b1 9e3d
000003b0: 0522 283c 6bbb a9bd c7d9 08be 30b5 6f3e
000003c0: a053 553e bdd2 14be 0251 033e 35e6 ef3d
000003d0: 77fa 233e fb8a ba3e c090 da3e 1da3 913e
000003e0: e731 553e b856 80bc b30e 333e 210f 4abe
000003f0: 2fb8 793e 7d43 ad3c 3726 053c aa2e 31be
0.35459283 -0.6918373 0.38428375 -0.2241145 0.14995003 0.26352093 -0.08343111 0.1692904
-0.07635584 0.4154298 -0.167805 -0.062436286 0.12504786 -0.0019204656 0.16551615 0.06520291
0.1670851 -0.7834687 0.5813354 -0.10412429 0.013199232 0.20669255 0.05605994 0.20711459
-0.020986041 0.1498754 -0.16736594 0.061961353 0.032547273 -0.016876057 -0.20815495 0.2537843
-0.12131342 -0.0516395 0.82532567 -1.0435911 0.63887686 -0.28033417 0.11582333 0.34184304
0.0810517 0.14334875 -0.3850149 0.21467419 0.07597062 -0.091655046 0.007847543 -0.0023062378
0.080703884 -0.039137352 -0.013511961 0.1726357 -0.4245395 0.3772293 0.17073905 -0.0024906453
-0.08466175 0.106105894 0.1896861 0.04887375 0.2758156 -0.45266736 -0.01498802 0.11337066
0.09956564 -0.15708664 0.09715247 0.05243251 0.43055856 -0.6090507 0.055539146 0.070694625
-0.10956126 -0.12232143 -0.0035066786 0.041653913 0.13078764 0.44098777 -0.18257937 0.04224082
-0.13319398 0.039128754 0.0034965123 -0.064202495 -0.06496022 -0.38502762 0.45309988 0.18505387
0.07655318 0.04026496 0.05183235 0.09244318 0.20310037 -0.16678448 -0.22404061 0.10817866
0.10998525 -0.09184008 -0.032937396 0.24904439 -0.06585541 -0.0701148 -0.19445959 0.65303576
-0.12804013 0.07444468 -0.08947508 -0.043415878 -0.09768232 -0.13963205 0.2869348 -0.09856503
0.333168 -0.104941785 0.13639218 0.07462713 0.08726737 -0.15507472 -0.0701123 -0.3450819
0.4522035 -0.13208663 -0.124497145 0.0536006 0.056112994 0.09189496 -0.0051269177 -0.3056875
-0.21238652 0.20756038 -0.05278761 -0.09637208 0.16916814 0.09916238 0.12205005 0.16986158
0.4714259 -0.7277645 0.28052154 0.10923434 0.03513616 0.22358207 -0.18298198 0.14157052
-0.19987354 0.06882762 0.13838294 -0.12846354 0.16224183 -0.012938334 -0.102306604 -0.064547926
0.20573094 0.51195246 -1.0257543 0.39360857 -0.10940775 -0.22606713 0.0131906 -0.2404642
-0.16749373 -0.20396231 0.5030555 -0.0066840365 -0.028961835 -0.12399561 -0.08142476 -0.09144254
-0.13949518 -0.04254928 1.0375652 -1.0566028 0.39672992 -0.1882338 -0.09888144 0.19886415
-0.32292217 -0.0007883472 0.009536069 0.10787663 -0.052521486 -0.029162543 0.08447928 -0.088446304
-0.1471132 -0.15496537 0.09623176 0.60731584 -0.78817916 0.44694427 -0.1495396 -0.017470414
0.04701975 -0.06452257 0.11000319 0.29773423 0.27829364 -0.16688888 -0.0690686 0.12376163
0.03869728 -0.099395655 -0.105952874 -0.04817757 -0.06502427 -0.16392487 0.20719483 -0.07378259
0.28666687 0.036625218 -0.06357989 0.033529624 -0.29094636 -0.083284006 -0.2151621 0.08183963
-0.12916087 -0.08676149 -0.046633318 0.21329898 0.00033921425 0.09860234 -0.60023123 0.06158584
-0.2160528 0.17552303 -0.14125961 0.025673056 0.13022842 0.09341158 0.10052203 -0.206402
0.078474246 0.0068941554 0.059370227 0.07748742 0.010262017 -0.082877 -0.13364325 0.23408961
0.20832682 -0.14533515 0.12823871 0.117138304 0.16013514 0.3643416 0.4268856 0.28444758
0.20819817 -0.01566635 0.17486076 -0.19732334 0.24386667 0.021150345 0.008126787 -0.17302957

fc1.bias f4 [100]
00000000: 115f 203f df68 13be 1d07 fa3e 6266 f9bd
00000010: 31fb 113d 9dcb 943e b2d8 e63c 3f35 0abd
00000020: 699a 953e 91af 453e 8316 bbbd 1d69 4b3e
00000030: 1339 463f 4ee7 86bd 7207 ab3e 038e 9e3d
00000040: 05f0 4bbe 9362 56bd ea3a 983e 3d21 71bd
00000050: 2bd5 ec3e 15f5 563d 9c0a 813d e84d 21be
00000060: 8c27 b1bd 6c05 abbd 8582 8fbe 7ebf f23b
00000070: e45a 173f 7c44 c8bd d7e9 9c3c cefb ec3e
00000080: 25a4 00be abe6 b1bd cbd8 973e 1e99 1c3f
00000090: 5562 003f 6a96 0c3f 144f f83e 7eb9 803e
000000a0: 69ad 2d3e cc62 1fbe 7216 af3e c6e8 af3e
000000b0: 7f10 bc3e 1108 9d3e dcf3 bc3e 37d8 873e
000000c0: 1059 d63d 323e 2c3e 025d 263e f879 343e
000000d0: 6d48 36be b3c1 183e b6ff d83e 9629 8fbd
000000e0: 9170 783e 6e69 61bd b178 63be e30e 4bbe
000000f0: 395e 903e 5e98 0bbe 01f7 33bd 2e5e b53e
00000100: ffac 923d 9280 afbd 52b4 ed3e 319e e63e
00000110: 5c8b f23e 0f3a 9bbe 56d9 3f3d 989a 6a3e
00000120: 63e1 d43e 06c0 f03c e3c0 3e3f cca9 ad3e
00000130: 4268 9abd 9371 4c3e 4fb4 55be 8580 0b3f
00000140: 763b a5bd 62c9 c0bd 027e 0ebe 3d7b 643e
00000150: 5acd 52bd eec9 803d bd20 fb3b d817 81be
00000160: 6672 073f 550b 043f d3ee 543d a8c8 bcbd
00000170: 4607 92be 2267 d3bc e040 1a3e 6396 c93e
00000180: efc7 1dbe 4670 a03d c9d4 a2bd 3542 b13d
0.6264506 -0.14395474 0.48833552 -0.12177731 0.035639945 0.29061595 0.0281795 -0.033742186
0.29219368 0.19305255 -0.09135153 0.19864316 0.7743084 -0.065870866 0.33404118 0.0774193
-0.19915779 -0.0523401 0.29732448 -0.05886959 0.46256384 0.052479822 0.06300852 -0.15752375
-0.08650121 -0.083506435 -0.28029266 0.0074080816 0.59123063 -0.09778687 0.019154472 0.46285862
-0.12562616 -0.086865745 0.29657587 0.6117114 0.5015004 0.54917014 0.48497832 0.2514152
0.16960682 -0.15565032 0.34196812 0.3435728 0.36731336 0.30670217 0.369048 0.26532146
0.10466206 0.168206 0.16246417 0.17624652 -0.17801066 0.1491764 0.42382592 -0.06990354
0.2426169 -0.055032186 -0.22214009 -0.19829898 0.28196886 -0.13632342 -0.043936733 0.35423416
0.07161903 -0.08569445 0.46426636 0.45042565 0.47371948 -0.30317733 0.046838127 0.22910535
0.41578206 0.029388439 0.7451307 0.33918607 -0.07539417 0.199652 -0.20869564 0.5449298
-0.08067982 -0.09413411 -0.13915256 0.22312637 -0.05146537 0.06288515 0.007663815 -0.25213504
0.52908933 0.5157979 0.051985573 -0.0921796 -0.28521174 -0.025806013 0.1506381 0.39372548
-0.154083 0.078339145 -0.07950742 0.08655206

out.weight f4 [6, 100]
00000000: 2616 fd3e 20bb 793e f3b0 3c3e 48b4 0d3f
00000010: 4061 6f3e 00e8 0cbe 97b4 10bd 57fb 86be
00000020: 4716 de3c f422 bf3d d061 513e 76cd df3e
00000030: 7667 a8bc 5533 bd3e 486e 693e d6b8 55bc
00000040: c3ca 88bb ccd2 dbbd 6c50 003e c5ac e53b
00000050: 4a24 3d3e 80d7 8bbd 84cf 203e e1bd 97be
00000060: d229 e33b 6064 813d a3a1 36be 519a c93d
00000070: f701 783d b1e3 44be 45c7 51bd d159 aa3e
00000080: 4f29 ac3c ae50 20bd 48af 67be 3088 103f
00000090: 3fed 803c 72a3 d3bd 534f 753e db68 a83d
000000a0: e928 a73e 4640 a7bb 2824 413d 47b3 853e
000000b0: 66bb 553e 49fa 883e fc82 c1bd b224 3cbd
000000c0: 6cd5 913d ce39 203d d722 853c 303a 9dbd
000000d0: 06ff 52be 1a2c 953d d77a f53c 5ac0 1dbe
000000e0: 872e b03e 41f4 603e 9a20 01bd 7e36 87bd
000000f0: c366 223e 3a59 6d3e 3ca4 183e bef2 983e
00000100: e0c5 1939 d0b1 25be 761f e3bd 61d6 c53d
00000110: 74d3 28bd e7aa a9be 7684 703e ddf2 7fbd
00000120: a9d0 373e 6932 0c3e 0240 b63e 9ea8 cb3c
00000130: e514 a0be 5eb6 453e 97ef 2abe 0021 48bd
00000140: c05e d03e eb5b 643c 70f9 533e c42a 9a3e
00000150: 99a1 03be 0ee7 713e 8b9e 143f 82b7 a83d
00000160: 7e57 8a3e 3a63 b63e f3b8 0d3e 47b1 60be
00000170: 759e a9bd 8cf6 7e3e 6a3c 8c3e 15f1 903d
00000180: 860d 003d f0ef b13d 8d79 8c3e a475 bfbd
00000190: bb61 22be eaee b8bc 88c7 d6bd 111b 01be
000001a0: dbce 5abd e7c1 bbbd 9def 563c 54f8 8abd
000001b0: 735a be3d d3d7 53bd fe74 96bd 5869 d13d
000001c0: 3ecb aebd d553 3e3c c42d 0fbe b4b5 5e3e
000001d0: eb64 3c3d 3b8c 83bd d485 69bc 9b98 cb3d
000001e0: 9119 27bc 4b26 c83d 5163 34be 3057 05be
000001f0: 63b1 1eba 6efe 1dbe 8366 4dbe 706f bc3d
00000200: 1908 1ebc 30d4 033d 8d86 4dbd d3dc ccbd
00000210: f24b 92be 6a91 e4bd 603b dfbd 4061 c1bd
00000220: c71a 15be d930 15be 80da 81be 781f 99bc
00000230: bba3 bfbd 5dab 93bd 9101 69be 2065 29bd
00000240: c0cb 973e 08b7 99be 13c9 8abd 2123 17bd
00000250: 6101 a4ba b747 453d 1f45 163d a92c 213d
00000260: 4b33 983c 826a 35be 6512 67be a80b 56be
00000270: 514c dd3c 1ecf 46be 5b04 10bd 9b93 03bc
00000280: 5aca a5be e135 cfbc 0624 4c3e 5dc7 38be
00000290: bb77 533e cffb c73d 791c 46bd dd71 1dbd
000002a0: a5f1 333a fe37 d33d 0a6d 333e 85ee 80bd
000002b0: cf6c 38be aecf 053c f5b3 88be 4e82 9cbe
000002c0: 474c f63c d1ac cbbb 79e4 ae3d 0122 cbbd
000002d0: 0a57 093e 3ce0 a83d 58c6 b9bd 2ce5 1ebd
000002e0: bbfc 433e 336d 52bd d412 f1bc 1f1a 5ebd
000002f0: 5d02 07be 75dd 54be 27e3 07be 2095 18be
00000300: d258 3dbe 4170 33bd 7e80 d1bd 65d3 c7bd
00000310: 0b0c 0cbe f409 dbbc 2256 8d3b be6d 59bc
00000320: 865a 1a3e 99ce d4bd 3999 853e dedd 983d
00000330: 0bb1 693c 1741 5e3d 92d5 9cbe 552e 3e3e
00000340: 807b 5f3d d30d 763e 1b54 f43c f0a5 733c
00000350: 481d e43e 0ad1 e93d 60d3 07be 3d77 e53d
00000360: e555 023e 78ce bc3c 7f4e 93bc 9254 413d
00000370: 84ce ddbd 5bf4 023d b2f3 df3c 6451 ca3c
00000380: ffc0 1fbe c437 b13d d0d0 9bbd ff44 f0bc
00000390: 4b29 cc3e 45e0 a13c 7adf 37be 2234 55bd
000003a0: da77 043d c841 07be 1033 423d b70f 843e
000003b0: ead3 12be d7e1 5f3e 007e d83e 11a2 b43a
000003c0: e021 b23d 555e 8f3b aa61 e13e a351 b4bd
000003d0: d57e 9d3e 7599 2f3e 40a1 a73e 7605 21be
000003e0: e79d b53e 1047 06be 1764 1fbe a79a 773d
000003f0: 2e8e c2bd 7f87 39bc dd68 643e 9147 76be
0.4943096 0.24387789 0.18426876 0.5535321 0.23376942 -0.13760376 -0.035328474 -0.26363632
0.027110232 0.09332839 0.20447469 0.43711442 -0.020557147 0.36953226 0.22795975 -0.013044557
-0.0041745617 -0.10733566 0.12530679 0.007009121 0.18470874 -0.06828213 0.15704161 -0.29637054
0.0069324756 0.06317973 -0.17835097 0.09843887 0.06054875 -0.19227482 -0.05121543 0.3327165
0.021015791 -0.039139442 -0.22625458 0.56457806 0.015738128 -0.10333909 0.23956041 0.082231246
0.326484 -0.0051040975 0.047153622 0.2611334 0.20872268 0.26753452 -0.094488114 -0.045933433
0.07120785 0.039117627 0.016251964 -0.07677114 -0.20605096 0.07283802 0.029965801 -0.15405408
0.34410498 0.21968175 -0.031525232 -0.066021904 0.15859513 0.23178568 0.149064 0.29872698
0.00014664931 -0.16181111 -0.11089985 0.0966003 -0.041217282 -0.331382 0.2348803 -0.06248747
0.17950691 0.13691105 0.3559571 0.024860676 -0.3126594 0.19307849 -0.16692959 -0.048859596
0.4069729 0.013937931 0.20700622 0.30110753 -0.12854613 0.23623297 0.5805442 0.08238126
0.27019876 0.3562258 0.13840084 -0.21942626 -0.082821764 0.24898738 0.27389842 0.07077233
0.031262897 0.086883426 0.27436486 -0.0934861 -0.15857594 -0.02257486 -0.10487276 -0.12607981
-0.05341993 -0.09167843 0.013118652 -0.06785646 0.092945956 -0.051719498 -0.07346533 0.10225171
-0.08534859 0.011616667 -0.13982302 0.21749002 0.04599468 -0.06423231 -0.0142530985 0.099412166
-0.010198967 0.09772929 -0.17616011 -0.1302154 -0.00060536544 -0.15429088 -0.20058636 0.092009425
-0.009645485 0.03218478 -0.050177146 -0.100030564 -0.28573567 -0.11160548 -0.10899997 -0.09442377
-0.14560996 -0.14569415 -0.25362015 -0.018691763 -0.09357401 -0.07210419 -0.22754504 -0.041356206
0.29647636 -0.30022454 -0.06776633 -0.036898736 -0.0012512618 0.048164096 0.036687013 0.039349232
0.018579146 -0.17716411 -0.2256561 -0.20902884 0.02701393 -0.19414946 -0.035160404 -0.008030797
-0.32380944 -0.025294246 0.19935617 -0.18044801 0.20651142 0.097648256 -0.048366997 -0.038438667
0.0006864316 0.10313414 0.17522064 -0.06295494 -0.18010257 0.0081671905 -0.26699796 -0.30568165
0.030065669 -0.0062156697 0.085396715 -0.09918595 0.13412109 0.08245894 -0.09071034 -0.038792774
0.19139378 -0.05137367 -0.029427923 -0.05422413 -0.13184495 -0.20787604 -0.13270245 -0.14900637
-0.18490914 -0.043808226 -0.10229586 -0.09757117 -0.13676469 -0.026738144 0.0043132463 -0.0132707935
0.15073594 -0.10390968 0.26093462 0.07464193 0.014263402 0.054261293 -0.3063169 0.18572362
0.05456114 0.24028711 0.02982526 0.014871106 0.4455359 0.11416824 -0.13264227 0.112043835
0.12728079 0.02304767 -0.017981766 0.047199793 -0.10830405 0.031971317 0.027337883 0.024697013
-0.15600966 0.086532146 -0.07608187 -0.029329775 0.39875254 0.01976026 -0.17956343 -0.05205167
0.03234086 -0.13208687 0.04741198 0.2579324 -0.14338651 0.21863495 0.4228363 0.001378121
0.086978674 0.004375259 0.44019824 -0.088046335 0.30760828 0.17148383 0.3274021 -0.1572474
0.35472032 -0.13113046 -0.15565525 0.060450222 -0.09499775 -0.011323809 0.22305627 -0.24050738

out.bias f4 [6]
00000000: 3dec f23d 3a7a e4bd 44d5 fa3d 8eae 793e
00000010: 96a5 2a3e e303 273e
0.11861465 -0.11156125 0.122477084 0.24382994 0.16664729 0.16310076
