models/MountainCarContinuous-v0/LossPER/Dagger_615.pth (torch, 3167 bytes, 3 tensors)

fc1.weight f4 [100, 2]
0	0x3e8ec4b1	0.2788444
1	0x3e5e08e9	0.21683086
2	0xbe81e2ed	-0.25368443
3	0xbf4f26f5	-0.8091882
4	0xbec0a11c	-0.37622917
5	0xbf5cfffa	-0.8632809
6	0xbe379cdc	-0.17930931
7	0x3df561ca	0.119815424
8	0x3da010c3	0.07815697
9	0xbd9a90cc	-0.07547149
10	0xbe060efb	-0.13091652
11	0xbd5a21af	-0.05325478
12	0x3d862fec	0.06552109
13	0xbd198193	-0.037477087
14	0xbb5f9943	-0.003411845
15	0xbdc20a4c	-0.0947462
16	0xbe5d1d02	-0.21593097
17	0x3d526e6d	0.05137484
18	0x3dd32eab	0.103116356
19	0x3da45029	0.08023102
20	0x3d735b82	0.05941344
21	0xbe9ae95d	-0.30256167
22	0x3eb41864	0.3517486
23	0x3f5d1faf	0.8637647
24	0x3b17ade0	0.002314441
25	0x3da46864	0.080277234
26	0xbeab7f78	-0.33495688
27	0xbf5f973d	-0.87340146
28	0x3ee4b54d	0.44669572
29	0x3f8eff30	1.1171627
30	0xbea80656	-0.32817334
31	0xbfa00374	-1.2501054
32	0xbe557e28	-0.20848906
33	0xbf7baec8	-0.9831357
34	0xbe2c0687	-0.16799365
35	0xbf8e5371	-1.1119214
36	0xbdae13bb	-0.08499857
37	0xbf6dd7dc	-0.929075
38	0x3e05c2a7	0.13062535
39	0xbe38fbf4	-0.18064862
40	0xbeecc5a4	-0.46244538
41	0xbf94a0ab	-1.1611532
42	0xbde208fd	-0.11036871
43	0x3e3d93a8	0.18513358
44	0x3db925e8	0.09040433
45	0xbd2e6c33	-0.042583656
46	0x3e8023d6	0.2502734
47	0x3c9ea273	0.019364571
48	0x3e1b6f07	0.15179072
49	0x3e31da9a	0.17368546
50	0xbea42266	-0.32057494
51	0xbf433cdb	-0.76264733
52	0x3e855671	0.26042512
53	0x3f724021	0.946291
54	0xbdc6f3b2	-0.0971445
55	0x3d21b65a	0.039480545
56	0x3cfb5db2	0.030684326
57	0x3da29858	0.079392135
58	0x3c026dec	0.007960778
59	0x3e3a9453	0.18220644
60	0xbd9872cc	-0.07443771
61	0x3c64537d	0.013935921
62	0x3ed65737	0.41863415
63	0xbe21a504	-0.15785605
64	0x3e8c9301	0.27455905
65	0x3f655bd0	0.8959322
66	0x3db918bb	0.0903792
67	0x3dd0976b	0.10185131
68	0xba8dc892	-0.0010817221
69	0xbd3fa27a	-0.04678581
70	0x3e89311b	0.26795277
71	0x3f83e8ee	1.030546
72	0x3cbdf90c	0.023190044
73	0xbdefad12	-0.117029324
74	0x3db28470	0.08716667
75	0x3dc1ac5b	0.09456702
76	0xbe4be09e	-0.19909903
77	0xbf866208	-1.0498667
78	0xbd994444	-0.07483724
79	0xbf63348e	-0.8875207
80	0x3d39463a	0.04523299
81	0x3cc79571	0.024363251
82	0x3e0c11c7	0.13678657
83	0x3ccc6d97	0.0249546
84	0x3ebe3df9	0.37156656
85	0x3fa1b0ad	1.2632042
86	0x3eb2aaa9	0.34895828
87	0x3f25d0c0	0.6477165
88	0xbdb0af85	-0.08627228
89	0xbd00a43f	-0.031406637
90	0x3cc1862e	0.023623552
91	0x3d38d6d9	0.04512677
92	0x3ec8741d	0.39151087
93	0x3f756004	0.95849633
94	0x3c501f48	0.0127027705
95	0xbf25abba	-0.6471516
96	0x3d89b6bb	0.06724306
97	0x3da25623	0.079265855
98	0x3e95766c	0.2919191
99	0x3fa81510	1.3131428
100	0xbe7b0699	-0.24514236
101	0xbf5991b6	-0.8498796
102	0x3e325819	0.17416419
103	0x3d5bcfcb	0.053664964
104	0x3e4e5e5b	0.20153181
105	0x3fdaf29a	1.7105286
106	0x3ec5f6b5	0.38664785
107	0x3f2d9216	0.67801034
108	0x3eac4b6b	0.3365129
109	0xbf0c9538	-0.5491519
110	0xbe2f05e8	-0.17092097
111	0xbf87fd2d	-1.0624138
112	0xbcc577b9	-0.02410494
113	0x3d912e7e	0.07088946
114	0x3d9918c3	0.07475426
115	0x3d0d7995	0.034539778
116	0xbe51e8a9	-0.20498909
117	0xbf623aec	-0.8837116
118	0x3f18d7c2	0.5970422
119	0x3f7eeb8b	0.9957816
120	0x3f564af1	0.837081
121	0x3e89ecf8	0.26938605
122	0x3e06edf0	0.13176703
123	0x3f82aabb	1.0208353
124	0x3e0f18e0	0.13974333
125	0x3da0724b	0.078343
126	0x3f438901	0.76380926
127	0x4014e136	2.3262458
128	0xbd5e9d8b	-0.054349463
129	0xbd2cd351	-0.042193715
130	0x3de2726d	0.11056981
131	0xbe12e813	-0.14346342
132	0xbea60e5d	-0.32432833
133	0xbf86889a	-1.0510437
134	0xbd6b905b	-0.057510715
135	0x3ba6b403	0.005087377
136	0xbb465eee	-0.0030268985
137	0x3d26fa0b	0.040765803
138	0x3e7b3199	0.24530639
139	0x4001d2dc	2.0284948
140	0xbe70a1b3	-0.23499183
141	0x3d16f04d	0.036850262
142	0x3ccdbb28	0.025113657
143	0xbdd61bdd	-0.10454533
144	0x3e4ee93a	0.20206156
145	0x3f8808d6	1.0627697
146	0x3ec3e513	0.38260707
147	0x3eaeb224	0.34120286
148	0x3ef64d30	0.48105764
149	0xbe7a7223	-0.24457602
150	0xbac00167	-0.0014648855
151	0x3ce64c20	0.028112471
152	0xbe6e33a2	-0.23261884
153	0xbf633e6b	-0.8876712
154	0xbde579d3	-0.11204877
155	0x3f47cf11	0.78050333
156	0x3e9129d6	0.2835223
157	0x3f5fc43a	0.8740879
158	0x3e0c4367	0.13697587
159	0x3a81102c	0.0009846739
160	0x3dae955f	0.08524584
161	0x3d1361d7	0.03598198
162	0xbe3b4e39	-0.18291558
163	0xbf6a55f7	-0.9153742
164	0x3e70e291	0.23523928
165	0x3f7ae978	0.98012495
166	0xbd5a2b43	-0.053263914
167	0x3e25f024	0.16204888
168	0x3e9de878	0.30841422
169	0x3f5eaefd	0.8698576
170	0xbe311ddd	-0.17296548
171	0xbf7ad879	-0.9798656
172	0x3e7d6f1d	0.24749418
173	0x3f845ab8	1.0340185
174	0x3dd6fe8c	0.1049777
175	0x3aeb6c65	0.0017961381
176	0x3d70bdca	0.058774747
177	0xbd74ee25	-0.059797425
178	0x3cbe6e02	0.023245815
179	0xbc816933	-0.015797233
180	0x3e89eb79	0.26937464
181	0x3f91e084	1.1396642
182	0x3e5d4634	0.21608812
183	0x3f81b0ee	1.013212
184	0xbe2f0c9f	-0.17094658
185	0xbf679b54	-0.90471387
186	0xbd0006f7	-0.031256642
187	0xbd2e4ed0	-0.04255563
188	0xbc7f3807	-0.015577323
189	0xbf9ac920	-1.2092628
190	0x3d6571c7	0.05601671
191	0xbb70c31f	-0.0036737395
192	0xbe2177b8	-0.15768325
193	0x3d3b9976	0.04580065
194	0x3e841fbf	0.2580547
195	0x3fe7dac0	1.8113632
196	0x3e9bcb2b	0.30428442
197	0x3f88d9dd	1.0691487
198	0x3d36b6c7	0.044607904
199	0xbe3482dc	-0.17628044

fc1.bias f4 [100]
0	0x3e333816	0.17501864
1	0x3e76b317	0.24091755
2	0x3f05261c	0.52011275
3	0xbf279221	-0.6545735
4	0xbe17cd98	-0.14824522
5	0xbeeb7ffe	-0.45996088
6	0xbe8eb495	-0.27872148
7	0xbe77aa22	-0.24185994
8	0xbe982f65	-0.2972366
9	0xbddb14a4	-0.10697296
10	0x3efe0971	0.49616578
11	0x3e9900f2	0.29883534
12	0xbeb7513d	-0.35804167
13	0x3f1154a4	0.56769776
14	0x3ea5b5cb	0.3236526
15	0xb9f5030c	-0.00046732312
16	0x3f03ee6a	0.51535666
17	0x3cffdf6e	0.03123447
18	0x3d1595f5	0.036519963
19	0x3e2fd5f8	0.17171466
20	0xbcfe05c6	-0.031008612
21	0xbf19f4b3	-0.60139006
22	0xbee0d6f2	-0.4391399
23	0x3e577ea3	0.21044402
24	0xbe8f090f	-0.279366
25	0x3ef6454e	0.4809975
26	0x3e890dd0	0.2676835
27	0xbe9fd308	-0.31215692
28	0xbf043eee	-0.51658523
29	0xbf30531e	-0.68876827
30	0xbf1360ed	-0.5756977
31	0x3e929602	0.28630072
32	0x3f1a5518	0.6028609
33	0xbd310ea6	-0.04322686
34	0xbe47c9e4	-0.19510609
35	0x3f284a32	0.65738213
36	0xbf0a594c	-0.54042506
37	0xbd9f34b8	-0.07773727
38	0x3e2ef44e	0.17085382
39	0x3f096ed7	0.53684753
40	0xbf12e3dc	-0.57378936
41	0xbed9591e	-0.42450804
42	0x3ef48933	0.47760925
43	0x3ea1cda6	0.3160221
44	0xbed76ffc	-0.42077625
45	0xbf02b308	-0.5105443
46	0x3f1fffb8	0.6249957
47	0x3deee5d7	0.11664932
48	0xbee56562	-0.4480391
49	0x3e7c6110	0.24646401
50	0x3ea20408	0.316437
51	0xbde102d0	-0.109868646
52	0x3e2dcc57	0.1697248
53	0x3eb23446	0.34805506
54	0x3e6f1d6a	0.23351064
55	0x3ebe7c74	0.37204325
56	0xbe919042	-0.28430372
57	0xbddc31c0	-0.107516766
58	0x3e8765ec	0.26444948
59	0x3ed821a3	0.42213163
60	0x3f10d060	0.56567955
61	0x3f0c555a	0.54817736
62	0xbf06313b	-0.5241887
63	0x3d164a61	0.036692027
64	0xbf0562f7	-0.52104133
65	0xbef3f4f0	-0.4764781
66	0x3f01270a	0.50450194
67	0xbf247a86	-0.64249456
68	0xbeb32456	-0.3498866
69	0x3e560b0a	0.20902649
70	0xbf2ac62d	-0.6670864
71	0xbebd1803	-0.36932382
72	0x3e3540ae	0.17700455
73	0x3ea6ed4f	0.32602927
74	0x3ea939f1	0.33052018
75	0xbe5ca4ba	-0.21547213
76	0x3ee99437	0.4562089
77	0x3eb0fdf7	0.3456876
78	0x3f10e500	0.56599426
79	0xbdca1a48	-0.09868294
80	0xbf2fe42f	-0.68707556
81	0x3f003318	0.5007796
82	0x3ed9513a	0.42444783
83	0xbec9fe3e	-0.39451784
84	0x3f1cca60	0.612463
85	0x3e499941	0.19687368
86	0x3f0890f9	0.5334621
87	0x3ec3f163	0.382701
88	0xbe8647b5	-0.26226583
89	0xbee3d5ca	-0.44499046
90	0x3f1865cf	0.5953035
91	0x3f13d93b	0.5775334
92	0x3e3aab7d	0.1822948
93	0xbf1808c8	-0.593884
94	0x3b827d4d	0.003982222
95	0xbeedcfb8	-0.4644754
96	0xbee6144b	-0.44937357
97	0x3e5d8dfa	0.21636191
98	0x3efc0b3e	0.49227327
99	0xbf219e0c	-0.63131785

out.weight f4 [1, 100]
0	0x3d3d0d1e	0.046155088
1	0xbe3faef5	-0.18719085
2	0xbe028ad0	-0.12748265
3	0x3d7db6b2	0.06194181
4	0x3d392584	0.045201793
5	0xbd161dfb	-0.036649685
6	0xbd2ebdf5	-0.042661626
7	0xbd6bf0b7	-0.05760261
8	0xbdb9590b	-0.09050187
9	0x3b367867	0.0027842761
10	0xbc815659	-0.015788244
11	0x3e0d3efc	0.13793558
12	0xbc2f8674	-0.0107132085
13	0xbe281dfe	-0.16417691
14	0x3f195d25	0.5990775
15	0xbe9ebb6e	-0.31002373
16	0xbd12d834	-0.03585072
17	0xbe045ce6	-0.12926063
18	0xbdf2f2cf	-0.11862718
19	0xbb9e5d84	-0.0048329253
20	0xbe6d6e54	-0.23186618
21	0xbdd06383	-0.1017523
22	0x3d38ef68	0.04515019
23	0x3e0364f6	0.12831482
24	0x3cb0f97b	0.021603337
25	0xbe4d7687	-0.20064746
26	0x3dfded17	0.12398737
27	0x3d0ae59e	0.033910386
28	0xbd8ba987	-0.06819444
29	0xbd8b5b0b	-0.068044744
30	0xbda833c4	-0.082129985
31	0x3e89ecd4	0.26938498
32	0x3e2c6518	0.16835439
33	0x3c83851a	0.016054679
34	0xbe1630d3	-0.14667062
35	0x3df5c00c	0.11999521
36	0xbd22f3a2	-0.039783128
37	0x3bea1d15	0.00714458
38	0xbdbd3a17	-0.092395954
39	0xbd55e43f	-0.052219626
40	0x3de66e9f	0.11251568
41	0x3decee6d	0.115689136
42	0x3cfdcdfe	0.030982014
43	0x3e96ddc6	0.29466075
44	0x3d98d89c	0.0746319
45	0xbe48df9b	-0.19616549
46	0x3d89aa42	0.06721927
47	0xbd82b452	-0.063820496
48	0xbe0aabf8	-0.13542163
49	0x3e2a5da5	0.16637285
50	0xbe31c721	-0.17361118
51	0xbdc8dbcd	-0.09807549
52	0x3eedea1b	0.4646767
53	0x3e8aa42c	0.27078378
54	0x3f251dc7	0.6449856
55	0xbd154de1	-0.036451224
56	0xbd3bd03c	-0.045852885
57	0xbd85509b	-0.06509515
58	0xbdc5aba2	-0.09651877
59	0x3ebd2278	0.3694036
60	0x3e243b13	0.1603816
61	0x3da675d1	0.081279404
62	0x3d93ca03	0.07216265
63	0x3e8400bf	0.2578182
64	0x3d0f4c47	0.034984853
65	0x3dfe362d	0.12412677
66	0xbde07606	-0.10960011
67	0xbd0ce364	-0.034396544
68	0x3db4b93c	0.08824393
69	0x3ed77e3d	0.420885
70	0x3e629b12	0.22129467
71	0xbd1d236b	-0.038363855
72	0x3d4aca74	0.04950948
73	0x3e20378e	0.15646192
74	0x3e8bed3d	0.27329436
75	0x3e1bc82a	0.15213075
76	0xbe146581	-0.14491846
77	0x3d71ab35	0.059001166
78	0x3ed5da4d	0.41768113
79	0x3e598e88	0.21245778
80	0xbd3f7b5c	-0.046748504
81	0xbda31ee4	-0.07964876
82	0x3dfddbc8	0.123954356
83	0x3e79a43d	0.24379058
84	0x3e43fa00	0.19138336
85	0xbdd10f38	-0.10207981
86	0x3e603616	0.21895632
87	0xbc09f748	-0.008420773
88	0xbd84c668	-0.064831555
89	0xbb7929af	-0.003801923
90	0x3e40f6b9	0.18844117
91	0x3ddd9ef9	0.10821337
92	0xbd8c4829	-0.06849701
93	0x3d5ac453	0.053409886
94	0xbc160698	-0.0091568455
95	0xbd5d99f0	-0.054101884
96	0x3ca7a0da	0.020462442
97	0x3eec6c28	0.46176267
98	0x3d3ed420	0.046589017
99	0xbd129e3b	-0.03579543
