models/LunarLanderContinuous-v2/MaxDisSample/Dagger_105.pth (torch, 5919 bytes, 4 tensors)

fc1.weight f4 [100, 8]
-0.25380853 0.096637085 -0.033835754 -0.032704454 -0.0058464236 -0.39981097 -0.0828307 0.6868158
-0.41864586 -0.16543542 0.20518489 -0.82907367 0.25898826 0.49650735 -0.024688676 -0.3678735
0.056088757 0.12753521 0.27239347 -0.54663545 -0.2017573 -0.5535192 -0.16727906 0.43332976
-0.10185181 -0.043352492 -0.21105716 -0.26388833 0.029784855 0.14495803 -0.12863764 0.013255315
-0.25697204 -0.22573993 0.023675555 -0.009061604 0.2236691 0.12796049 -0.13780057 0.030442828
-0.07214994 -0.34261134 0.01127997 0.24432819 0.013364682 -0.026680445 0.1006575 -0.15061459
-0.27732226 0.067603156 -0.37438598 -0.40959936 -0.87259847 -0.4276688 0.27393228 0.31513906
0.15585908 0.021351384 0.08959854 -0.40471843 -0.03158015 -0.36680594 0.00052802195 0.42124084
-0.25233063 -0.28247616 -0.02755983 -0.67101395 0.3386712 0.095483646 0.11693565 -0.3825224
0.0792109 -0.11470057 -0.6617444 0.45596778 0.26237768 0.1950324 0.32690546 -0.045492526
-0.030996023 -0.20555292 0.023983408 0.1188738 -0.074505776 -0.054095026 -0.053070866 0.1548753
0.20441097 -0.43650806 1.2712989 0.5644304 0.8203524 -0.42209405 0.29139552 0.44595495
-0.0011257068 0.29465848 -0.8143527 1.0941733 -0.10204671 0.04403607 -0.3739185 -0.57926667
0.021201394 -0.18797457 0.068290725 0.004291084 0.00042743978 -0.1615979 -0.059365146 -0.15929909
0.045596484 -0.02387613 -0.15001957 0.14002836 0.010812885 0.23024611 -0.25176847 -0.25266993
-0.5952763 0.21871164 -0.29344532 -0.40145403 -0.18632741 -0.40364385 -0.31290707 0.4272149
-0.033008583 -0.04392118 0.76148045 -0.45571348 -0.09003871 -1.2891493 -0.19343571 -0.48082274
-0.32943025 -0.0452493 0.07652835 -1.0019708 0.22097105 0.4224043 0.082620755 0.053111535
-0.06711893 -0.19868828 -0.047286026 -0.016697483 -0.054362334 0.02559949 0.009858307 -0.19124745
-0.02703252 0.09761765 -0.4204675 0.14825124 0.46270445 0.14423044 -0.3078648 -0.1045316
-0.087632544 -0.22788145 0.11648733 -0.47545534 -0.025053952 -0.4485288 -0.44989938 0.36055663
-0.037962098 0.05363866 -0.07931894 0.18129832 0.18646182 -0.0010675786 -0.4544392 0.10608038
0.009755102 0.043437313 -0.60153764 0.7715566 0.17791189 0.2421036 0.2870928 -0.033385545
-0.10212182 0.22234821 -0.039171245 0.12053555 0.46089822 0.38167775 0.24540786 -0.09543464
0.16822475 -0.45843694 0.15278167 -0.5779299 0.14765683 -0.8365566 -0.5548625 0.36575717
0.16181697 0.012518405 0.10461884 -0.39744577 -0.027237441 -0.40076116 -0.10025545 0.27985424
0.0139338765 0.5039697 0.12166712 0.70301163 -0.09279024 -0.071095444 -0.03769658 -0.00490358
-0.038227383 -0.1097434 -0.077552505 0.027911356 0.058008518 -0.022922982 0.23580801 -0.23654704
-0.059851494 -0.20930527 -0.04066475 -0.05458876 -0.02897705 0.10034796 -0.0042237984 -0.030286351
0.03030145 0.1443797 0.19018921 0.7515813 -0.013076255 -0.15589634 0.3228541 0.1269667
0.10353628 -0.18295181 0.1298274 -0.40195677 0.07567848 -0.43909267 -0.0710929 0.47786662
0.013787229 -0.12307827 0.076057285 0.2002856 -0.04926011 -0.079977855 0.05800201 -0.074913554
00000000: 31f3 81be aae9 c53d 5c97 0abd 1bf5 05bd
00000010: 5b93 bfbb 06b4 ccbe 24a3 a9bd 29d3 2f3f
00000020: c058 d6be e767 29be fd1b 523e 2c3e 54bf
00000030: 1c9a 843e 3636 fe3e e83f cabc ea59 bcbe
00000040: 53bd 653d 9798 023e 2877 8b3e 4df0 0bbf
00000050: 7799 4ebe 6fb3 0dbf 344b 2bbe 66dd dd3e
00000060: af97 d0bd 6292 31bd 5e1f 58be 5f1c 87be
00000070: 5eff f33c e16f 143e 96b9 03be d22c 593c
00000080: d791 83be 5e28 67be 3df3 c13c 1f77 14bc
00000090: 8309 653e 1308 033e 981b 0dbe 3d63 f93c
000000a0: 59c3 93bd c16a afbe a0cf 383c 2b31 7a3e
000000b0: 8af7 5a3c f390 dabc 8525 ce3d b63a 1abe
000000c0: 2ffd 8dbe 8673 8a3d 85af bfbe 02b7 d1be
000000d0: 9d62 5fbf 68f7 dabe da40 8c3e e859 a13e
000000e0: 8699 1f3e 19e9 ae3c 707f b73d 4137 cfbe
000000f0: 305a 01bd fdcd bbbe f46a 0a3a e1ac d73e
00000100: 7b31 81be b7a0 90be 27c5 e1bc 92c7 2bbf
00000110: 5066 ad3e ee8c c33d f57b ef3d fad9 c3be
00000120: 5339 a23d 22e8 eabd 1568 29bf 9c74 e93e
00000130: 5e56 863e 93b6 473e 2760 a73e 5f56 3abd
00000140: 5feb fdbc 777c 52be da78 c43c 1b74 f33d
00000150: 7c96 98bd bf92 5dbd d660 59bd a197 1e3e
00000160: 1c51 513e fc7d dfbe ecb9 a23f 837e 103f
00000170: 9d02 523f b61c d8be cb31 953e 3554 e43e
00000180: 748c 93ba 7add 963e 6b79 50bf df0d 8c3f
00000190: defd d0bd 2b5f 343d 3f72 bfbe d24a 14bf
000001a0: 8cae ad3c 687c 40be 02dc 8b3d 399c 8c3b
000001b0: ff19 e039 eb79 25be de28 73bd 4d1f 23be
000001c0: 61c3 3a3d e097 c3bc bb9e 19be 9863 0f3e
000001d0: 8728 313c a3c5 6b3e cce7 80be f45d 81be
000001e0: 0764 18bf f2f5 5f3e 773e 96be 628b cdbe
000001f0: 9dcc 3ebe 68aa cebe 5b35 a0be e9bb da3e
00000200: 0234 07bd b2e6 33bd 62f0 423f 4753 e9be
00000210: 3766 b8bd d802 a5bf 0314 46be 662e f6be
00000220: 15ab a8be 5457 39bd e5ba 9c3d 9440 80bf
00000230: 3c46 623e 6045 d83e 1235 a93d 7b8b 593d
00000240: a675 89bd f174 4bbe feae 41bd 29c9 88bc
00000250: 0aab 5ebd 06b6 d13c bd84 213c 5fd6 43be
00000260: 4e73 ddbc c3eb c73d 8447 d7be 2ccf 173e
00000270: 99e7 ec3e 25b1 133e 74a0 9dbe aa14 d6bd
00000280: b178 b3bd c159 69be e990 ee3d e26e f3be
00000290: f23d cdbc 91a5 e5be 3659 e6be e19a b83e
000002a0: 257e 1bbd 36b4 5b3d f871 a2bd 44a6 393e
000002b0: d9ef 3e3e feed 8bba 41ac e8be ac40 d93d
000002c0: ddd3 1f3c 53eb 313d 5ffe 19bf bc84 453f
000002d0: 892e 363e 02ea 773e d4fd 923e 48bf 08bd
000002e0: 3f25 d1bd 40af 633e 0772 20bd 58db f63d
000002f0: dafa eb3e 446b c33e 334c 7b3e 3d73 c3bd
00000300: 1c43 2c3e 3fb8 eabe cc72 1c3e 37f3 13bf
00000310: 5a33 173e 9328 56bf 780b 0ebf 8644 bb3e
00000320: 59b3 253e ff19 4d3c 6742 d63d 037e cbbe
00000330: 0e21 dfbc 9130 cdbe bb52 cdbd 0e49 8f3e
00000340: ea4a 643c 2904 013f 9c2c f93d 92f8 333f
00000350: cf08 bebd 7d9a 91bd bb67 1abd 36ae a0bb
00000360: 5194 1cbd 26c1 e0bd d9d3 9ebd 5ba6 e43c
00000370: 579a 6d3d fac8 bbbc a877 713e 6339 72be
00000380: d726 75bd 1f54 56be 1590 26bd 7798 5fbd
00000390: 4761 edbc 3b83 cd3d ca67 8abb 151b f8bc
000003a0: bf3a f83c 46d8 133e f6c0 423e a267 403f
000003b0: ca3d 56bc 4aa3 1fbe 224d a53e 8f03 023e
000003c0: d40a d43d b857 3bbe 79f1 043e 47cd cdbe
000003d0: 52fd 9a3d c1d0 e0be 2899 91bd efaa f43e
000003e0: d4e3 613c 7610 fcbd ecc3 9b3d ab17 4d3e
000003f0: f8c4 49bd 6ecb a3bd 8493 6d3d 476c 99bd

fc1.bias f4 [100]
-0.17352782 0.048929695 0.021294368 0.31028885 -0.1005823 -0.42498967 -0.12115403 0.06334913
0.1760913 0.21007721 -0.12775034 0.23094156 0.11905354 -0.12891541 0.20902729 -0.35269514
0.09740642 0.040364932 -0.331214 0.08269818 0.11149549 -0.16565594 0.13778923 0.3147522
0.12823759 0.18684615 0.3831394 -0.03610929 -0.31137547 0.22775 0.15957709 -0.15726785
-0.1395915 0.2959482 0.17872854 0.3315422 0.059037432 0.1465761 0.023242341 0.19727078
-0.3043604 0.25039247 -0.09915815 0.20123354 0.15888482 -0.25405312 -0.0092986915 -0.41406044
-0.33075017 -0.45544794 -0.07956307 0.28850216 -0.26134452 0.4027332 0.17928064 0.15962878
-0.34061688 0.027998706 0.13825615 0.30423084 -0.18703608 0.011356999 0.18098165 0.29138234
-0.14391619 0.1319007 0.11140088 0.09461348 0.24010494 0.2669581 -0.24748234 0.13878134
0.2822934 -0.46439943 0.12263452 0.32627222 0.2215644 0.28645462 -0.16507176 -0.1114235
0.20145111 -0.19144185 -0.13223778 0.19321887 0.24285851 -0.36229512 -0.00846119 -0.35061222
-0.19798239 -0.107518084 0.0018489962 0.15520155 0.21942607 -0.27968848 -0.012414794 0.11514858
0.032594793 0.19097543 -0.38570106 0.20798808
00000000: 47b1 31be 816a 483d 8771 ae3c 2ede 9e3e
00000010: 18fe cdbd 3f98 d9be 9b1f f8bd 30bd 813d
00000020: 4751 343e 7b1e 573e fcd0 02be f27b 6c3e
00000030: 58d2 f33d 6702 04be 400b 563e 7594 b4be
00000040: 047d c73d b355 253d e294 a9be aa5d a93d
00000050: bf57 e43d b6a1 29be 9f18 0d3e 3327 a13e
00000060: b750 033e 9954 3f3e d92a c43e 56e7 13bd
00000070: 9b6c 9fbe 4c37 693e 2d68 233e d30a 21be
00000080: 13f1 0ebe 8686 973e 9d04 373e e6bf a93e
00000090: 3cd1 713d 0c18 163e b966 be3c 5a01 4a3e
000000a0: 20d5 9bbe 7133 803e 6e13 cbbd 2a10 4e3e
000000b0: b4b2 223e 4013 82be 8a59 18bc bbff d3be
000000c0: 1658 a9be 7930 e9be f6f1 a2bd 8eb6 933e
000000d0: f3ce 85be 0c33 ce3e 5895 373e ba75 233e
000000e0: 5665 aebe 8b5d e53c 0593 0d3e 25c4 9b3e
000000f0: 6386 3fbe b512 3a3c 4153 393e 1130 953e
00000100: c45e 13be fa10 073e 2526 e43d b6c4 c13d
00000110: 12de 753e bbae 883e 036c 7dbe b21c 0e3e
00000120: c388 903e c3c5 edbe cf27 fb3d 270d a73e
00000130: c7e1 623e 2eaa 923e 9208 29be 0132 e4bd
00000140: 3349 4e3e 5509 44be 5769 07be 2bdb 453e
00000150: e7af 783e bf7e b9be cea0 0abc 7283 b3be
00000160: e5bb 4abe 7132 dcbd 045a f23a 28ed 1e3e
00000170: 3ab1 603e 5433 8fbe 6c67 4bbc 05d3 eb3d
00000180: 1e82 053d 108f 433e 9c7a c5be d4fa 543e

out.weight f4 [2, 100]
0.06481328 0.31039566 0.388235 0.09206265 0.15611817 -0.07509151 -0.20078072 0.15601844
0.16925912 0.1958588 0.04001537 -0.56713605 -0.628408 0.27982676 -0.12364631 -0.040680416
1.3082052 0.4599058 0.05969352 -0.22399038 0.4075915 0.026056942 -0.029560467 -0.17894845
0.3124556 0.14574449 -0.34536022 0.11733062 0.07792436 -0.18356672 0.15378995 0.06909794
-0.1764097 -0.15926604 0.1791062 0.08386298 -0.34325433 -0.36096907 0.4981927 0.14416207
0.027743174 0.3179588 0.9049167 0.011993952 0.029126648 -0.0033592882 0.51817447 0.0945935
-0.065431304 0.61803395 1.1818755 -0.16359985 0.029336162 0.14561152 -0.04509422 -0.03632869
0.003758902 0.6987637 -0.29863298 -0.16582437 0.29133156 -0.112732254 0.36117843 0.27651405
-0.24525687 -0.11830689 -0.47775382 -0.064515494 0.23100606 -0.31670088 0.46045104 -0.34422454
0.1984971 -0.040940456 0.122055404 0.08185801 0.511113 -0.09541052 0.26342312 0.22148745
-0.16278468 0.15412402 -0.21969393 -0.20226717 0.1605536 0.49114087 0.3563321 -0.19646917
-0.021462519 0.08375319 0.031883385 -0.110418655 0.19850641 -0.59910333 -1.1513565 -0.11175953
0.7067582 0.18760346 -0.1554057 -0.17699212 -0.19232175 0.5599899 -0.28108704 0.19190778
-0.0023321402 0.030542899 -0.3610987 -0.1621247 0.04394372 0.6274216 0.0056265346 -0.69791836
0.23637198 0.10259208 0.13674258 -0.54398423 -0.8392783 0.43504435 -0.032383963 0.21439967
-0.17809124 -0.026169084 1.001792 0.3697286 -0.2839094 -0.22791812 -0.04451083 0.021448316
-0.10553489 -0.15383054 -0.17899694 0.026009742 -0.34801024 0.016206449 0.5278364 0.29645532
0.075567074 -0.54193884 0.6252775 0.24326 -0.0314683 0.17302215 -0.23895712 -0.46937102
0.24974088 -0.11880144 0.68545294 -0.007023758 0.06108601 -0.17126244 0.41528714 0.77698547
-0.027830666 0.27798036 0.63401973 0.38221475 0.022318233 -0.65516365 -0.25385383 -0.3518253
0.9639036 0.113774665 0.071006924 -0.23789422 0.090346076 0.01885351 0.037854146 0.21760061
-0.28176028 -0.1259623 0.5089441 -0.17904471 0.40659118 -0.90179557 -0.39424035 -0.29925516
-0.16753094 -0.30418944 0.044368993 -0.2113832 0.14168444 0.018025773 0.269191 0.4858627
0.3920045 1.0497622 0.4339924 -0.0605147 -0.024086626 0.006327468 -0.3277632 -0.33526462
0.0017170883 -0.4476835 0.0034258633 0.30932248 0.046081066 0.15087049 -0.0034900103 -0.2973359
00000000: d3bc 843d 2eec 9e3e bdc6 c63e 588b bc3d
00000010: 71dd 1f3e 94c9 99bd 7699 4dbe 4cc3 1f3e
00000020: 4352 2d3e 368f 483e 28e7 233d d42f 11bf
00000030: 59df 20bf 7445 8f3e 473a fdbd 82a0 26bd
00000040: 4573 a73f c678 eb3e 3181 743d bc5d 65be
00000050: d5af d03e 5e75 d53c cb28 f2bc 433e 37be
00000060: 2efa 9f3e 0b3e 153e 0ed3 b0be 094b f03d
00000070: cf96 9f3d eaf8 3bbe 1d7b 1d3e 3983 8d3d
00000080: bfa4 34be a316 23be 9e67 373e 5bc0 ab3d
00000090: 08bf afbe f0d0 b8be 1d13 ff3e 399f 133e
000000a0: a745 e33c 7fcb a23e 9fa8 673f 4882 443c
000000b0: 029b ee3c 8127 5cbb 15a7 043f 3dba c13d
000000c0: d900 86bd 7937 1e3f b247 973f b886 27be
000000d0: 6452 f03c 301b 153e b8b4 38bd 64cd 14bd
000000e0: e957 763b 2ee2 323f 6ce6 98be ddcd 29be
000000f0: 6929 953e 2be0 e6bd 61ec b83e 4093 8d3e
00000100: 9e24 7bbe e24a f2bd 269c f4be b320 84bd
00000110: da8c 6c3e 9e26 a2be 3dc0 eb3e 333e b0be
00000120: d342 4b3e 2eb1 27bd 2ff8 f93d 2ca5 a73d
00000130: 4dd8 023f 9766 c3bd 65df 863e 9bcd 623e
00000140: 07b1 26be b0d2 1d3e 72f7 60be 201f 4fbe
00000150: 2a68 243e d176 fb3e 2971 b63e 372f 49be
00000160: 2ad2 afbc cb86 ab3d 2798 023d 2d23 e2bd
00000170: 4445 4b3e d65e 19bf a65f 93bf 2ee2 e4bd
00000180: 1bee 343f 1f1b 403e ac22 1fbe 6c3d 35be
00000190: feef 44be 805b 0f3f a4ea 8fbe 7983 443e
000001a0: d2d6 18bb 1a35 fa3c eee1 b8be 0404 26be
000001b0: 55fe 333d b49e 203f cb5e b83b c7aa 32bf
000001c0: 7f0b 723e cc1b d23d 3f06 0c3e 8d42 0bbf
000001d0: f1da 56bf 22be de3e 0ca5 04bd 968b 5b3e
000001e0: 8d5d 36be 8c60 d6bc b83a 803f 114d bd3e
000001f0: 935c 91be 5e63 69be fd50 36bd 61b4 af3c
00000200: ad22 d8bd c185 1dbe f94a 37be 6212 d53c
00000210: 662e b2be 63c3 843c 4920 073f fec8 973e
00000220: e9c2 9a3d 81bc 0abf 3012 203f 2619 793e
00000230: e7e4 00bd b82c 313e 2db1 74be 6651 f0be
00000240: 13bc 7f3e 2b4e f3bd d879 2f3f 8d27 e6bb
00000250: 5335 7a3d 6c5f 2fbe 84a0 d43e 85e8 463f
00000260: 23fd e3bc 7153 8e3e 1e4f 223f a7b1 c33e
00000270: bad4 b63c ceb8 27bf 21f9 81be 7222 b4be
00000280: 63c2 763f b102 e93d 146c 913d 8b9a 73be
00000290: 5d07 b93d ad72 9a3c f30c 1b3d b2d2 5e3e
000002a0: e242 90be 43fc 00be 294a 023f 7f57 37be
000002b0: b82c d03e 13dc 66bf dfd9 c9be f937 99be
000002c0: 3b8d 2bbe b8be 9bbe 43bc 353d d674 58be
000002d0: ba15 113e c9aa 933c 67d3 893e ffc2 f83e
000002e0: d0b4 c83e 9c5e 863f 4034 de3e 43de 77bd
000002f0: 5151 c5bc a656 cf3b 94d0 a7be cea7 abbe
00000300: ec0f e13a c636 e5be 7384 603b 845f 9e3e
00000310: 80bf 3c3d cb7d 1a3e a8b8 64bb 693c 98be

out.bias f4 [2]
0.046291526 -0.021963684
00000000: 2f9c 3d3d 2fed b3bc
