models/Ant-v2/DisWeightSample/Dagger_825.pth (torch, 49503 bytes, 4 tensors)

fc1.weight f4 [100, 111]
0	0x3dfe5846	0.124191806
1	0xbc42ea02	-0.011896612
2	0x3dfa1f6d	0.12213025
3	0x3e2629a8	0.16226828
4	0x3e1d391c	0.15353817
5	0x3dfde767	0.12397652
6	0xbe224d84	-0.15849882
7	0x3e7489c8	0.23880684
8	0x3d971f7d	0.07379053
9	0x3ccdf5e1	0.025141658
10	0x3e473a29	0.1945578
11	0x3e69fd87	0.2285062
12	0x3cc0b1d1	0.02352229
13	0xbd8a9bb5	-0.0676798
14	0x3c5f423e	0.013626633
15	0x3e0998a8	0.1343714
16	0x3d7ca557	0.061681118
17	0xbcf3869b	-0.02972727
18	0xbc920826	-0.017826151
19	0xbd096a2d	-0.033548523
20	0x3d517834	0.051140025
21	0x3d876eb3	0.06612911
22	0xbe032f1e	-0.12810943
23	0xbc821e1a	-0.015883494
24	0x3dc29cb0	0.09502542
25	0x3d300db7	0.04298183
26	0x3e12cfe1	0.14337112
27	0x3b1e9c27	0.002420196
28	0xbde5c6e3	-0.11219575
29	0x3e06549c	0.13118213
30	0xbd91e02f	-0.07122838
31	0xbd8642e9	-0.06555731
32	0xbda1a756	-0.07893245
33	0xbdfcd9e2	-0.12346245
34	0xbd9048ec	-0.07045159
35	0x3d40b85b	0.047050815
36	0x3d4a5b20	0.04940331
37	0x3c834ecf	0.01602879
38	0xbdeebbc0	-0.11656904
39	0x3dcd7c45	0.10033468
40	0x3d04940b	0.032367747
41	0xbde024eb	-0.109445415
42	0x3cdb5753	0.026775038
43	0x3c86f0ef	0.016472308
44	0xbdddb34f	-0.10825216
45	0x3d3aecf2	0.045636125
46	0xbdb6ec54	-0.08931795
47	0xbd795ccd	-0.060879517
48	0x3df2f863	0.11863782
49	0x3e5afde8	0.2138592
50	0x3da944a7	0.082650475
51	0xbdd2407a	-0.10266204
52	0x3d7566ea	0.0599126
53	0x3e333437	0.17500387
54	0xbc6eb4b2	-0.014569448
55	0x3c87e1e7	0.01658721
56	0x3df4d645	0.11954931
57	0xbba4d908	-0.005030755
58	0x3da1ad93	0.07894435
59	0xbcfc3fab	-0.030792078
60	0x3d12f026	0.035873555
61	0x3de748f3	0.11293211
62	0xbe1f173b	-0.15536205
63	0xbdd4403a	-0.10363813
64	0x3da8b5fa	0.08237834
65	0xbc63cfaf	-0.013904496
66	0xbe06da98	-0.13169324
67	0x3c9c41f5	0.01907442
68	0x3c3a8dfc	0.011386391
69	0x3e05d6b0	0.13070178
70	0xbe2929ec	-0.16519898
71	0xbd2cd057	-0.042190876
72	0xbd387571	-0.045033876
73	0xbd5369b3	-0.051614475
74	0xbd5e5c97	-0.05428752
75	0x3d356f0e	0.044295363
76	0xbdf6a420	-0.12043023
77	0xbe40cbac	-0.18827695
78	0x3bcabc3f	0.0061869915
79	0xbe0bcbc5	-0.1365195
80	0x3c6ed18f	0.01457633
81	0x3dcfb6f7	0.1014232
82	0x3c85c141	0.016327502
83	0x3e0148a1	0.12625362
84	0xbd73da6b	-0.05953447
85	0x3ad0fab2	0.0015943854
86	0x3da77c92	0.08178057
87	0xbdbb61a7	-0.09149485
88	0xbd3d9821	-0.04628766
89	0x3cac4411	0.02102855
90	0xbd69d1fa	-0.057085015
91	0xbe1db7f4	-0.15402204
92	0xbd10f4f6	-0.035389863
93	0xbc69566b	-0.014241795
94	0x3de69b42	0.11260082
95	0x3c46f5d7	0.012143574
96	0xbd3dbd98	-0.04632339
97	0x3d193297	0.03740176
98	0x3d8c726b	0.06857761
99	0xbdeb092a	-0.11476357
100	0x3e8ebb3f	0.27877232
101	0xbe2a2daf	-0.1661899
102	0x3d2b9d7b	0.041898232
103	0xbd9776ee	-0.07395731
104	0xbd904323	-0.07044055
105	0x3d65ba9b	0.056086164
106	0xbe7125a2	-0.23549512
107	0xbd66c005	-0.056335468
108	0xbdf7fa7d	-0.12108324
109	0x3df1b3eb	0.11801895
110	0xbcfe07d2	-0.031009588
111	0xbddc218b	-0.10748585
112	0xbd0806b3	-0.033209514
113	0xbdfa1385	-0.12210754
114	0x3d89fd4c	0.06737766
115	0xbe87c09c	-0.26514137
116	0x3e6deec4	0.23235613
117	0xbd84354a	-0.064554766
118	0x3d4a4ec9	0.04939154
119	0xbe401ee0	-0.18761778
120	0xbe147c23	-0.1450048
121	0x3e0ee5be	0.13954827
122	0xbdbbf800	-0.091781616
123	0xbcefd788	-0.029277578
124	0xbe2e4078	-0.1701678
125	0x3d4c5a82	0.049891002
126	0x3dd22ad9	0.10262079
127	0x3d7443c3	0.059634935
128	0xbd17ba7a	-0.037043072
129	0x3e20e635	0.15712817
130	0x3c81ade1	0.015829982
131	0xbe0d086b	-0.13772742
132	0xbd16209d	-0.036652196
133	0xbd5da50e	-0.054112487
134	0xbd28d075	-0.041214425
135	0x3d7b03cf	0.06128293
136	0x3d795377	0.060870614
137	0x3d82b1d5	0.06381575
138	0xbd85313e	-0.06503533
139	0xbe2d4723	-0.16921668
140	0x3db6914c	0.08914432
141	0x3c172746	0.009225672
142	0xb9cca74e	-0.00039034564
143	0xbd3e6326	-0.046481274
144	0xbe19deef	-0.15026449
145	0xbd26a767	-0.04068699
146	0x3e6c0282	0.23047832
147	0x3c5dbd63	0.013533923
148	0xbde75f6a	-0.11297496
149	0xbb8f4a8a	-0.0043728994
150	0xbc86993b	-0.016430488
151	0xbd3862a9	-0.045015965
152	0xbc716ed8	-0.0147359
153	0xbd454e07	-0.048170116
154	0xbe52864b	-0.20559041
155	0xbe19b112	-0.15008953
156	0xbd964ffa	-0.07339473
157	0xbd982072	-0.074280635
158	0x3d725ae8	0.059168726
159	0x3d3d835b	0.04626785
160	0x3cb72f5d	0.022361452
161	0xbbdf9922	-0.006823675
162	0x3e373014	0.17889434
163	0x3e5ef03f	0.21771334
164	0xbd4a149b	-0.049336057
165	0xbe1d1a4f	-0.15342067
166	0x3d038ae2	0.03211487
167	0x3ccebf23	0.025237625
168	0x3de31a57	0.11089008
169	0xbc1e2d03	-0.009654286
170	0xbe310755	-0.17287953
171	0xbe04379b	-0.12911837
172	0xbe17564a	-0.1477901
173	0x3e0d6fe7	0.13812219
174	0xbd0533f9	-0.032520268
175	0x3e0e6cb3	0.13908653
176	0xbc8a12d6	-0.016854685
177	0xbdfceed2	-0.12350239
178	0xbdc08397	-0.09400099
179	0xbe2ded09	-0.16984953
180	0xbbcac573	-0.0061880886
181	0xbca3e043	-0.020004397
182	0x3e00456a	0.1252648
183	0xbd913793	-0.07090678
184	0x3d77539b	0.060382467
185	0xbca1dbd7	-0.019758148
186	0x3d216fd3	0.039413285
187	0x3c74280b	0.014902125
188	0x3dbb2457	0.09137791
189	0x3bfa7f48	0.0076445676
190	0xbe1af62b	-0.15132968
191	0x3d28202b	0.041046303
192	0xbd854fc9	-0.065093584
193	0x3d0ae98f	0.033914145
194	0xbde53c55	-0.11193148
195	0x3dfc2a7d	0.123127915
196	0x3dacdc67	0.08440476
197	0x3de7a7a3	0.11311271
198	0x3da4cf23	0.08047321
199	0xbdedbb6a	-0.11608012
200	0xbce63b93	-0.02810458
201	0xbdd434ba	-0.10361619
202	0xbb262fa4	-0.0025357986
203	0x3e22903b	0.15875332
204	0x3da4a7a3	0.08039787
205	0xbdfa00eb	-0.12207206
206	0x3e0ed3cf	0.13947986
207	0x3aa598dd	0.0012634058
208	0xbd660c17	-0.056163874
209	0xbdc9ea13	-0.09859099
210	0xbc7085e3	-0.014680359
211	0xbc123ee2	-0.008926125
212	0x3e6045f2	0.21901682
213	0x3d361de2	0.044462092
214	0xbaf791d2	-0.0018888062
215	0x3d283919	0.041070078
216	0x3c441cf7	0.011969796
217	0x3bacf0a1	0.0052777086
218	0x3c89ef5f	0.016837774
219	0x3c2e8bc7	0.010653443
220	0x3e15ef96	0.14642176
221	0x3d368d47	0.044568326
222	0x3e8524e0	0.26004696
223	0xb9fbdfab	-0.00048041096
224	0xbd8fc8a1	-0.07020689
225	0x3e1a46f5	0.1506613
226	0xbeabc08b	-0.33545336
227	0x3d708127	0.05871692
228	0xbd9fa166	-0.07794456
229	0x3e83b702	0.2572556
230	0x3d8759ee	0.066089496
231	0xbea6ec1c	-0.32602012
232	0xbe65e750	-0.2245152
233	0xbde7f8ae	-0.11326729
234	0x3d4a0090	0.049316943
235	0x3c3a5103	0.011371854
236	0xbd61e228	-0.05514732
237	0x3dccb06f	0.099945895
238	0xbd95f0be	-0.073213086
239	0x3e335621	0.17513324
240	0x3c3b84c5	0.011445229
241	0xbcdbc60a	-0.02682783
242	0x3ca3c7c5	0.019992718
243	0xbcced9e8	-0.02525039
244	0x3c634a8a	0.013872752
245	0x3c01e3f1	0.007927881
246	0x3cb13e61	0.02163619
247	0xbde80729	-0.11329491
248	0x3de97cea	0.114007786
249	0xbd9e71b5	-0.07736532
250	0xbd1ac0b7	-0.037781443
251	0x3dd27697	0.102765255
252	0x3e0d9b8b	0.13828866
253	0x3cbf1c04	0.023328789
254	0x3d711b3f	0.058863875
255	0x3e4d69bf	0.2005987

fc1.bias f4 [100]
0	0xbd05b2f7	-0.032641377
1	0xbb607df0	-0.0034254752
2	0x3c35587a	0.011068458
3	0x3d0223a8	0.031772286
4	0x3d6381c7	0.055543687
5	0xbcd5c4a9	-0.026094751
6	0x3d0c2d45	0.03422286
7	0x3c82f8f2	0.015987847
8	0xbbf07557	-0.0073382067
9	0x3d879a87	0.066212706
10	0xbd31e3b7	-0.043430056
11	0x3d0ae855	0.033912975
12	0xbd8a7459	-0.06760473
13	0xbb7872c3	-0.00379102
14	0xbd142ea6	-0.0361773
15	0x3d107cb6	0.035275184
16	0xbd956326	-0.07294302
17	0x3dcb4f0c	0.09927186
18	0x3b12d11f	0.0022402478
19	0x3d01f8c6	0.03173139
20	0x3c543746	0.012952631
21	0x3dccfe91	0.10009492
22	0x3d87018a	0.065920904
23	0xbd833f19	-0.06408519
24	0xbd3d7372	-0.046252675
25	0x3e5aadab	0.21355312
26	0x3d947544	0.07248929
27	0x3d912cdc	0.07088634
28	0xbd1a1bf9	-0.037624333
29	0x3e1cf574	0.15328008
30	0x3e10f0a2	0.14154294
31	0x3dc67f6d	0.09692273
32	0x3d7bf9c9	0.06151751
33	0xbd6889c8	-0.056772023
34	0x3e033f08	0.12817013
35	0x3d685c98	0.05672893
36	0xbd94d7bb	-0.0726771
37	0x3b739a0c	0.0037170677
38	0xbe06a80a	-0.1315004
39	0xbc15ac00	-0.009135246
40	0x3e17eff3	0.14837627
41	0x3dcd5dcf	0.10027658
42	0xbdaa75f8	-0.08323282
43	0xbdcdde1e	-0.10052131
44	0xbbd7abc7	-0.0065817568
45	0xbcb69098	-0.022285745
46	0x3da03b62	0.078238264
47	0xbd212070	-0.039337575
48	0x3d209af8	0.03921029
49	0x3d8787c2	0.066176906
50	0xbdb865b9	-0.09003777
51	0xbd169b77	-0.036769357
52	0x3e0aa4e4	0.13539463
53	0xba760357	-0.0009384653
54	0x3d61812b	0.055054825
55	0x3e067f1a	0.13134423
56	0x3daa280d	0.0830842
57	0x3ddb9af5	0.10722915
58	0x3c67605b	0.014122094
59	0xbdcede6e	-0.10101019
60	0x3d3afd56	0.045651756
61	0xbc925e2f	-0.017867176
62	0xbd25f05e	-0.040512435
63	0x3d899284	0.06717399
64	0x3e1de572	0.15419558
65	0xba4df151	-0.00078560883
66	0x3b68904c	0.0035486398
67	0xbd80cb68	-0.06288797
68	0xbca226b1	-0.01979384
69	0xbd95addf	-0.07308554
70	0xbc5e6f6c	-0.01357637
71	0x3e2519f3	0.1612318
72	0xbd9ba43f	-0.07599687
73	0x3d67ed97	0.056623068
74	0xbd168b63	-0.036754023
75	0xbe35a41b	-0.17738383
76	0x3cb0c40d	0.02157786
77	0xbdb2c06f	-0.0872811
78	0xbe467849	-0.19381823
79	0xbdbd1dc6	-0.092341945
80	0xbca22836	-0.019794565
81	0x3c60cbf9	0.013720506
82	0xbda30834	-0.07960549
83	0xbcb3bd6a	-0.021940906
84	0xbd9d9239	-0.076939054
85	0x3d148b69	0.036265764
86	0xbd0d85bd	-0.03455137
87	0x3cc9e42e	0.024644937
88	0xbdfa650d	-0.12226305
89	0x3cbf976a	0.02338763
90	0x3e2ba44d	0.16761895
91	0x3cba8d00	0.022772312
92	0x3e104616	0.14089236
93	0xbcd6a2e7	-0.026200725
94	0xbc9d1bcc	-0.019178294
95	0xbd91efba	-0.07125802
96	0xbda494fa	-0.080362275
97	0xbc9b0afb	-0.018926134
98	0x3e1dcb1f	0.15409516
99	0xbd1fb6db	-0.038992744

out.weight f4 [8, 100]
0	0xbdd10d41	-0.10207606
1	0x3b96f6b0	0.004607044
2	0x3c17b8f4	0.009260405
3	0xbd237da4	-0.039914742
4	0x3cefa864	0.0292551
5	0xbc997553	-0.018732702
6	0xbdc9b420	-0.09848809
7	0x3d1dfc02	0.03857041
8	0xbc6d7f94	-0.014495749
9	0x3db7cd11	0.0897466
10	0xbd80913c	-0.06277701
11	0x3e32e3f5	0.17469771
12	0x3c30c20b	0.010788451
13	0xbc50593a	-0.012716586
14	0x3da5233b	0.0806336
15	0x3d5844f8	0.05280015
16	0xbe12a8e1	-0.14322235
17	0x3e6b54e1	0.22981597
18	0x3d709cbd	0.058743227
19	0xbdd2c772	-0.102919474
20	0xbda4df01	-0.08050347
21	0xbe565eed	-0.20934649
22	0xbc83ea38	-0.016102895
23	0xbe02b9b5	-0.12766154
24	0x3dcad51b	0.09903928
25	0xbd92a00a	-0.07159431
26	0xbd87362b	-0.066021286
27	0x3ddb8c11	0.10720075
28	0xbda2f739	-0.0795731
29	0x3d07f110	0.03318888
30	0x3d74821f	0.059694406
31	0xbb45db32	-0.0030190465
32	0x3d1ad651	0.037802044
33	0xbd884a21	-0.06654764
34	0x3e1c340d	0.15254231
35	0xbda7de0d	-0.0819665
36	0xbdbb3943	-0.09141781
37	0xbd1853c6	-0.037189268
38	0x3de84ba5	0.11342553
39	0x3d3c42c4	0.04596211
40	0x3e11e0f7	0.14245974
41	0x3d6d50bf	0.057938334
42	0x3d056e02	0.032575615
43	0xbe005b41	-0.1253481
44	0xbd17255e	-0.03690087
45	0x3ccbe06f	0.024887292
46	0xbe04005d	-0.12890764
47	0xbc7e2572	-0.015511857
48	0x3db71492	0.0893947
49	0x3e001cf7	0.12511049
50	0x3ea0d9b4	0.31416094
51	0x3d10ebf1	0.03538126
52	0xbd5f94f6	-0.05458542
53	0xbe1fa6f5	-0.15591033
54	0xbdb2b181	-0.087252624
55	0x3d8a58c0	0.06755209
56	0xbe1cf2ff	-0.1532707
57	0x3d92d4a8	0.07169467
58	0xbd705b27	-0.05868068
59	0x3d9f27f9	0.07771296
60	0x3c48d48f	0.012257709
61	0xbd0687ac	-0.03284423
62	0xbcdd6de5	-0.02702994
63	0x3c1002c8	0.008789726
64	0xbd422705	-0.047400493
65	0xbe153af7	-0.14573275
66	0xbcc524d9	-0.024065422
67	0x3d366627	0.044531014
68	0x3e26cc9e	0.16288993
69	0xbe4eeb8a	-0.20207039
70	0xbcc5a42b	-0.024126133
71	0x3e0809ac	0.1328494
72	0x3dfb8624	0.12281445
73	0xbdba2c0b	-0.09090432
74	0xbddabf4f	-0.106810205
75	0x3d379214	0.044817045
76	0xbd2ab994	-0.041680887
77	0x3da50c2a	0.08058961
78	0xbdd9e770	-0.10639846
79	0xbccb02cb	-0.024781605
80	0x3d3b8aef	0.045786794
81	0xbda0aab5	-0.0784506
82	0x3dc7de9a	0.09759255
83	0xbe03fc78	-0.12889278
84	0xbdd5a1b7	-0.10431235
85	0x3d6d4bbb	0.05793355
86	0x3e30b3bc	0.17256063
87	0x3c87d617	0.016581578
88	0x3b9cd483	0.0047860756
89	0xbddd9a3e	-0.10820435
90	0x3d9e3bdd	0.07726262
91	0x3d766f50	0.06016475
92	0x3ad9ff5a	0.0016631887
93	0xbdbe321a	-0.092869
94	0xbe30bd15	-0.17259629
95	0x3d7fae35	0.062421996
96	0xbd2c19c0	-0.042016745
97	0x3dd1ebf5	0.10250083
98	0xbd9419b2	-0.072314635
99	0xbd901b5c	-0.070364684
100	0x3d6ccd48	0.05781296
101	0xbbe08be7	-0.006852615
102	0x3c327fa3	0.010894689
103	0xbd28c10e	-0.041199736
104	0x3db6178d	0.08891211
105	0xbd9fbd09	-0.077997275
106	0xbdcb3819	-0.09922809
107	0x3ae01d96	0.0017098661
108	0xbd843ec2	-0.064572826
109	0x3e30049b	0.17189257
110	0x3db870b6	0.09005873
111	0x3d12925a	0.035784103
112	0x3e0316a1	0.12801601
113	0xbda62f14	-0.08114448
114	0xbdace58f	-0.08442222
115	0xbc41a989	-0.0118202055
116	0x3c02de61	0.00798759
117	0xbde31541	-0.11088038
118	0xbccc24ab	-0.024919828
119	0x3d92c0b5	0.07165662
120	0x3d00b8fb	0.03142641
121	0x3e2bd15f	0.16779087
122	0x3de2f6e1	0.11082245
123	0xbc0b9694	-0.008519787
124	0xbbabf8ba	-0.0052481564
125	0xbd3a4664	-0.045477286
126	0x3cf91eb4	0.030410148
127	0xbd277d66	-0.040891074
128	0xbdcafdd9	-0.09911699
129	0x3d503835	0.050834853
130	0xbe1bab1c	-0.15201992
131	0xbdbe81d3	-0.09302106
132	0xbc345c53	-0.01100834
133	0x3d851e65	0.06499938
134	0xbe25b77c	-0.16183275
135	0xbceea987	-0.029133571
136	0xbdc8ed0b	-0.09810837
137	0x3d20dd38	0.03927347
138	0xbd5713ed	-0.052509237
139	0xbcee2b67	-0.02907343
140	0xbdadc987	-0.08485704
141	0x3cd6cf31	0.026221843
142	0xbcae02a3	-0.021241492
143	0x3de83674	0.11338511
144	0x3df60690	0.120129704
145	0xbca287b8	-0.019840106
146	0xbe16fdfe	-0.14745328
147	0x3d28f8ce	0.041252904
148	0x3cf1bada	0.029508043
149	0xbe311f92	-0.172972
150	0x3dd6e12c	0.10492167
151	0xbbe3b0cb	-0.0069485656
152	0xbd639615	-0.05556305
153	0x3d3f9118	0.04676923
154	0x3cefef7c	0.029289
155	0x3d961460	0.07328105
156	0xbd1a6023	-0.03768934
157	0x3d5f5581	0.054524902
158	0x3dafde7b	0.08587357
159	0xbdcae722	-0.09907366
160	0x3df5dfde	0.1200559
161	0x3d45e56b	0.048314493
162	0xbd831222	-0.06399943
163	0xbc839721	-0.016063275
164	0xbe0d234f	-0.13783
165	0xbd8cf930	-0.06883466
166	0x3c05d7ba	0.008169109
167	0x3cb83b6d	0.022489274
168	0x3cb9fea2	0.022704426
169	0xbdd59c3e	-0.104301915
170	0x3c47ed98	0.012202643
171	0xbb672159	-0.003526768
172	0x3d3cf095	0.046127874
173	0xbcbebb03	-0.023282534
174	0xbba83ebd	-0.005134432
175	0x3dc70ebb	0.097196065
176	0x3d89a1b3	0.06720295
177	0x3d6e51a5	0.05818333
178	0x3e574f6b	0.2102639
179	0x3d21529d	0.039385427
180	0xbcd34e7a	-0.025794256
181	0x3ddd9ce4	0.1082094
182	0x3d842e3e	0.064541325
183	0xbdc19cb2	-0.094537154
184	0xbd550709	-0.052008662
185	0x3b895f9a	0.004192305
186	0x3ba4909d	0.005022122
187	0x3ddf8849	0.10914666
188	0x3dd35229	0.10318405
189	0x3c5d6dcb	0.013514946
190	0xbde7bcba	-0.113152936
191	0xbca03e02	-0.019560818
192	0xbe2aa8f6	-0.16666016
193	0xbd16ff69	-0.03686467
194	0xbe2a9cf3	-0.16661434
195	0xbe00edbe	-0.12590691
196	0xbc5c11d7	-0.013431988
197	0x3c3583be	0.011078773
198	0xbdaeee74	-0.08541575
199	0xbd059c79	-0.032619927
200	0x3d301d09	0.04299644
201	0x3d09ee40	0.03367448
202	0xbd0a79dc	-0.03380762
203	0x3db059da	0.08610888
204	0xbd729fe0	-0.0592345
205	0x3da35817	0.07975786
206	0xbcc30dcd	-0.023810292
207	0xbcec219d	-0.028824622
208	0xbd3656c4	-0.04451634
209	0x3d8bfde6	0.06835537
210	0x3c594255	0.013260444
211	0xbd797681	-0.06090403
212	0xbe03df6e	-0.128782
213	0x3c1c703b	0.009548242
214	0xbd5262c3	-0.051363718
215	0x3c8282eb	0.015931567
216	0xbdd9acd1	-0.10628665
217	0xbcc78dcd	-0.024359608
218	0x3dd08b87	0.10182863
219	0x3c61c688	0.013780244
220	0x3da2c26e	0.07947241
221	0x3def16dc	0.11674282
222	0xbe0aebd0	-0.13566518
223	0xbd171eab	-0.03689448
224	0x3c3208a8	0.010866322
225	0x3d82542a	0.06363709
226	0x3c2b6330	0.01046066
227	0xbdcba76d	-0.09944043
228	0x3d250a1e	0.04029285
229	0xbe4adc52	-0.19810608
230	0x3d98ce1e	0.07461189
231	0xbd1d3629	-0.03838173
232	0xbca89380	-0.020578146
233	0xbcfe45bc	-0.031039111
234	0xbbcd8f5c	-0.0062731933
235	0x3dd63511	0.1045934
236	0x3dd30ef7	0.10305589
237	0xbcf401d0	-0.02978602
238	0x3cb5919f	0.022164164
239	0xbdaf676a	-0.085646465
240	0x3d298e79	0.04139564
241	0xbc8b9f7f	-0.017043827
242	0x3d0812ff	0.03322124
243	0xbda39a88	-0.07988459
244	0x3d2d17a1	0.042258862
245	0xbdbc8283	-0.09204581
246	0x3e127041	0.14300634
247	0xbc8ecd18	-0.01743178
248	0xbdd58628	-0.10425979
249	0x3e0f6f4f	0.14007305
250	0xbbe8428b	-0.0070880107
251	0x3c9bc0d1	0.01901284
252	0xbc7ff56f	-0.015622481
253	0x3c4f2d8b	0.012645136
254	0x3d770d15	0.06031521
255	0xbe009d20	-0.12559938

out.bias f4 [8]
0	0xbd8d9907	-0.06913953
1	0x3bc15f68	0.005901266
2	0x3c6e5501	0.014546634
3	0xbcfff52f	-0.031244842
4	0x3da5f5cd	0.081035234
5	0xbda116ff	-0.07865714
6	0xbd34ef14	-0.044173315
7	0xbc904bac	-0.017614208
