models/HalfCheetah-v2/Random/Dagger_995.pth (torch, 11167 bytes, 4 tensors)

fc1.weight f4 [100, 17]
0.16054282 -0.5844947 0.1441398 -0.04299312 0.13581672 0.11998979 -0.08969813 -0.0029155486
-0.017626267 0.42256242 -0.20222546 -0.06218387 0.14240263 0.039818626 0.14780584 0.12524982
0.16318256 -0.7227776 0.5020517 -0.14855734 0.111733764 0.15265684 0.013099128 0.0048748804
-0.089566685 0.17647171 -0.2158855 0.16365942 0.02493885 0.022158759 -0.1744601 0.24252963
-0.13299136 0.04467637 1.1007546 -1.3295362 0.6305117 -0.22568378 0.373732 0.39726257
-0.06085984 0.15917574 -0.35736036 0.33797738 -0.009209872 -0.109334245 -0.00585029 -0.004886832
0.07582967 -0.052575484 -0.03757026 0.13677356 -0.45033693 0.3670848 0.22256511 0.033260252
-0.04497636 0.08294759 0.16565795 -0.025579296 0.26487967 -0.5140843 -0.03752027 0.08769857
0.1016229 -0.10816997 0.06563955 0.120130256 0.50573367 -0.7219848 0.12676315 0.0460891
-0.1261198 -0.00600605 0.025857078 0.07661372 0.11232178 0.5164701 -0.19435878 0.06836799
-0.12800366 0.04302357 -0.009727153 -0.06386582 -0.050631642 -0.44122186 0.45269325 0.16887482
0.060954344 0.09011829 0.05656183 0.16278854 0.22671926 -0.19982722 -0.1960951 0.016027188
0.08615463 -0.09098291 -0.018856686 0.25613356 -0.076783 -0.075272374 -0.21254562 0.52278566
-0.19976474 0.08333364 -0.09835975 -0.12534676 -0.09567548 -0.19556117 0.3942571 -0.10731572
0.34551328 -0.10279095 0.16346416 0.07655195 0.089404464 -0.15930274 -0.034649175 -0.24433134
0.3272108 -0.16732319 -0.098694205 0.027622659 -0.042599145 0.07372662 -0.045009617 -0.33060804
-0.1329823 0.17020924 -0.04430771 -0.105846 0.16230112 0.1345417 0.10463605 0.11703074
0.4492171 -0.718122 0.29484642 0.04922158 0.09268047 0.24642967 -0.009234246 0.17684244
-0.1320058 0.47794092 0.015124783 -0.07044656 0.06991554 0.03738656 -0.005721926 -0.0582072
0.21430182 0.48160216 -1.0297267 0.4073076 -0.09362946 -0.29792795 0.0065335156 -0.2900739
-0.15641719 -0.2047013 0.53413415 -0.04953257 0.0009082969 -0.1462654 -0.0769516 -0.091651835
-0.11943124 0.0067332387 1.158799 -1.2371787 0.39657483 -0.16513608 -0.03851032 0.20542689
-0.41413507 0.022929046 -0.08218112 0.10990633 -0.10425354 0.019244017 0.07422084 -0.09933117
-0.14402616 -0.084242254 0.03652477 0.6837333 -0.8781569 0.4876544 -0.12781797 0.022087786
0.089368165 -0.16601373 0.13460898 0.31700328 0.33605695 -0.1970382 -0.06462474 0.14082754
0.03451071 -0.09397808 -0.06934615 -0.030549197 -0.016113661 -0.27944162 0.236275 -0.025475228
0.24682903 -0.061747905 -0.0875962 -0.02577077 -0.13910191 -0.33859798 -0.11995361 0.10932115
-0.069071405 -0.08861688 -0.0621593 0.20627066 0.04354824 0.1183898 -0.6163344 0.05095679
-0.12160944 0.06886795 -0.16206633 -0.032755777 0.08285665 0.11859482 0.1765822 -0.20633173
0.09717017 -0.013652201 0.05510564 0.05171464 0.06140862 -0.13609327 -0.18936771 0.27613032
0.11835283 -0.19399004 0.23464522 0.1416632 0.24998295 0.4165354 0.44161546 0.18065733
0.13000599 0.0116246985 0.15924656 -0.18787068 0.26752502 0.014597083 0.080239385 -0.13349475
00000000: 5665 243e 72a1 15bf 6299 133e 8e19 30bd
00000010: 8a13 0b3e 35bd f53d a7b3 b7bd ca12 3fbb
00000020: f664 90bc 1a5a d83e 3114 4fbe 83b4 7ebd
00000030: ffd1 113e db18 233d 6a5a 173e 7d41 003e
00000040: 5419 273e f407 39bf 7686 003f 6a1f 18be
00000050: acd4 e43d 1352 1c3e ba9d 563c 76bd 9f3b
00000060: bd6e b7bd 00b5 343e 1711 5dbe 5696 273e
00000070: 8f4c cc3c 4986 b53c aba5 32be b059 783e
00000080: e32e 08be 92fe 363d 87e5 8c3f 3e2e aabf
00000090: 3769 213f a619 67be cd59 bf3e 0066 cb3e
000000a0: 2b48 79bd f7fe 223e f0f7 b6be 5f0b ad3e
000000b0: 01e5 16bc a2ea dfbd cab3 bfbb b821 a0bb
000000c0: 964c 9b3d 6459 57bd 46e3 19bd 5e0e 0c3e
000000d0: 9092 e6be 8af2 bb3e 1ce8 633e e73b 083d
000000e0: 2239 38bd 6de0 a93d 3da2 293e ac8b d1bc
000000f0: 4f9e 873e 079b 03bf dbae 19bd 4f9b b33d
00000100: ab1f d03d 3888 ddbd 076e 863d da06 f63d
00000110: c377 013f ffd3 38bf 33ce 013e edc7 3c3d
00000120: 8d25 01be 66ce c4bb 39d2 d33c a7e7 9c3d
00000130: f608 e63d 6237 043f fd05 47be 8404 8c3d
00000140: 6413 03be 7c39 303d a35e 1fbc 15cc 82bd
00000150: 2063 4fbd d5e7 e1be 69c7 e73e 85ed 2c3e
00000160: 43ab 793d f08f b83d 61ad 673d 0ab2 263e
00000170: 1829 683e 829f 4cbe 27cd 48be 734b 833c
00000180: d771 b03d 3f55 babd 5679 9abc f023 833e
00000190: 6840 9dbd 6728 9abd 8fa5 59be 48d5 053f
000001a0: 218f 4cbe d4aa aa3d d670 c9bd e75a 00be
000001b0: 82f1 c3bd 3041 48be 11dc c93e 58c8 dbbd
000001c0: 1ee7 b03e 1084 d2bd 2663 273e 45c7 9c3d
000001d0: b019 b73d 4220 23be 4bec 0dbd ff31 7abe
000001e0: 2d88 a73e c556 2bbe 3020 cabd ea48 e23c
000001f0: 717c 2ebd fbfd 963d 015c 38bd 7545 a9be
00000200: 832c 08be 554b 2e3e 007c 35bd cac5 d8bd
00000210: 4432 263e 4dc5 093e 6d4b d63d d0ad ef3d
00000220: c9ff e53e d8d6 37bf 1cf6 963e 919c 493d
00000230: 42cf bd3d 0f58 7c3e 3c4b 17bc 2f16 353e
00000240: 872c 07be acb4 f43e f0cd 773c 4946 90bd
00000250: e12f 8f3d a622 193d ff7e bbbb ac6a 6ebd
00000260: f071 5b3e 8f94 f63e 16ce 83bf 9f8a d03e
00000270: cdc0 bfbd 038a 98be 1a17 d63b 9184 94be
00000280: d42b 20be 389d 51be 04bd 083f aae2 4abd
00000290: c61a 6e3a 99c6 15be cd98 9dbd f5b3 bbbd
000002a0: 5e98 f4bd 80a2 dc3b 8753 943f df5b 9ebf
000002b0: db0b cb3e 6f19 29be ffbc 1dbd 6d5b 523e
000002c0: 8309 d4be b2d5 bb3c 934e a8bd 9216 e13d
000002d0: e182 d5bd a1a5 9d3c 1901 983d 246e cbbd
000002e0: 987b 13be 3487 acbd ff9a 153d 2509 2f3f
000002f0: e4ce 60bf d6ad f93e b7e2 02be 72f1 b43c
00000300: a806 b73d 81ff 29be f0d6 093e 414e a23e
00000310: a80f ac3e 62c4 49be fa59 84bd 1835 103e
00000320: 1a5b 0d3d 9477 c0bd 5b05 8ebd 4f42 fabc
00000330: cc00 84bc f912 8fbe 13f2 713e 6db1 d0bc
00000340: c0c0 7c3e 5feb 7cbd a365 b3bd 391d d3bc
00000350: bb70 0ebe b75c adbe 3daa f5bd c4e3 df3d
00000360: 4f75 8dbd c47c b5bd c09a 7ebd 9e38 533e
00000370: a45f 323d 5a76 f23d 17c8 1dbf 11b8 503d
00000380: 5f0e f9bd a40a 8d3d b7f4 25be ec2a 06bd
00000390: bfb0 a93d d7e1 f23d f7d1 343e a048 53be
000003a0: 2701 c73d 7bad 5fbc 74b6 613d bbd2 533d
000003b0: 9b87 7b3d 095c 0bbe 9ce9 41be f460 8d3e
000003c0: f862 f23d 53a5 46be d646 703e 2810 113e
000003d0: 88fb 7f3e 2144 d53e 6c1b e23e 3cfe 383e
000003e0: 4a20 053e 8575 3e3c 8811 233e 2c61 40be
000003f0: 0af9 883e 9b28 6f3c 8c54 a43d d9b2 08be

fc1.bias f4 [100]
0.4147728 -0.17906265 0.303134 -0.11483709 0.08013383 0.122025296 0.02994234 -0.10922586
0.28021508 0.10139898 -0.059462503 0.20416972 0.5433723 -0.08414686 0.26926836 0.056226846
-0.101396605 0.033282112 0.26846713 -0.03912313 0.3575804 0.09457292 0.023146167 -0.1787132
-0.059021078 -0.03262241 -0.29613477 -0.0046334895 0.40485588 -0.18253797 -0.01801098 0.3350188
-0.13010842 -0.11487335 0.16854331 0.4185906 0.3369855 0.48478246 0.33636618 0.10849012
0.29039806 -0.19546586 0.3122686 0.15180011 0.2796602 0.23038833 0.35067272 0.16561373
0.07410281 0.15273239 0.117065005 -0.05526084 -0.21231139 0.12348563 0.33194345 -0.15345892
0.085325405 -0.08211783 -0.14263736 -0.24563636 0.15748334 -0.11184294 -0.009990938 0.2282357
0.15407953 -0.12642424 0.4454553 0.2990647 0.22371382 -0.3566784 0.0030870545 0.06728155
0.23302115 0.20311926 0.6009603 0.23087347 -0.06052795 0.14360894 -0.27078453 0.49257642
-0.05318584 -0.011188323 -0.14586687 0.18668328 -0.03566076 0.007637937 0.013636136 -0.2626834
0.4382479 0.4002088 -0.048510645 -0.1590061 -0.34181654 -0.02266749 0.09735158 0.31321338
-0.14375253 -0.009884596 -0.13195166 -0.082981154
00000000: 1a5d d43e 335c 37be 6134 9b3e b52f ebbd
00000010: 351d a43d 66e8 f93d a349 f53c cfb1 dfbd
00000020: 5a78 8f3e 45aa cf3d f48e 73bd de11 513e
00000030: 721a 0b3f 3055 acbd 8bdd 893e 1f4e 663d
00000040: 06a9 cfbd d352 083d 8674 893e 933f 20bd
00000050: c714 b73e 72af c13d 089d bd3c 9800 37be
00000060: 16c0 71bd 149f 05bd fa9e 97be 87d4 97bb
00000070: 4549 cf3e 3ceb 3abe c38b 93bc 9687 ab3e
00000080: 243b 05be b842 ebbd 9e96 2c3e 8251 d63e
00000090: 5d89 ac3e 6835 f83e 3038 ac3e 1130 de3d
000000a0: 0eaf 943e 3428 48be ace1 9f3e 7d71 1b3e
000000b0: 9f2f 8f3e ebea 6b3e 608b b33e a596 293e
000000c0: 37c3 973d e165 1c3e c7bf ef3d 3159 62bd
000000d0: 2868 59be 09e6 fc3d 7ef4 a93e 5624 1dbe
000000e0: 16bf ae3d 652d a8bd 870f 12be 1988 7bbe
000000f0: 5043 213e e90d e5bd 08b1 23bc 9fb6 693e
00000100: 06c7 1d3e 5b75 01be b812 e43e 021f 993e
00000110: 3c15 653e 8d9e b6be 2e50 4a3b e9ca 893d
00000120: 199d 6e3e 7ffe 4f3e 89d8 193f 186a 6c3e
00000130: 28ec 77bd 390e 133e 45a4 8abe fa32 fc3e
00000140: 65d9 59bd 3a4f 37bc 205e 15be e729 3f3e
00000150: 0411 12bd a947 fa3b 1a6a 5f3c 707e 86be
00000160: 0762 e03e 2be8 cc3e 19b3 46bd 7fd2 22be
00000170: 9402 afbe 2cb1 b9bc 4460 c73d 815d a03e
00000180: dd33 13be 00f3 21bc 561e 07be 06f2 a9bd

out.weight f4 [6, 100]
0.41320845 0.24209039 0.1318323 0.5055079 0.23466335 -0.1350415 -0.021932261 -0.23876612
0.06554449 0.11875201 0.10485883 0.4792723 -0.07101263 0.38430682 0.22768468 -0.034569673
-0.0025412792 -0.11047506 0.07892626 -0.034493975 0.12319338 -0.08915102 0.13727975 -0.28809905
0.03771464 0.06755596 -0.173604 0.08427878 0.029579893 -0.17779787 -0.04433953 0.3235007
0.048441537 -0.014400717 -0.24022713 0.5507779 0.007922795 -0.11922184 0.19468473 0.046995316
0.27097908 0.013147074 0.041541338 0.17615527 0.2048165 0.24000576 -0.091445714 -0.031456586
0.05413267 0.028738998 0.022307659 -0.058908265 -0.18165769 0.09312872 0.018640837 -0.14789951
0.3431702 0.23680995 0.01778102 0.0077512865 0.13794343 0.23597014 0.15134846 0.28265545
-0.023508241 -0.12430093 -0.15853249 0.12536536 -0.050134912 -0.32807347 0.2874013 -0.044302326
0.1646404 0.13124858 0.18362066 -0.045158364 -0.25066283 0.18076876 -0.043348376 -0.058769565
0.28345203 0.026242327 0.22440863 0.28872627 -0.14357015 0.25735041 0.6219122 0.0726226
0.2604913 0.3498451 0.14025278 -0.15536441 -0.06467248 0.26303807 0.26565048 0.07196053
0.022384893 0.037095737 0.25517768 -0.08419537 -0.13091965 -0.01623053 -0.0864941 -0.124451704
-0.04870296 -0.07584254 0.0027291845 -0.060483772 0.093059205 -0.039445058 -0.07227883 0.09886148
-0.022104338 0.006790051 -0.123085715 0.22065586 0.052471396 -0.053304564 -0.00300603 0.10400336
0.0043583973 0.108675264 -0.16889548 -0.12764294 0.0029075595 -0.16781934 -0.21096615 0.09529014
0.022807088 0.031129906 -0.03754093 -0.07167268 -0.27801704 -0.112678215 -0.098367296 -0.068451315
-0.12448486 -0.14120561 -0.21288428 -0.002744377 -0.106313236 -0.07280806 -0.20798887 -0.009291993
0.31354716 -0.2640862 -0.050578024 -0.03213964 0.010651299 0.053548243 0.038469505 0.052122775
0.02441126 -0.17347594 -0.20886704 -0.21157445 0.036363773 -0.19333936 -0.06749444 -0.005581858
-0.3126082 -0.01934755 0.18944749 -0.15336521 0.2123716 0.103875026 -0.012145334 -0.026164906
0.041160516 0.10337008 0.17699496 -0.055020686 -0.15974632 0.004095578 -0.15677564 -0.2919957
0.035216734 -0.0037156765 0.09607069 -0.08946592 0.13477923 0.078778066 -0.09364186 -0.036432564
0.19281311 -0.038021017 -0.047637455 -0.05704947 -0.102290876 -0.18463992 -0.12458054 -0.14599216
-0.18283874 -0.033527777 -0.090990625 -0.089902416 -0.13017793 -0.013471239 0.0071744737 -0.00128506
0.08822158 -0.10817057 0.28642476 0.074510574 0.06575704 0.06247848 -0.38826254 0.19580053
0.07102196 0.24985696 0.066862874 0.009951754 0.25720748 0.08605735 -0.10286726 0.10160557
0.13496475 0.058249924 -0.03044293 0.06883709 -0.10476455 0.03342639 0.075358614 -0.02496482
-0.13538323 0.11246485 -0.036683008 -0.010096428 0.37957865 0.045709513 -0.19649142 -0.061733574
0.05558183 -0.11296201 0.030184804 0.17803463 -0.16113545 0.2292324 0.3793659 -0.030138297
0.10905902 0.005158687 0.39613134 -0.06779031 0.268982 0.16355169 0.32707262 -0.15620656
0.32095417 -0.13263452 -0.1921528 0.049679678 -0.11903474 -0.0005812007 0.16092062 -0.2263042
00000000: 0f90 d33e 8be6 773e 0cff 063e f768 013f
00000010: 974b 703e 5248 0abe 49ab b3bc 1b7f 74be
00000020: 313c 863d 4134 f33d 3ac0 d63d 2e63 f53e
00000030: 126f 91bd ddc3 c43e 2c26 693e ee98 0dbd
00000040: 978b 26bb c040 e2bd 17a4 a13d 8e49 0dbd
00000050: d04c fc3d cf94 b6bd 1093 0c3e b881 93be
00000060: ab7a 1a3d c75a 8a3d 3fc5 31be 5a9a ac3d
00000070: 8851 f23c a510 36be 5e9d 35bd e2a1 a53e
00000080: a26a 463d fcf0 6bbc 1afe 75be c8ff 0c3f
00000090: 9cce 013c 942a f4bd 6f5b 473e 297e 403d
000000a0: c5bd 8a3e d366 573c 4027 2a3d 0c62 343e
000000b0: 6bbb 513e 12c4 753e e447 bbbd 9fd8 00bd
000000c0: 38ba 5d3d 0c6e eb3c 8dbe b63c cb49 71bd
000000d0: 7904 3abe 45ba be3d abb4 983c f872 17be
000000e0: 01b4 af3e 4f7e 723e 80a9 913c 81fe fd3b
000000f0: 0b41 0d3e 28a2 713e 17fb 1a3e 37b8 903e
00000100: 5b94 c0bc 7c91 febd 5756 22be c75f 003e
00000110: 445a 4dbd 3ff9 a7be 4326 933e 5b76 35bd
00000120: 7e97 283e 0766 063e 0e07 3c3e faf7 38bd
00000130: e156 80be 721b 393e 118e 31bd 5bb8 70bd
00000140: a020 913e 26fa d63c 60cb 653e eed3 933e
00000150: 0e04 13be 6fc3 833e a335 1f3f 28bb 943d
00000160: 1e5f 853e e61e b33e 6d9e 0f3e d917 1fbe
00000170: 0173 84bd edac 863e 5703 883e 0b60 933d
00000180: 8660 b73c b3f1 173d a6a6 823e 9f6e acbd
00000190: cd0f 06be e3f5 84bc d223 b1bd 89e0 febd
000001a0: c17c 47bd 5553 9bbd 1edc 323b d5bd 77bd
000001b0: d395 be3d 2491 21bd ec06 94bd e377 ca3d
000001c0: 2814 b5bc 137f de3b 5d14 fcbd 9cf3 613e
000001d0: 3fec 563d e355 5abd d100 45bb b7ff d43d
000001e0: e3d0 8e3b 2391 de3d f0f2 2cbe d5b4 02be
000001f0: c18c 3e3b d5d8 2bbe 8307 58be 7a27 c33d
00000200: eed5 ba3c 2504 ff3c 85c4 19bd 20c9 92bd
00000210: 4058 8ebe d6c3 e6bd cb74 c9bd 3430 8cbd
00000220: ebf1 febd 3498 10be 56fe 59be 01db 33bb
00000230: c1ba d9bd 641c 95bd 09fb 54be 723d 18bc
00000240: 4189 a03e 4e36 87be e72a 4fbd dba4 03bd
00000250: c982 2e3c 6755 5b3d 3392 1d3d b17e 553d
00000260: 1ffa c73c ada3 31be 3ee1 55be f9a6 58be
00000270: 2ef2 143d c1fa 45be 863a 8abd 05e8 b6bb
00000280: 2f0e a0be c17e 9ebc 86fe 413e c50b 1dbe
00000290: f177 593e 6ebc d43d 39fd 46bc c957 d6bc
000002a0: ee97 283d b1b3 d33d 2b3e 353e 5f5d 61bd
000002b0: 8a94 23be 3334 863b cb89 20be 7680 95be
000002c0: 6c3f 103d b582 73bb b6c0 c43d e939 b7bd
000002d0: 9103 0a3e 6556 a13d 4ec7 bfbd 503a 15bd
000002e0: cd70 453e edbb 1bbd 7e1f 43bd b4ac 69bd
000002f0: e17d d1bd 3f12 3dbe 1524 ffbd f87e 15be
00000300: 143a 3bbe 6c54 09bd 4b59 babd c21e b8bd
00000310: 5d4d 05be 79b6 5cbc d917 eb3b 756f a8ba
00000320: 84ad b43d 8888 ddbd 44a6 923e 0099 983d
00000330: a1ab 863d 6fe9 7f3d 59ca c6be ef7f 483e
00000340: f673 913d 81da 7f3e 67ef 883d ae0c 233c
00000350: b3b0 833e d63e b03d 12ac d2bd 9516 d03d
00000360: 3334 0a3e 7997 6e3d 7463 f9bc 76fa 8c3d
00000370: cc8e d6bd 1cea 083d 9e55 9a3d 0683 ccbc
00000380: e7a1 0abe f953 e63d ec40 16bd 7d6b 25bc
00000390: 2258 c23e e639 3b3d 0c35 49be 58dc 7cbd
000003a0: c6a9 633d a058 e7bd 1f46 f73c b64e 363e
000003b0: b100 25be e6bb 6a3e 3f3c c23e 97e4 f6bc
000003c0: 565a df3d 340a a93b bad1 ca3e a5d5 8abd
000003d0: 02b8 893e 187a 273e 1076 a73e 9df4 1fbe
000003e0: 1b54 a43e 58d1 07be b4c3 44be eb7c 4b3d
000003f0: 7cc8 f3bd b85b 18ba 60c8 243e 4abc 67be

out.bias f4 [6]
0.07997125 -0.07277027 0.11368047 0.21768232 0.14752433 0.122327544
00000000: f7c7 a33d 9408 95bd 4ed1 e83d 1de8 5e3e
00000010: 9e10 173e dd86 fa3d
