models2/Ant-v2/DisSample/Dagger_100.pth (torch, 49503 bytes, 4 tensors)

fc1.weight f4 [100, 111]
0	0xbc483136	-0.012218764
1	0xbabfca28	-0.0014632391
2	0x3d11344b	0.03545026
3	0x3d91e8d0	0.071244836
4	0x3bcbfb4a	0.0062250243
5	0xbd1e4a6b	-0.03864519
6	0x3e5b9923	0.21445136
7	0x3d4885c6	0.0489557
8	0xbd8d1ed7	-0.06890648
9	0xbd2e97bc	-0.042625174
10	0x3c61a472	0.013772117
11	0x3da4e264	0.08050993
12	0xbe12e5ec	-0.1434552
13	0xbd9030b6	-0.07040541
14	0x3c4b8f6c	0.012424331
15	0xbcef620e	-0.02922156
16	0xbc63d15c	-0.013904896
17	0xbd4dbef3	-0.05023093
18	0x3e1390d6	0.1441072
19	0xbdabe42f	-0.08393132
20	0x3cb424f9	0.021990286
21	0xbd5d5b3b	-0.054042082
22	0x3d4232d1	0.047411744
23	0xbe10ce71	-0.14141251
24	0xbd045483	-0.03230716
25	0xbd83670c	-0.06416139
26	0xbd41edc1	-0.04734588
27	0x3d772e3b	0.060346823
28	0x3d9232e3	0.07138612
29	0xbdaf0eb9	-0.0854773
30	0x3b80a9e2	0.0039265016
31	0x3cafb88d	0.021450305
32	0x3db47b1b	0.08812543
33	0x3db1b293	0.086766385
34	0x3d8227dd	0.063552596
35	0x3cca56c8	0.024699584
36	0x3de32367	0.11090737
37	0xbe196a1d	-0.14981885
38	0xbe3f4def	-0.18682073
39	0xbdbd4688	-0.092419684
40	0xbd05ef1f	-0.032698747
41	0x3df8b528	0.12143928
42	0xbdd6aaa0	-0.10481763
43	0x3d17426e	0.036928587
44	0x3dc5ac64	0.096520215
45	0xbb1b3fe1	-0.0023689198
46	0x3d95e893	0.07319751
47	0xbd925c4c	-0.071465105
48	0xbd707b98	-0.05871162
49	0x3d9133f5	0.07089988
50	0x3da02142	0.078188434
51	0x3d9a6772	0.07539262
52	0x3de8ba57	0.113636665
53	0xbc4626f4	-0.012094248
54	0xbe6bc257	-0.23023354
55	0xbd6557b5	-0.055991847
56	0xbcca6b5b	-0.024709394
57	0x3d4b14b8	0.049580306
58	0xbd77f582	-0.06053687
59	0xbcbec6f7	-0.023288233
60	0x3e3296b8	0.17440307
61	0xbcadef73	-0.021232342
62	0x3d90dd6b	0.07073482
63	0xbe91cc87	-0.28476354
64	0xbdaa1ceb	-0.08306297
65	0x3d865b30	0.065603614
66	0xbd473f64	-0.04864444
67	0xbdb26e4e	-0.08712445
68	0x3d3aba51	0.04558784
69	0x3b432c99	0.002978122
70	0xbe548718	-0.20754659
71	0xbb9c2c27	-0.0047660056
72	0x3b8274dc	0.003981216
73	0xbe072ec0	-0.13201427
74	0x3dbbc0d8	0.091676414
75	0xbcb3d5b4	-0.021952488
76	0x3db00493	0.085946225
77	0xbda61f98	-0.08111495
78	0x3df8f18d	0.12155447
79	0xbca05c47	-0.019575251
80	0x3dcd66a0	0.1002934
81	0xbacaedcb	-0.0015482245
82	0xbe583247	-0.2111293
83	0xbe301f67	-0.17199479
84	0x3d4cfb77	0.050044503
85	0x3bf68a50	0.0075238124
86	0xbbb4517c	-0.0055028778
87	0xbdd767d0	-0.105178475
88	0x3d55610a	0.052094497
89	0xbddbfea2	-0.10741927
90	0xbdbc5895	-0.09196583
91	0xbd8044df	-0.06263136
92	0x3e426c14	0.18986541
93	0x3c149acf	0.009070112
94	0xbd86c568	-0.06580621
95	0xbd27e430	-0.0409891
96	0x3e31c207	0.17359172
97	0xbdc5ae19	-0.09652347
98	0xbd11f0b7	-0.035629954
99	0xbdb08a92	-0.0862018
100	0xbe90c520	-0.28275394
101	0x3be1ceab	0.006891092
102	0x3cbd09f6	0.023076039
103	0xbd2a9177	-0.041642632
104	0x3e12e72a	0.14345995
105	0xbce190e0	-0.027534902
106	0x3ddf159a	0.10892792
107	0xbd8154bb	-0.06314989
108	0xbde6380a	-0.11241157
109	0xbd2f3ba5	-0.04278149
110	0xbe760722	-0.24026158
111	0x3d44f859	0.048088405
112	0xbe02d0d8	-0.1277498
113	0xbcf6c774	-0.030124404
114	0xbda62118	-0.08111781
115	0x3e218371	0.15772797
116	0xbaae9b27	-0.0013321385
117	0x3d0b5ead	0.034025837
118	0x3d29d55d	0.041463245
119	0xbd8bafab	-0.068206154
120	0xbe146c6d	-0.14494486
121	0x3e259c52	0.16172913
122	0xbe002d97	-0.12517391
123	0xbd71a3c4	-0.05899407
124	0x3e2b60c7	0.16736136
125	0xbdbf1b40	-0.093313694
126	0x3d30edd7	0.04319557
127	0xbd21b833	-0.039482307
128	0x3e4a998a	0.19785133
129	0x3dbe7af8	0.09300798
130	0xbce9ffe8	-0.028564408
131	0x3c8a0dc9	0.016852276
132	0xbd0f13b8	-0.034930915
133	0xbcb1ef17	-0.021720452
134	0xbcf93995	-0.030422965
135	0xbd48b5c5	-0.049001474
136	0x3b5171a3	0.0031958602
137	0xbd778d97	-0.060437765
138	0xbd539f5a	-0.05166564
139	0x3d987397	0.07443922
140	0x3e301765	0.17196424
141	0x3d220790	0.039557993
142	0x3d7d955a	0.06191001
143	0x3c6d5a6d	0.014486891
144	0x3d892c97	0.06697958
145	0xbe06eff7	-0.13177477
146	0x3dc9ef37	0.0986008
147	0x3d3c6e2f	0.046003517
148	0xbd617dd8	-0.055051655
149	0x3dbe5d4c	0.09295139
150	0xb88a843d	-6.604984e-05
151	0xbccbf95b	-0.024899175
152	0x3cc1af27	0.02364309
153	0xbe46f3e2	-0.19428971
154	0xbe2079ca	-0.15671459
155	0xbcf2ed50	-0.029654175
156	0xbd973bea	-0.073844746
157	0x3dd0581f	0.10173058
158	0x3e20f001	0.15716554
159	0xbd86349b	-0.065530024
160	0xbd99dd4d	-0.07512913
161	0xbcafed0a	-0.021475334
162	0x3d2fa4cc	0.042881772
163	0xbd349126	-0.044083737
164	0x3dac868f	0.084241025
165	0xbe11134f	-0.14167522
166	0x3de0866b	0.10963138
167	0x3d5ec722	0.054389127
168	0xb9850054	-0.0002536798
169	0x3e636632	0.22206953
170	0xbd9ce1fe	-0.07660292
171	0x3cce5247	0.025185717
172	0x3cdf006b	0.027221879
173	0xbc74d26a	-0.014942745
174	0xbdebddb3	-0.11516895
175	0x3e18e414	0.14930755
176	0x3dcc2ca6	0.099694535
177	0xbd30a10e	-0.043122344
178	0xbddb16f2	-0.10697736
179	0xbda24acf	-0.07924425
180	0xbd961903	-0.07328989
181	0xbdb7f186	-0.08981614
182	0x3cb883f3	0.022523856
183	0x3cba2640	0.022723317
184	0xbe2a8131	-0.16650845
185	0xbd46e04a	-0.048553742
186	0xbdd5cf58	-0.10439938
187	0x3d8b8b6b	0.06813701
188	0xbd87d731	-0.066328414
189	0xbd0c3ec7	-0.034239557
190	0xbd6757b2	-0.056480117
191	0x3d366e9c	0.04453908
192	0xbdda0bb5	-0.10646764
193	0x3c25da85	0.0101229
194	0xb9909f44	-0.00027584482
195	0xbd177b1c	-0.03698264
196	0xbcb360be	-0.021896716
197	0x3c680b7a	0.0141628925
198	0xbd722a42	-0.05912233
199	0x3d9cd8be	0.07658528
200	0x3e04c7ae	0.12966797
201	0xbd7ed293	-0.062212538
202	0xbdd3b693	-0.10337558
203	0x3de6e397	0.11273878
204	0xbd0e0be7	-0.03467932
205	0x3dee6838	0.11640972
206	0xbdea83fa	-0.11450954
207	0x3d3f950e	0.04677301
208	0xbd501b6d	-0.050807405
209	0x3daef275	0.08542339
210	0xbd581fe2	-0.05276478
211	0xbc7cd34d	-0.015431237
212	0xbc93524a	-0.017983574
213	0xbc49f559	-0.012326562
214	0xbc50811a	-0.012726093
215	0xbca8cfc0	-0.020606875
216	0xbd8dfbc1	-0.06932784
217	0x3da97976	0.0827512
218	0xbd6aa48b	-0.057285827
219	0x3e1534af	0.14570878
220	0x3c0181d7	0.007904491
221	0x3cbbe5a5	0.022936651
222	0x3e040542	0.1289263
223	0xbd4dfc58	-0.050289482
224	0xbc156dd5	-0.009120424
225	0xbce623e4	-0.028093286
226	0x3d6b3164	0.05742015
227	0xbbf31a65	-0.007418918
228	0xbda2ac7a	-0.079430535
229	0xbe501619	-0.2032093
230	0xbde3c87e	-0.11122225
231	0xbe00311c	-0.12518734
232	0xbe103bf8	-0.14085376
233	0xbe5d6757	-0.21621452
234	0xbd7a324d	-0.061083127
235	0x3dd3ae48	0.10335976
236	0xbe11dce9	-0.14244427
237	0x3e3f6426	0.18690547
238	0x3e646d55	0.22307332
239	0xbde5370b	-0.11192139
240	0x3ccfce1b	0.025366833
241	0xbd6877c6	-0.05675485
242	0xbc922338	-0.01783906
243	0xbd2ead39	-0.042645667
244	0x3d4c190c	0.049828574
245	0x3db44157	0.08801525
246	0xbcc7fb31	-0.02441177
247	0xbdf496df	-0.11942839
248	0x3e1041da	0.1408762
249	0x3c050eef	0.008121236
250	0xbe11eeee	-0.142513
251	0xbe2bd12f	-0.16779016
252	0x3d798ecb	0.060927194
253	0x3e01c6ff	0.12673567
254	0x3e1a65c6	0.15077886
255	0x3cec2a73	0.028828835

fc1.bias f4 [100]
0	0xbd984262	-0.074345365
1	0xbdd6e0af	-0.10492074
2	0x3c158755	0.009126504
3	0xbc783e20	-0.0151515305
4	0xbd37ce83	-0.04487468
5	0xbb013af6	-0.0019718981
6	0xbd9220cb	-0.07135161
7	0xbd16b38e	-0.03679233
8	0x3c275f69	0.010215619
9	0x3da4d097	0.08047598
10	0xbdcff987	-0.101550154
11	0xbdce2c2d	-0.100670196
12	0xbbfed66f	-0.0077770273
13	0xbcd8cfe2	-0.026466314
14	0x3d0d92e5	0.034563918
15	0xbd0380b5	-0.032105166
16	0x3debccf5	0.11513702
17	0xbda3561b	-0.07975408
18	0xbda1584f	-0.07878172
19	0xbdbf0eb7	-0.093289785
20	0x3dc963fc	0.09833524
21	0xbd419863	-0.047264468
22	0x3d3fa36e	0.046786718
23	0x3dbb1f95	0.09136883
24	0xb8dbfc40	-0.00010489719
25	0xbd14e551	-0.036351506
26	0xbc3c213f	-0.011482536
27	0x3d29989e	0.041405313
28	0x3cf5ceef	0.0300059
29	0x3d656eda	0.05601392
30	0x3d77670e	0.060401015
31	0xbccbe4cd	-0.024889374
32	0xbdb4e0d8	-0.08831948
33	0xbd28e0e0	-0.041230083
34	0xbdbd05da	-0.09229632
35	0xbd5681fe	-0.052370064
36	0xbb2f1465	-0.0026715037
37	0xbdc359f4	-0.095386416
38	0xbbea3833	-0.0071478128
39	0xbd754054	-0.0598758
40	0xbbe82550	-0.007084526
41	0xbd0d7154	-0.034531906
42	0xbd820b66	-0.0634983
43	0xbc6e5f8e	-0.014549149
44	0x3da9c6cb	0.0828987
45	0x3c97e413	0.018541371
46	0x3d4d3c6b	0.050106447
47	0x3cdc4cbc	0.026892059
48	0x3d49021d	0.04907428
49	0x3d63628f	0.055513915
50	0x3b1ccf27	0.0023927183
51	0x3d87b7e0	0.06626868
52	0xbdc00ec6	-0.09377818
53	0x3cf77f85	0.030212173
54	0xbc9b7846	-0.01897825
55	0x3d4b60d5	0.049652893
56	0x3d8dad75	0.0691785
57	0xbdc710b4	-0.09719983
58	0xbca3ed67	-0.020010663
59	0xbd1419de	-0.03615748
60	0xbd6a89f2	-0.05726046
61	0x3dbf8349	0.093512125
62	0x3c95239c	0.018205456
63	0xbd0270d9	-0.0318459
64	0x3da5571f	0.08073258
65	0x3db1d35a	0.0868289
66	0xbd6c1cfd	-0.057644833
67	0xbd926eb3	-0.071500205
68	0x3d864fd8	0.06558198
69	0xbc773cfb	-0.0150902225
70	0xbda801b2	-0.08203448
71	0xbc863bf9	-0.016386019
72	0x3c41530d	0.011799586
73	0xbdd1b0f2	-0.10238828
74	0x3d788307	0.060671832
75	0xbd6a0c85	-0.057140846
76	0xbcf4dea7	-0.029891325
77	0xbb0d5739	-0.0021566881
78	0xbc4f834f	-0.012665584
79	0x3da83526	0.08213262
80	0xbc650684	-0.013978604
81	0x3d115263	0.03547896
82	0x3cfca0c1	0.030838372
83	0xbde87cfe	-0.11351965
84	0x3d2a1571	0.041524354
85	0x3c3ecf28	0.01164607
86	0xbdedce74	-0.116116434
87	0xbd8c9ea8	-0.06866199
88	0x3d364b4b	0.0445054
89	0x3dcd32bf	0.10019445
90	0x3dbb21b6	0.09137289
91	0x3d7ae230	0.061250865
92	0xbd84fdbb	-0.06493708
93	0xbdce51cf	-0.100741975
94	0x3d2e9b28	0.042628437
95	0xbd9b26d8	-0.07575768
96	0xbd4d7a44	-0.05016543
97	0xbd4e778b	-0.050406974
98	0x3c867ba2	0.016416375
99	0x3d4adeb7	0.049528804

out.weight f4 [8, 100]
0	0xbd698d59	-0.057019565
1	0xbd558fe3	-0.052139174
2	0x3e730224	0.23731285
3	0x3dd1e45a	0.10248633
4	0xbe09b62f	-0.13448404
5	0x3d5c9525	0.053853173
6	0x3c200a34	0.009768058
7	0xbd64d76b	-0.0558695
8	0xbd99f693	-0.075177334
9	0x3e19e5bb	0.15029041
10	0xbe080771	-0.13284089
11	0x3d3e9232	0.04652614
12	0x3d7fc823	0.062446725
13	0x3da14f98	0.078765094
14	0x3d3fce2f	0.04682749
15	0xbdd44c2e	-0.103660926
16	0xbd09d24c	-0.03364782
17	0xbe80074b	-0.25005564
18	0x3c56abf4	0.01310252
19	0xbd6bac5e	-0.05753743
20	0xbd84ad02	-0.06478311
21	0x3cb6d4d3	0.02231828
22	0x3de48a92	0.11159243
23	0xbc338dc8	-0.010959096
24	0xbc985a21	-0.018597664
25	0xbdcc5e14	-0.099788815
26	0xbc13107b	-0.008976097
27	0x3c3fda70	0.011709794
28	0xbab23cde	-0.0013598462
29	0x3cad86c7	0.02118243
30	0xbc89af28	-0.016807154
31	0xbd76ecba	-0.060284354
32	0xbcd64380	-0.026155233
33	0xbd20b0db	-0.039231163
34	0x3dd4233b	0.10358282
35	0xbd87efd4	-0.066375405
36	0x3dd9bb99	0.106314845
37	0x3b01e9ab	0.0019823115
38	0x3c4c4c68	0.012469389
39	0xbd06fa7e	-0.03295373
40	0xbd8c1de3	-0.06841638
41	0xbdce7fac	-0.10082945
42	0x3c9bea07	0.019032491
43	0x3d6d2934	0.057900622
44	0x3d819e36	0.063290045
45	0x3e8a157a	0.2696951
46	0xbc2a23c3	-0.010384503
47	0xbd49ad71	-0.049237672
48	0x3ddf3f1c	0.10900709
49	0x3d4475bf	0.047963854
50	0x3d65c398	0.056094736
51	0x3d0b8877	0.03406569
52	0x3e35060f	0.17678092
53	0xbd80ab2f	-0.06282651
54	0xbc8c2ba4	-0.017110653
55	0xbd995d59	-0.07488508
56	0x3db90d4e	0.09035741
57	0x3e038554	0.1284383
58	0x3d6d0fb4	0.057876304
59	0xbd65ca24	-0.05610098
60	0x3cac8307	0.021058572
61	0xbd215ac4	-0.0393932
62	0xbd028959	-0.031869266
63	0x3dac65fa	0.08417888
64	0x3dbc62bf	0.09198522
65	0xbd7d0721	-0.061774377
66	0x3e419b87	0.18906985
67	0xbe47b906	-0.19504175
68	0xbd8b6dc6	-0.06808047
69	0xbd93015f	-0.07177996
70	0x3e1d54e9	0.15364422
71	0xbd1ff7a8	-0.039054543
72	0x3d8805ab	0.06641706
73	0x3d864f8e	0.065581426
74	0xbdbb312a	-0.09140237
75	0x3d31e87d	0.04343461
76	0xbd151417	-0.036396112
77	0xbddbbad5	-0.10728995
78	0xbd5d7a39	-0.05407164
79	0xbd525a62	-0.051355727
80	0x3dce4a70	0.100727916
81	0xbdd76ad8	-0.10518426
82	0xbdd1ea34	-0.10249749
83	0xbda1a91f	-0.078935854
84	0xbc9ba85f	-0.019001184
85	0xbc81d2e8	-0.015847638
86	0xbc4e8f39	-0.012607389
87	0xbd01aceb	-0.031659048
88	0xbe7ab443	-0.24482827
89	0xbd800001	-0.06250001
90	0xbdcff86d	-0.10154805
91	0xbcd0e589	-0.025500076
92	0xbe5fb184	-0.2184506
93	0x3cd8c627	0.026461674
94	0x3d889266	0.06668548
95	0x3d6d8251	0.057985608
96	0xbe2e66e1	-0.17031433
97	0x3c0c9627	0.008580721
98	0xbd38430a	-0.04498581
99	0x3cc47b8b	0.023984691
100	0x3cc3eaa0	0.023915589
101	0x3e41e099	0.18933333
102	0x3b94e223	0.004543559
103	0xbce9f8ee	-0.028561082
104	0xbd8f0455	-0.06983248
105	0x3d1a2dae	0.03764122
106	0x3d2fcb8a	0.04291872
107	0x3caaa8a2	0.020832364
108	0xbce74cc2	-0.028234843
109	0xbe4911f9	-0.19635762
110	0x3d275996	0.04085692
111	0x3db88ed6	0.09011619
112	0xbc09e134	-0.008415509
113	0xbcaa7d2e	-0.020811643
114	0xbe1254cc	-0.1429016
115	0xbcc43e29	-0.023955422
116	0xbe0f2cac	-0.13981885
117	0x3cd46689	0.025927799
118	0x3e23a827	0.15982114
119	0x3d03dd9c	0.032193765
120	0xbd9bac7a	-0.07601257
121	0xbca75e72	-0.020430777
122	0x3bafa466	0.005360174
123	0x3d714d91	0.058911864
124	0xbe00960c	-0.12557238
125	0x3c4ea746	0.012613123
126	0xbd070556	-0.032964073
127	0xbde92ccf	-0.113855
128	0xbd701bc6	-0.058620237
129	0x3be948c4	0.00711927
130	0xbdff92df	-0.12479185
131	0x3e1758fb	0.14780037
132	0xbe82322c	-0.25428903
133	0x3dd7ec79	0.105431505
134	0x3dedc47b	0.11609741
135	0x3cbf8aa5	0.02338154
136	0x3e53e9b0	0.20694613
137	0x3cdc0aa0	0.026860535
138	0xbe3ab08d	-0.18231411
139	0x3db7d3da	0.08975954
140	0x3e76be6e	0.2409608
141	0x3b8fe70a	0.0043915557
142	0x3d65af3c	0.05607532
143	0x3decc982	0.11561872
144	0xbd0459cf	-0.03231221
145	0xbd227b47	-0.039668348
146	0xbe13fe49	-0.14452471
147	0xbdb92677	-0.0904054
148	0x3d1ceb9a	0.038310625
149	0xbd9d89fc	-0.07692334
150	0x3da64f29	0.08120567
151	0xbd655e2b	-0.05599801
152	0xbdaf113c	-0.08548209
153	0xbe1f69de	-0.15567729
154	0xbe53b202	-0.20673373
155	0x3d731b09	0.059351955
156	0x3c8fb97d	0.017544502
157	0x3d81a24d	0.063297845
158	0xbe0ee0aa	-0.1395289
159	0xbcdbcb04	-0.026830204
160	0xbb41bff4	-0.0029563876
161	0xbe2ececc	-0.17071074
162	0xbdd879ba	-0.105700925
163	0x3c40d757	0.011770091
164	0x3e288541	0.16457082
165	0x3cb46e1b	0.022025159
166	0xbdc80fc4	-0.09768632
167	0x3e05cb9e	0.13065955
168	0xbdd35866	-0.10319595
169	0xbce3e955	-0.027821222
170	0x3db294f6	0.08719818
171	0xbd97f8f6	-0.074205324
172	0x3e149ea6	0.14513645
173	0xbda17b81	-0.078848846
174	0xbe2fd873	-0.17172413
175	0x3db21a81	0.086964615
176	0x3ca358e4	0.019939847
177	0x3d2c5fed	0.04208367
178	0x3d25c991	0.04047543
179	0x3dbf16d3	0.09330525
180	0x3d99155f	0.07474779
181	0x3d3a2884	0.045448795
182	0x3c846d53	0.016165411
183	0x3d873305	0.06601528
184	0x3cf25752	0.029582653
185	0xbdb4f5f4	-0.08835974
186	0x3d7336c0	0.059378386
187	0x3bde7c09	0.0067896885
188	0xbc8d5210	-0.017251045
189	0xbd77d40f	-0.06050497
190	0x3b143c18	0.0022618826
191	0xbe000a5a	-0.12503949
192	0x3dcd4b5a	0.10024138
193	0x3e21cd42	0.15800956
194	0x3e966c7c	0.29379642
195	0x3d17256c	0.036900923
196	0x3e4651a6	0.19367084
197	0x3c9c9dd8	0.019118235
198	0x3cfb857a	0.030703295
199	0xbe25317b	-0.16132157
200	0xbdddef5e	-0.10836671
201	0x3dd90575	0.10596744
202	0xbd89c823	-0.06727626
203	0xbccfdaa8	-0.025372818
204	0xbca99283	-0.020699745
205	0x3d7d7fc4	0.061889425
206	0xbe5c6094	-0.21521217
207	0x3cb3cbb4	0.02194772
208	0x3dc2abff	0.09505462
209	0x3d529277	0.05140921
210	0xbd59e44b	-0.053196233
211	0x3e278ee4	0.16363102
212	0x3c937441	0.01799977
213	0xbceb2714	-0.028705157
214	0x3d59b303	0.053149235
215	0x3e060029	0.13085999
216	0x3dbb36dd	0.09141324
217	0x3d540b58	0.05176863
218	0x3bbd40d1	0.005775549
219	0x3e4e0e5d	0.20122667
220	0xbc31e070	-0.010856733
221	0x3ab82369	0.0014048639
222	0x3dc6d451	0.09708465
223	0x3b66f145	0.0035239023
224	0x3ddfb7d3	0.109237336
225	0xbd6f1c50	-0.05837661
226	0xbcc7b055	-0.024376074
227	0x3b1d7c33	0.0024030327
228	0xbd598164	-0.053101912
229	0x3d3acd4c	0.045605943
230	0x3d267ced	0.040646482
231	0xbd42749a	-0.04747448
232	0xbe0e339a	-0.13886872
233	0xbe1e7f84	-0.15478331
234	0x3d0d3c0e	0.0344811
235	0x3d152416	0.036411367
236	0xbc8c5485	-0.017130146
237	0x3e31ead0	0.1737473
238	0xbd69835b	-0.057010036
239	0x3e5c4725	0.21511514
240	0xbe017a4a	-0.12644306
241	0x3e178a47	0.14798842
242	0xbd96266e	-0.07331549
243	0xbe3355f9	-0.17513265
244	0xbe010b62	-0.12601998
245	0xbd74b06c	-0.05973856
246	0x3d68cef1	0.05683798
247	0xbda23f78	-0.07922262
248	0xbc8c054e	-0.017092373
249	0xbe3012bc	-0.17194647
250	0x3d11a3d0	0.035556614
251	0xbda6710d	-0.081270315
252	0xbc1b2985	-0.009470348
253	0xbc01fb67	-0.007933474
254	0x3d99b810	0.0750581
255	0xbd2b62d4	-0.041842297

out.bias f4 [8]
0	0xbd0fc3d3	-0.035098862
1	0x3d305923	0.043053757
2	0x3d9f1556	0.077677414
3	0x3dadbc14	0.08483139
4	0x3c8d924e	0.017281678
5	0xbd18a241	-0.037264112
6	0x3bd8a401	0.0066113477
7	0x3df03d23	0.11730411
