models2/Ant-v2/DisWeightSample/Dagger_730.pth (torch, 49503 bytes, 4 tensors)

fc1.weight f4 [100, 111]
000000 32 c0 28 bd 0c 7c a6 bb 32 23 57 3d a2 fe 20 3d
       -0.041198917 -0.0050807055 0.0525238 0.039305337
000010 28 eb bf 3c e3 f8 66 3b b4 7c 40 3e f3 82 37 bc
       0.02342756 0.0035243563 0.1879757 -0.011200654
000020 d1 bb 5b bd 7d 2e 85 bc 93 a9 07 3d 41 64 d7 3d
       -0.053645913 -0.016257519 0.033120703 0.10517169
000030 0a 71 2e be c7 dd ec bb ce a0 be 3c 6a 1b 2a bd
       -0.17035308 -0.0072285864 0.023270037 -0.04153005
000040 51 1f 53 bd 4a 97 74 bb 16 e2 e2 3d 8c 58 98 bd
       -0.051543538 -0.003732162 0.11078279 -0.07438764
000050 ae ec 73 bc 4a 30 d1 bd 1a 4d 95 3c f5 b7 fa bd
       -0.014887972 -0.102142885 0.018225241 -0.12242118
000060 d8 c0 0e bd 9b 09 90 bd 4a 89 77 bc 3b 2e 77 3d
       -0.03485188 -0.07033082 -0.015108416 0.060346823
000070 e3 32 92 3d b9 0e af bd e2 a9 80 3b 8d b8 af 3c
       0.07138612 -0.0854773 0.0039265016 0.021450305
000080 1b 7b b4 3d 93 b2 b1 3d dd 27 82 3d c8 56 ca 3c
       0.08812543 0.086766385 0.063552596 0.024699584
000090 67 23 e3 3d 1d 6a 19 be ef 4d 3f be 88 46 bd bd
       0.11090737 -0.14981885 -0.18682073 -0.092419684
0000a0 1f ef 05 bd 28 b5 f8 3d a0 aa d6 bd 6e 42 17 3d
       -0.032698747 0.12143928 -0.10481763 0.036928587
0000b0 64 ac c5 3d e1 3f 1b bb 93 e8 95 3d 4c 5c 92 bd
       0.096520215 -0.0023689198 0.07319751 -0.071465105
0000c0 98 7b 70 bd f5 33 91 3d 42 21 a0 3d 72 67 9a 3d
       -0.05871162 0.07089988 0.078188434 0.07539262
0000d0 57 ba e8 3d f4 26 46 bc 57 c2 6b be b5 57 65 bd
       0.113636665 -0.012094248 -0.23023354 -0.055991847
0000e0 5b 6b ca bc b8 14 4b 3d 82 f5 77 bd f7 c6 be bc
       -0.024709394 0.049580306 -0.06053687 -0.023288233
0000f0 b8 96 32 3e 73 ef ad bc 6b dd 90 3d 87 cc 91 be
       0.17440307 -0.021232342 0.07073482 -0.28476354
000100 eb 1c aa bd 30 5b 86 3d 64 3f 47 bd 4e 6e b2 bd
       -0.08306297 0.065603614 -0.04864444 -0.08712445
000110 51 ba 3a 3d 99 2c 43 3b 18 87 54 be 27 2c 9c bb
       0.04558784 0.002978122 -0.20754659 -0.0047660056
000120 dc 74 82 3b c0 2e 07 be d8 c0 bb 3d b4 d5 b3 bc
       0.003981216 -0.13201427 0.091676414 -0.021952488
000130 93 04 b0 3d 98 1f a6 bd 8d f1 f8 3d 47 5c a0 bc
       0.085946225 -0.08111495 0.12155447 -0.019575251
000140 a0 66 cd 3d cb ed ca ba 47 32 58 be 67 1f 30 be
       0.1002934 -0.0015482245 -0.2111293 -0.17199479
000150 77 fb 4c 3d 50 8a f6 3b 7c 51 b4 bb d0 67 d7 bd
       0.050044503 0.0075238124 -0.0055028778 -0.105178475
000160 0a 61 55 3d a2 fe db bd 95 58 bc bd df 44 80 bd
       0.052094497 -0.10741927 -0.09196583 -0.06263136
000170 14 6c 42 3e cf 9a 14 3c 68 c5 86 bd 30 e4 27 bd
       0.18986541 0.009070112 -0.06580621 -0.0409891
000180 07 c2 31 3e 19 ae c5 bd b7 f0 11 bd 92 8a b0 bd
       0.17359172 -0.09652347 -0.035629954 -0.0862018
000190 20 c5 90 be ab ce e1 3b f6 09 bd 3c 77 91 2a bd
       -0.28275394 0.006891092 0.023076039 -0.041642632
0001a0 2a e7 12 3e e0 90 e1 bc 9a 15 df 3d bb 54 81 bd
       0.14345995 -0.027534902 0.10892792 -0.06314989
0001b0 0a 38 e6 bd a5 3b 2f bd 22 07 76 be 1c c8 39 3d
       -0.11241157 -0.04278149 -0.24026158 0.045356855
0001c0 2d f8 12 be 3b 06 5a bd 35 28 a7 bd fe 59 35 3e
       -0.14352484 -0.053228598 -0.08161966 0.1771011
0001d0 53 a0 50 3c 90 b7 25 3d ef 14 63 3d 63 bf 97 bd
       0.012733537 0.040458262 0.055439886 -0.07409551
0001e0 0d 99 23 be c5 d9 21 3e 4f f9 0c be c1 b5 59 bd
       -0.15976353 0.15805729 -0.13766979 -0.05315185
0001f0 0d 7a 19 3e f3 2d e8 bd df c5 cb 3d 9f fd 14 bc
       0.14987965 -0.11336889 0.0994985 -0.009093671
000200 a6 1d 32 3e 1f 12 01 3e 47 ac ef bc 61 b0 34 3d
       0.17394122 0.12604569 -0.029256953 0.04411352
000210 da 3e cd bc 64 6f 33 bc bf b7 eb bc e9 12 2b bd
       -0.025054384 -0.010951851 -0.02877414 -0.04176608
000220 8e 7c f4 3c 9e 49 b9 bd 5a 9f 53 bd 97 73 98 3d
       0.029844549 -0.090472445 -0.05166564 0.07443922
000230 65 17 30 3e 90 07 22 3d 5a 95 7d 3d 6d 5a 6d 3c
       0.17196424 0.039557993 0.06191001 0.014486891
000240 97 2c 89 3d f7 ef 06 be 37 ef c9 3d 2f 6e 3c 3d
       0.06697958 -0.13177477 0.0986008 0.046003517
000250 d8 7d 61 bd 4c 5d be 3d 3d 84 8a b8 5b f9 cb bc
       -0.055051655 0.09295139 -6.604984e-05 -0.024899175
000260 27 af c1 3c e2 f3 46 be ca 79 20 be 50 ed f2 bc
       0.02364309 -0.19428971 -0.15671459 -0.029654175
000270 ea 3b 97 bd 1f 58 d0 3d 01 f0 20 3e 9b 34 86 bd
       -0.073844746 0.10173058 0.15716554 -0.065530024
000280 4d dd 99 bd 0a ed af bc cc a4 2f 3d 26 91 34 bd
       -0.07512913 -0.021475334 0.042881772 -0.044083737
000290 8f 86 ac 3d 4f 13 11 be 6b 86 e0 3d 22 c7 5e 3d
       0.084241025 -0.14167522 0.10963138 0.054389127
0002a0 54 00 85 b9 32 66 63 3e fe e1 9c bd 47 52 ce 3c
       -0.0002536798 0.22206953 -0.07660292 0.025185717
0002b0 6b 00 df 3c 6a d2 74 bc b3 dd eb bd 14 e4 18 3e
       0.027221879 -0.014942745 -0.11516895 0.14930755
0002c0 a6 2c cc 3d 0e a1 30 bd f2 16 db bd cf 4a a2 bd
       0.099694535 -0.043122344 -0.10697736 -0.07924425
0002d0 03 19 96 bd 86 f1 b7 bd f3 83 b8 3c 40 26 ba 3c
       -0.07328989 -0.08981614 0.022523856 0.022723317
0002e0 31 81 2a be 4a e0 46 bd 58 cf d5 bd 6b 8b 8b 3d
       -0.16650845 -0.048553742 -0.10439938 0.06813701
0002f0 31 d7 87 bd c7 3e 0c bd b2 57 67 bd 9c 6e 36 3d
       -0.066328414 -0.034239557 -0.056480117 0.04453908
000300 b5 0b da bd 85 da 25 3c 44 9f 90 b9 1c 7b 17 bd
       -0.10646764 0.0101229 -0.00027584482 -0.03698264
000310 be 60 b3 bc 7a 0b 68 3c 42 2a 72 bd be d8 9c 3d
       -0.021896716 0.0141628925 -0.05912233 0.07658528
000320 ae c7 04 3e 93 d2 7e bd 93 b6 d3 bd 97 e3 e6 3d
       0.12966797 -0.062212538 -0.10337558 0.11273878
000330 e7 0b 0e bd 38 68 ee 3d fa 83 ea bd 0e 95 3f 3d
       -0.03467932 0.11640972 -0.11450954 0.04677301
000340 6d 1b 50 bd 75 f2 ae 3d e2 1f 58 bd 4d d3 7c bc
       -0.050807405 0.08542339 -0.05276478 -0.015431237
000350 4a 52 93 bc 59 f5 49 bc 1a 81 50 bc c0 cf a8 bc
       -0.017983574 -0.012326562 -0.012726093 -0.020606875
000360 c1 fb 8d bd 76 79 a9 3d 8b a4 6a bd af 34 15 3e
       -0.06932784 0.0827512 -0.057285827 0.14570878
000370 d7 81 01 3c a5 e5 bb 3c c6 ae 03 3e 30 fd 88 bd
       0.007904491 0.022936651 0.1285964 -0.06688917
000380 51 4d ac bc 5b 1f 12 bd 2e 86 0c 3c 44 c0 3d bd
       -0.021032961 -0.035674434 0.008576913 -0.046325937
000390 2e c5 97 bd 07 44 56 be 01 f8 e8 bd be a2 dd bd
       -0.07410656 -0.20924388 -0.11375428 -0.10822056
0003a0 4e 6d 13 be 06 e8 5a be 86 b0 77 bd ca 99 21 3e
       -0.14397165 -0.21377572 -0.06047108 0.15781322
0003b0 d1 92 c0 bd e4 82 14 3e 78 ca 47 3e 80 4a 0b be
       -0.09403003 0.14503056 0.1951083 -0.13602638
0003c0 98 7a d2 bc e7 b1 78 bd 72 13 d3 bb c5 e1 70 bd
       -0.025693223 -0.060716536 -0.006441527 -0.05880906
0003d0 4c eb 5e 3d 25 6b 87 3d c7 3b 6d bc b9 45 eb bd
       0.054423615 0.06612233 -0.014479584 -0.11487908
0003e0 58 cd 08 3e ef 0e 05 3c ee ee 11 be 2f d1 2b be
       0.13359582 0.008121236 -0.142513 -0.16779016
0003f0 cb 8e 79 3d ff c6 01 3e c6 65 1a 3e 73 2a ec 3c
       0.060927194 0.12673567 0.15077886 0.028828835

fc1.bias f4 [100]
000000 54 7a c8 bd 39 45 cb bd 7a 8e 18 3c de 90 bb bb
       -0.09788957 -0.099253125 0.009311313 -0.0057240566
000010 14 26 0e bd 7f 99 06 bc e0 f3 b5 bd cd a6 3b bc
       -0.034704283 -0.008215307 -0.08884406 -0.011453343
000020 c1 5f 34 bc de 8b ab 3d bf f1 ab bd f1 39 a1 bd
       -0.011009158 0.08376287 -0.08395719 -0.078723796
000030 b0 5c 11 bd 18 4b 37 bd 0f ff 04 3d b0 dc 83 bc
       -0.035488784 -0.04474935 0.032469805 -0.016096443
000040 92 b9 d2 3d cb a5 be bd 8a 6f 5e bd 03 b3 d9 bd
       0.10289301 -0.09308966 -0.05430559 -0.10629847
000050 6d 4a cd 3d f8 de 1a bd 0c 94 42 3d 09 d3 b3 3d
       0.10023961 -0.037810296 0.04750447 0.08780486
000060 9e 3d 38 3b 20 f6 19 bd a3 7d 09 bc 11 86 16 3d
       0.0028112899 -0.03758824 -0.0083917705 0.03674895
000070 6f dc ef 3c 5a 91 93 3d 9e 46 9b 3d a1 b9 9f bc
       0.029279916 0.07205458 0.075818285 -0.019497694
000080 3a ae d6 bd 08 29 06 bd f3 0f ac bd a5 92 a5 bc
       -0.1048245 -0.032753974 -0.084014796 -0.020211527
000090 bb 40 72 bc 6a a4 ef bd de e1 6b bc c6 49 63 bd
       -0.014785941 -0.11701281 -0.014397113 -0.055490278
0000a0 32 7e 4d bc de b2 58 bd 06 6d 7b bd ce db 01 bc
       -0.012542294 -0.052904956 -0.06138327 -0.007925941
0000b0 6f 45 a0 3d 27 24 8d 3c e9 be 27 3d 4d 01 83 3b
       0.078257434 0.017229153 0.04095355 0.003997958
0000c0 b1 3d 78 3d bd 5e 29 3d 7d 62 8f 3c aa ea 90 3d
       0.06060571 0.041350115 0.017503018 0.070760086
0000d0 85 56 96 bd 86 ae 22 3c 44 91 cc 3c ff cc 63 3d
       -0.07340721 0.009929305 0.024971612 0.05561542
0000e0 49 76 4a 3d 0b 8a c0 bd b2 a7 c1 bc 43 c4 0c bd
       0.04942921 -0.094013296 -0.023639534 -0.034366857
0000f0 06 10 0b bd 72 45 b1 3d 88 ed 7d 3c a4 50 62 bb
       -0.033950828 0.08655824 0.015498526 -0.003453293
000100 82 6f 94 3d c4 e3 90 3d c3 c6 85 bd d8 1e 2d bd
       0.07247831 0.07074693 -0.065320514 -0.042265743
000110 a6 a2 87 3d d2 3f 21 bd b1 76 b6 bd a5 df d1 bc
       0.066228196 -0.039367504 -0.08909357 -0.025619337
000120 84 6d c1 3c ea 2f fd bd 33 b3 66 3d fc 80 32 bd
       0.023611791 -0.123626545 0.05632324 -0.04358004
000130 63 e1 fd bc a4 f3 48 3c 05 29 28 bd 43 00 b8 3d
       -0.030991262 0.01226512 -0.041054744 0.08984425
000140 7b ec 1e 3c b0 c1 33 3d 55 fc 48 3c 39 c7 e5 bd
       0.009699936 0.043885887 0.012267192 -0.11219639
000150 cb cc 39 3d 06 10 63 3c af 6e f8 bd b4 6b a1 bd
       0.04536132 0.013858801 -0.12130486 -0.07881871
000160 6c 72 4d 3d 2c b4 f5 3d 24 50 da 3d 07 6d 85 3d
       0.05015795 0.11997256 0.10659817 0.06514936
000170 05 7d 82 bd 80 c9 b5 bd ca 25 0d 3d cc c5 7e bd
       -0.06371502 -0.08876324 0.034459867 -0.062200353
000180 45 e8 0c bd 6f a5 4d bd cb 52 25 3c 54 81 71 3d
       -0.034401197 -0.050206598 0.01009054 0.058961228

out.weight f4 [8, 100]
000000 00 d5 14 bd a5 04 81 bd cd e9 7a 3e 98 9d d0 3d
       -0.036335945 -0.06299714 0.2450325 0.101863086
000010 4d 59 06 be 96 ac 7a 3d 6b 0e ec 3a d2 02 a4 bd
       -0.13120003 0.061199747 0.0018009668 -0.080083504
000020 0a 95 64 bd b3 23 10 3e 70 1b eb bd 40 1b 29 3d
       -0.055806197 0.14076118 -0.11479843 0.041285753
000030 0b 0d f2 3c df 08 aa 3d f4 b8 4c 3d d6 0b bb bd
       0.029547235 0.08302473 0.049981073 -0.09133117
000040 24 43 5e bc 89 6e 6d be ef 08 59 bb d8 70 4c bd
       -0.013565812 -0.23186697 -0.0033116897 -0.049912304
000050 ed 21 a9 bd eb 9a 45 3d 38 0c ca 3d e7 f3 95 bb
       -0.08258424 0.048243444 0.09865612 -0.0045761946
000060 ab 72 08 bd fc 9f d4 bd 0b e2 e2 bb 3a 78 a6 3c
       -0.03331248 -0.10382077 -0.006923919 0.020321
000070 c5 b6 8a 3c 40 13 13 3d 9d f8 be bc c2 51 4b bd
       0.016932854 0.03590703 -0.023311907 -0.049638517
000080 c1 57 95 bc d2 66 08 3c be bb d5 3d b4 69 a5 bd
       -0.01823032 0.0083252955 0.104361996 -0.08076802
000090 60 33 bd 3d f8 92 c3 ba a6 8a 8f 3c f1 ce ef bc
       0.09238315 -0.001492112 0.017522167 -0.029273482
0000a0 fe 6f 4f bd 3f 4f 99 bd a6 56 1d 3d ba 69 82 3d
       -0.050643913 -0.07485818 0.038412713 0.06367822
0000b0 df 82 ba 3d 2f ff 98 3e f9 1c 9f bb da 72 82 bd
       0.09106993 0.2988219 -0.0048557487 -0.063695624
0000c0 28 d7 e5 3d 21 32 6a 3d 2f 79 94 3d 02 b6 9c 3a
       0.112226784 0.057176713 0.072496764 0.0011956098
0000d0 38 9a 3d 3e a2 b9 85 bd 40 d6 10 bd a9 b3 ab bd
       0.18515861 -0.06529547 -0.035360575 -0.08383877
0000e0 8d 94 a6 3d 32 65 e7 3d 28 4d 6f 3d 59 b4 47 bd
       0.081338026 0.11298598 0.05842319 -0.048755977
0000f0 6d 08 18 3d ba 80 74 bd 5e 02 9d bc 8c 89 d5 3d
       0.03711741 -0.059693076 -0.019166168 0.104266256
000100 ac 58 9a 3d c9 4d 7d bd ad 30 49 3e 15 d6 31 be
       0.07536444 -0.06184176 0.19647475 -0.17366822
000110 b1 55 8a bd 38 10 91 bd 8a 24 15 3e f8 78 6e bd
       -0.067546256 -0.070831716 0.1456472 -0.058220834
000120 d9 9f 94 3d 60 0c f6 3c a4 92 a5 bd 1a 31 14 3d
       0.07257051 0.030035198 -0.0808461 0.03617964
000130 30 63 e1 bc 9b 6b 00 be 86 7b 62 bd fc a3 3c bd
       -0.027513117 -0.12541048 -0.055293582 -0.046054825
000140 4d fa c9 3d 8b 08 ed bd c9 90 db bd 2f 36 b4 bd
       0.09862194 -0.11573895 -0.10720975 -0.08799397
000150 b7 b2 5c bd 54 0c 5e bc 1d be a2 bc 84 56 2e bd
       -0.053881373 -0.013552744 -0.019866044 -0.042562976
000160 cd 2d 6f be 2a c6 6d bd c0 57 d7 bd e6 06 db bc
       -0.23357315 -0.058050312 -0.10514784 -0.026736688
000170 a3 2e 3c be ba be 22 bc 98 f9 72 3d ea 2c ba 3d
       -0.18377165 -0.009933168 0.059320062 0.09090598
000180 ea e5 36 be a3 07 b8 bb 2b 53 76 bd 8b 92 af 3c
       -0.17861143 -0.0056161447 -0.06013791 0.021432182
000190 df 78 1e 3d 04 03 33 3e be ba 1f 3d 09 21 83 bc
       0.03868949 0.17481619 0.03899645 -0.016006963
0001a0 05 fc 9c bd 01 8d 0f 3d f6 24 55 3d 61 e6 7d 3a
       -0.076652564 0.03504658 0.0520372 0.0009685513
0001b0 1c 3d 89 bc f4 da 4e be bd 0b 56 3d 78 24 a0 3d
       -0.016752772 -0.20200711 0.05225729 0.07819456
0001c0 79 18 5d 3c 5b bd 9c 3c 5a 44 09 be 32 d9 b9 bb
       0.013494604 0.01913326 -0.1340498 -0.0056716437
0001d0 db f1 02 be 90 04 89 3b 55 3a 26 3e bc 73 2d 3d
       -0.12787573 0.004181452 0.1623319 0.0423467
0001e0 6d 1e 8b bd 92 66 8c bd 1d 2d 30 bb a4 b9 4c 3d
       -0.06792913 -0.06855501 -0.0026882358 0.04998173
0001f0 e4 fb e2 bd 0a 85 23 3a 14 1e 1c bd 82 06 ef bd
       -0.110832006 0.0006237781 -0.038114622 -0.11671163
000200 f1 c4 45 bd 79 cc 52 bc e5 9a f8 bd df 9a 0e 3e
       -0.04828352 -0.012866133 -0.12138919 0.13926266
000210 bd 61 84 be 66 59 b0 3d 62 84 a3 3d 7e 03 7f 3d
       -0.25855818 0.086108014 0.079842344 0.06225919
000220 a3 35 36 3e 61 36 27 3d 87 00 37 be c9 76 c7 3d
       0.17793898 0.040823344 -0.17871295 0.09739453
000230 93 d4 76 3e bd 3b 50 3b 84 99 58 3d 1c 18 00 3e
       0.24104528 0.0031773888 0.05288078 0.12509197
000240 70 39 2e bd cd fa 31 bd a1 59 05 be 3e 58 c0 bd
       -0.042535245 -0.043452073 -0.13022472 -0.09391831
000250 bf e5 3f 3d 9a 09 9c bd c4 00 92 3d 5f 73 14 bd
       0.046849962 -0.07619019 0.07129052 -0.03624284
000260 c1 12 bc bd ca 81 16 be af 17 6e be ac b4 ab 3d
       -0.091832645 -0.14697948 -0.23251222 0.0838407
000270 6d b5 79 3b 94 09 76 3d 23 95 12 be 09 d1 2d bc
       0.0038102523 0.06006773 -0.14314704 -0.01060892
000280 cb 41 db 3b dc d6 f9 bd 79 4d d8 bd 14 8c cb ba
       0.0066911927 -0.12199184 -0.10561652 -0.0015529417
000290 f5 5e 23 3e 2f 6c aa 3c 2f 80 a3 bd 54 6e 2f 3e
       0.15954192 0.02080354 -0.079834335 0.1713193
0002a0 c8 3e be bd de d0 c4 bc 1b 9a a9 3d d0 97 36 bd
       -0.09289318 -0.024025377 0.082813464 -0.044578373
0002b0 3a 5d 26 3e 3f 22 c1 bc 71 ef 1d be db 82 ca 3d
       0.162465 -0.0235759 -0.15423371 0.0988824
0002c0 5b 90 a2 3c 11 b4 58 3d ac 28 21 3d 6e 45 76 3d
       0.019844225 0.0529061 0.03934543 0.060124807
0002d0 b2 85 b7 3d df 4c 28 3d 60 8e 89 3c e0 46 d1 3d
       0.08961047 0.041088935 0.016791523 0.102185965
0002e0 39 15 0e 3d fa 4d 3a bd e6 66 54 3d 67 4d 8e 3c
       0.03468821 -0.04548452 0.051855944 0.017370893
0002f0 2e d4 10 bd 4e ff ad bd 02 f3 37 3c a6 a4 d7 bd
       -0.0353586 -0.08495961 0.011227371 -0.10529451
000300 86 d7 c9 3d 8c 7b 29 3e 4e a5 8d 3e 38 1c be 3b
       0.09855561 0.16551036 0.2766518 0.005801704
000310 ad 9d 0f 3e 3b d3 c2 3c 8b f0 26 3d 6c be 31 be
       0.14024992 0.023782363 0.040756743 -0.17357796
000320 83 2e c1 bd b4 61 f8 3d f4 29 c8 bd 5d be fe bc
       -0.094326995 0.121280104 -0.09773627 -0.031096632
000330 eb 64 74 bc 45 2b 86 3d bf de 52 be b5 44 83 3c
       -0.014916639 0.06551222 -0.20592783 0.016023973
000340 91 1e 85 3d 60 a6 3a 3d 60 da 99 bd 46 48 61 3e
       0.06499971 0.045568824 -0.07512355 0.22000226
000350 a8 0a 18 3d f6 4e ac bc 0f bf 16 3d 2e e8 08 3e
       0.037119538 -0.021033745 0.0368033 0.1336982
000360 2d 4b a9 3d 08 0a 65 3d 17 7b 33 bc fa 9d 3d 3e
       0.08266292 0.05591777 -0.01095464 0.18517295
000370 f4 f5 c6 bb 29 31 1b 3a af fc f1 3d 7f 9b 50 bb
       -0.0060718004 0.0005920106 0.11815774 -0.0031830964
000380 98 dc eb 3d 6b 80 11 bd b9 5e 03 bd 51 5f 1a bb
       0.11516684 -0.03552286 -0.032072756 -0.0023555348
000390 a0 5a 66 bd 61 a2 93 3d fe fe 3f 3d f0 c8 35 bd
       -0.05623877 0.07208706 0.04687404 -0.044381082
0003a0 e0 f7 1a be 6d fe 19 be 60 17 f5 3c 0a df 5f bb
       -0.1513362 -0.15038462 0.029918373 -0.0034160041
0003b0 48 31 f8 bb 85 0d 25 3e cc b1 94 bd 5d 55 52 3e
       -0.007574234 0.16118439 -0.072604746 0.20540376
0003c0 72 26 db bd ad ca 2f 3e 53 be 9f bd 7d e1 1d be
       -0.10700692 0.17167158 -0.07799973 -0.15418048
0003d0 7c 62 07 be ab 8c bd bd 95 1d 80 3d 0c 9f 83 bd
       -0.13221163 -0.09255346 0.06255642 -0.0642682
0003e0 eb 37 89 bb 47 5d 2b be 00 e5 02 3d 2f 9b a0 bd
       -0.004187574 -0.16734801 0.031956673 -0.07842099
0003f0 08 63 5f bc aa 6d a9 bc ac ca 86 3d 6e 30 22 bd
       -0.013634451 -0.020682175 0.06581625 -0.039596967

out.bias f4 [8]
000000 da ff 02 bd 0e 91 58 3d 12 8c a0 3d 3e e8 97 3d
       -0.03198228 0.05287271 0.07839216 0.074173436
000010 37 58 a5 3c 5b 76 00 bd fe b3 8d 3c 39 da 02 3e
       0.020183666 -0.031362873 0.017297741 0.12778558
