models/InvertedDoublePendulum-v2/DisSample/Dagger_470.pth (torch, 6751 bytes, 3 tensors)

fc1.weight f4 [100, 11]
000000 f8 a2 42 3e b3 22 9f bd f1 3d 54 3e 0a 21 a6 3e
       0.1900748 -0.0777029 0.20726754 0.32447082
000010 8e 31 92 3e 7d 1f 56 be 43 e5 20 3e 4b 47 92 be
       0.28553432 -0.2091045 0.15712456 -0.28570017
000020 36 c6 9e bd 95 9e de 3d b6 91 07 be ea 38 1b 3f
       -0.077526495 0.10870091 -0.13239178 0.6063372
000030 55 84 a9 3d 36 8f 64 bf 06 24 48 be 98 6c 25 bf
       0.082771935 -0.8928102 -0.19544992 -0.64618826
000040 b2 48 de 3d dd c5 a3 bd 9e 3f 67 be 1f 43 a7 3e
       0.10853709 -0.07996724 -0.22582862 0.32668397
000050 96 28 9a bd 92 f9 55 3d af ba a3 bd ec 3e b2 3c
       -0.075272724 0.052239962 -0.079945914 0.02175852
000060 44 e4 75 3f 53 12 18 3e 48 52 35 be 91 b1 e1 3d
       0.9605143 0.1485074 -0.17707169 0.11020196
000070 44 95 84 3e 3f ef 2a 3e 7d 18 79 3e 13 d1 6d 3e
       0.2589513 0.16692828 0.24325748 0.23224287
000080 43 ba 0c bd 03 b3 8f be ad 7d 8c 3e b5 5f f2 3f
       -0.03435732 -0.28066263 0.27439633 1.8935457
000090 0a 59 24 3e 82 a3 39 3c 41 62 b4 3d 1f c6 b5 3e
       0.1604959 0.011330487 0.08807803 0.35502717
0000a0 56 51 7e 3e e6 e4 af be ca 90 47 3e d0 e4 01 3e
       0.24835715 -0.34354323 0.19488826 0.12684941
0000b0 e1 1e 65 bc cf e7 a7 3b d2 b6 17 3d 61 d1 a2 bd
       -0.013984413 0.0051240693 0.037039585 -0.07950092
0000c0 80 50 92 bd 09 a1 0b be 41 2c 01 be d4 0c 4c bc
       -0.071442604 -0.13635649 -0.12614538 -0.01245423
0000d0 b1 25 95 bc 42 13 1a 3c b8 ad fb 3d a1 47 77 bd
       -0.01820645 0.0094040055 0.122889936 -0.060371045
0000e0 88 f9 a0 bd 19 51 66 bf fb d2 3f bd aa 5d b5 be
       -0.07860094 -0.89967495 -0.046832066 -0.35423023
0000f0 83 0d 83 be 3f 90 18 bf 3c 36 c0 be e5 f9 f6 bc
       -0.25596246 -0.595951 -0.37541378 -0.030148456
000100 cf 04 a8 bd 68 bb 3c bb a1 56 b9 bc 50 fa 84 bc
       -0.08204042 -0.0028798226 -0.022624316 -0.01623264
000110 3f 02 f1 3c 40 0e 97 3d 26 4a 9d bd d8 81 b2 3a
       0.029420016 0.07375765 -0.07680158 0.0013619019
000120 ed bb 68 bc ba 8a 31 bc d8 5a 17 be 6a 02 df 3d
       -0.014204961 -0.010836298 -0.14780748 0.10889132
000130 3a 37 df 3b 52 eb 72 be 36 c9 c1 bc 05 37 bb 3d
       0.0068120034 -0.2372258 -0.023655515 0.091413535
000140 28 ca a3 3d 89 1e 8a 3d 37 1c d8 bc 90 42 36 bd
       0.079975426 0.06744105 -0.026380641 -0.044497073
000150 02 03 e3 bd 02 03 a3 bc 62 60 01 3d 8a bc 57 3d
       -0.11084558 -0.019898895 0.03158606 0.05267004
000160 34 d1 8b 3e 14 b9 66 bd bb e3 8f be b6 8a 10 bf
       0.27308047 -0.056328848 -0.28103432 -0.56461656
000170 92 33 09 bf a9 77 19 3e a2 9a 05 bd 64 c7 c4 3d
       -0.53594315 0.14987053 -0.032618172 0.09608343
000180 27 f8 e1 bd cc 80 2e 3c 43 b3 20 3d 97 c3 25 3f
       -0.110336594 0.010650825 0.039233457 0.6475157
000190 7f a9 7d bd 80 8b 76 bf c7 9d a7 be 21 30 ac be
       -0.061929222 -0.9630661 -0.32737562 -0.3363047
0001a0 19 00 21 3e 6f 90 7e be 5e 38 b7 be 81 11 d6 be
       0.15722694 -0.24859785 -0.35785192 -0.4181023
0001b0 cd d6 eb 3d 4c f0 a0 3c ba ef 89 be e8 04 20 3e
       0.115155794 0.019645832 -0.2694071 0.15626872
0001c0 06 a9 fa bb 5d 4d 83 3e 75 5b 8e 3e 39 61 09 3b
       -0.0076495437 0.2564496 0.2780415 0.002096249
0001d0 b1 f6 bd 3d a8 35 e4 bd d5 79 bf 3d 0f dc f4 3d
       0.09275568 -0.111430466 0.093494095 0.11956035
0001e0 e2 f9 da bd 75 d3 03 3f 22 f0 c9 3e 5a 77 a0 3e
       -0.106921926 0.5149453 0.3944102 0.31341058
0001f0 f4 3b 2f be 20 35 98 be 38 89 e7 bd cd 43 a0 3e
       -0.17112714 -0.2972803 -0.11305469 0.31301728
000200 bd fe a3 3e 2e ab 82 be 3c 3f 9d 3d 13 14 d8 3d
       0.32030287 -0.25521225 0.076780766 0.10550704
000210 c8 78 10 3f 29 11 21 3f 85 89 95 bf 75 e8 72 be
       0.564343 0.6291681 -1.1682593 -0.23721488
000220 45 31 24 bf ae d4 e0 bd e0 c5 07 3e 1f 0b 59 3d
       -0.6413768 -0.109780654 0.13259077 0.05298912
000230 3c 34 bf be a2 d6 8c 3d eb 19 1d be 4b 2c 5b 3f
       -0.3734454 0.068768755 -0.15341918 0.8561446
000240 f2 1d 8d 3e c8 68 5d bf 75 2a e3 be 4a b0 1a bf
       0.2756191 -0.8648801 -0.4436833 -0.60425246
000250 3f e2 76 3d 92 7a 50 bd 66 9a f4 bd 13 3b 1d 39
       0.06027436 -0.050898142 -0.11943512 0.00014994694
000260 92 a7 ba 3c c5 64 f4 bd 7a b0 cc be a8 0e 9e 3d
       0.022784982 -0.11933283 -0.3997839 0.07717639
000270 90 59 d7 3c 76 42 04 3e d0 68 ba 3e 78 4f 95 3d
       0.026287824 0.12915978 0.3640809 0.07290548
000280 69 1d 33 3c e0 be 4d be 5c 4b f6 bd 08 c0 eb bd
       0.010932305 -0.20092344 -0.120260924 -0.115112364
000290 a0 a7 eb 3d ef 2b b9 3e aa 25 61 be 9b 0d 40 bc
       0.11506581 0.3616633 -0.21987024 -0.011721994
0002a0 af 75 b7 be 7f 4c 29 be b6 c9 cc bd 09 b3 6f 3d
       -0.35831973 -0.16533087 -0.09999411 0.05852035
0002b0 5c b3 ab 3d a5 83 3e 3c 07 04 9a bd c3 92 0d 3e
       0.083838195 0.011628066 -0.075202994 0.13825516
0002c0 6d d1 14 3f c5 e5 99 3e b6 98 54 bf a7 a1 1b be
       0.5813206 0.30058113 -0.8304552 -0.15198384
0002d0 52 b7 fa be a7 82 e5 bc f3 8f 19 3e 2d 15 cf bc
       -0.48967987 -0.028016401 0.14996319 -0.025278652
0002e0 32 de 94 be 53 d7 9b bd 9f 5e 73 b9 33 a8 eb 3e
       -0.29075772 -0.07609429 -0.00023209535 0.46026763
0002f0 36 f0 b0 3e 21 94 80 bf b3 a2 d5 be 27 17 38 bf
       0.34558266 -1.0045205 -0.41725692 -0.7191033
000300 a8 1b 38 3d 91 e3 3d 3d 2a d7 2b be b3 76 b7 bc
       0.04494825 0.046359602 -0.16781297 -0.022395467
000310 2c ee 94 3c 63 a2 30 bd be f3 d6 bc 19 ef 56 3d
       0.018179975 -0.043123614 -0.026239272 0.052474115
000320 2c 98 8c 3e a3 4e 69 be b3 8c 89 bd d0 ab f8 bd
       0.27459848 -0.22783904 -0.06716289 -0.12142146
000330 59 7f 82 3c 1e 9b 09 3e f6 7a a4 be 33 7a 44 bd
       0.015929865 0.13438079 -0.32125062 -0.0479681
000340 32 8d f5 3d 82 6e d9 3e ab 35 45 bb ab d7 8e bf
       0.119898215 0.42467123 -0.0030091803 -1.1159567
000350 ac b8 a5 bc c1 42 a0 be 67 fe 7b bd d2 2f 00 bf
       -0.02022966 -0.3130093 -0.061521914 -0.5007297
000360 22 fe d0 be f7 52 f8 3c bf 81 09 be 54 46 c6 3d
       -0.40818888 0.030312998 -0.134284 0.09681383
000370 87 e7 c4 bd 65 70 15 3e 33 77 d9 3c ad ad 1f be
       -0.09614473 0.14593656 0.026546096 -0.15593596
000380 2f 22 2e be 3b 96 a9 3d c9 f3 47 3d 5c c1 19 bd
       -0.17005228 0.08280607 0.048816476 -0.037537917
000390 f7 15 1c bc 9f 92 b9 3b c8 9c 58 3d 9d 55 32 3d
       -0.009526721 0.0056632305 0.052883893 0.04353868
0003a0 8b 8b b6 3e f0 b6 27 3f 3c 40 fb bd 18 41 dc bd
       0.35653338 0.65513515 -0.12268111 -0.10754603
0003b0 c5 a9 b0 3b 9b 78 7a 3e ef 88 d4 3e d4 99 0b 3e
       0.005391332 0.2446007 0.41510722 0.136329
0003c0 00 22 9d 3d 73 37 ec 3c cb 4e a0 3e b6 2f 78 bd
       0.076725006 0.028835034 0.31310114 -0.060592376
0003d0 f4 3e 5d bf 15 ea 30 be 6b 54 85 be 85 1a 8d bd
       -0.86424184 -0.17276795 -0.26040968 -0.06889824
0003e0 91 8f e4 be fb 74 9d be 85 fd 53 3d 12 d9 49 3d
       -0.44640782 -0.30753312 0.051755447 0.04927928
0003f0 67 cb 3e 3d 59 09 27 3e e0 31 d9 bc 8c 4b 0e bf
       0.0465807 0.1631216 -0.02651304 -0.55584025

fc1.bias f4 [100]
000000 c3 ba 72 3e 25 7c d6 be 86 7c 20 3e 27 81 4d 3e
       0.23704056 -0.4189159 0.15672502 0.20068799
000010 74 7a 4d be 19 ef e8 bd b2 d7 76 3b 89 b3 6a 3e
       -0.20066243 -0.11373729 0.0037665186 0.2292005
000020 34 eb 2f bf 61 11 aa be 92 d6 74 3e 6a f4 f7 bc
       -0.68718266 -0.33216384 0.23909977 -0.030267913
000030 45 c2 44 be a2 bf 5e 3d 27 fe 29 3e cf df f1 be
       -0.19214733 0.054381974 0.16600858 -0.47241065
000040 bd 26 a7 be a8 ff 08 bf 1b a1 de be bf 81 bb be
       -0.32646742 -0.535151 -0.4348229 -0.36622426
000050 75 f5 8e be 3d bc bc bd a0 a4 ce bd 55 0d 74 be
       -0.27921644 -0.09215591 -0.100899935 -0.23833211
000060 28 0e 2c be 69 c5 7b be a4 c1 21 be 55 ad 85 bc
       -0.16802275 -0.24587025 -0.15796524 -0.016318003
000070 94 e9 20 be e1 78 84 be c0 1a 62 be 2d 68 db bd
       -0.15714103 -0.25873473 -0.22080517 -0.10713229
000080 3b c7 1f 3d 24 4e 21 be 83 76 bd 3d d7 d3 26 3d
       0.03900836 -0.15752465 0.0925112 0.04072937
000090 24 07 dd 3d 01 a8 e9 3d 3a dd b1 be 00 17 a0 bd
       0.107923776 0.11408997 -0.34739095 -0.07816887
0000a0 5d 08 e2 be b4 cc b8 3e e4 ce be be d2 c1 17 3b
       -0.44147006 0.36093676 -0.3726722 0.0023156297
0000b0 d7 0b 26 be e1 b2 ee be 3d 17 c8 bd 06 15 b3 3d
       -0.16215454 -0.4662085 -0.09770057 0.08744244
0000c0 f7 e5 89 3e a9 c5 0d 3d c8 a8 5b be 5f b8 15 be
       0.26933262 0.03461233 -0.21451104 -0.14621113
0000d0 7f 29 02 3e 99 e8 ee bd 04 6b dd bd d5 d9 9d be
       0.12711142 -0.11665458 -0.10811427 -0.30830255
0000e0 da 21 b3 be 14 61 00 bf 25 ff 52 3e 0b 42 9e be
       -0.34986764 -0.5014813 0.20605142 -0.30909762
0000f0 77 4a ca be cd 9b c0 be 88 7d 10 3e 28 05 07 be
       -0.39509937 -0.37618867 0.14110386 -0.1318556
000100 76 0c 5d bd 47 93 8c bd 84 a0 53 bc fd cf 65 3e
       -0.05396696 -0.068640284 -0.012916688 0.22442622
000110 ee 08 85 bd d4 ed 92 bd ef 55 2a be e3 65 1d be
       -0.06495844 -0.07174268 -0.16634344 -0.15370898
000120 8c c3 8b bd 45 a3 3b be 24 1a 54 be fc e7 05 be
       -0.06824407 -0.18324001 -0.20713097 -0.13076776
000130 ef 9e 0d be 37 e0 11 bd cd 5c e9 bd ba bc 58 bd
       -0.1383016 -0.03561422 -0.113946535 -0.05291436
000140 85 c7 aa be 01 f4 0b 3e 90 cc 33 bd d3 1f e8 3d
       -0.33355346 0.13667299 -0.043896258 0.11334195
000150 2d 22 89 be 67 e0 3c 3d 84 29 9f be ca 07 04 3e
       -0.26783887 0.046112444 -0.3108636 0.12893596
000160 63 f5 97 be 3f bc 71 be 80 18 94 bd 33 6c 65 be
       -0.29679403 -0.23606966 -0.072312355 -0.22404556
000170 be 6e ea 3d 5c 67 9f 3d f1 cf cd bb 28 07 d0 be
       0.11446904 0.07783386 -0.006280892 -0.4063046
000180 9a 44 c3 be 47 9b 78 3e 94 b1 90 3d 74 46 3e 3e
       -0.38138276 0.24277984 0.0706512 0.18581563

out.weight f4 [1, 100]
000000 d9 4e 24 3e 24 69 35 bf a2 5c bd bd d0 fa 8f be
       0.16045703 -0.70863557 -0.09246184 -0.28121042
000010 6c cb 06 3e 22 56 1e bf 6c a8 82 b8 be a7 2d 3d
       0.13163537 -0.6185018 -6.230254e-05 0.0423963
000020 14 65 90 3d a6 48 0c bf ec 09 18 3e 98 90 de bd
       0.07050529 -0.5479835 0.14847535 -0.10867423
000030 a4 a5 5f be 08 c0 d4 be 6e 28 03 3e bd 07 15 bd
       -0.2184053 -0.41552758 0.12808391 -0.036384333
000040 62 0f a1 be 37 a7 79 be 81 57 6b bd 6a 4d 37 bf
       -0.3145705 -0.24380194 -0.057456497 -0.716025
000050 f5 9b 71 3c 6a 90 4c be 83 7f 18 bf 65 db a8 be
       0.014746656 -0.19976965 -0.5956957 -0.32979885
000060 1b ff 43 bf 30 46 b2 be c0 d3 96 be de 62 87 be
       -0.76561135 -0.34819174 -0.29458427 -0.26442617
000070 43 36 83 bf af 10 a3 bd a3 a7 d5 3d 99 10 1e be
       -1.0250934 -0.079621665 0.10432365 -0.15436019
000080 b5 ef 6b be 27 ca 8f be ff d1 da be 94 4a 2e bb
       -0.2304066 -0.28083917 -0.4273834 -0.0026594745
000090 49 71 98 bb 71 eb 53 3e 05 8e 28 bf c7 23 01 bc
       -0.0046521765 0.20695283 -0.65841705 -0.007882065
0000a0 9d 3a 77 be fa d7 ae 3d 03 9e 08 be 86 3d 37 bd
       -0.24143453 0.08537288 -0.13341527 -0.044736408
0000b0 08 07 6d bb 0a ae 0d bd 02 8e e6 3c 00 9b 73 3d
       -0.003616752 -0.034589805 0.028143886 0.05947399
0000c0 fc 7a 6e 3c b9 d5 32 3a 51 c5 e5 be 15 95 09 3e
       0.014555689 0.0006822008 -0.44877103 0.13435777
0000d0 dc d8 c8 3d df da c5 bc c6 2c c1 bd 10 8a 52 3d
       0.09806988 -0.024152217 -0.09432368 0.051401198
0000e0 a6 90 b7 3d bf 04 17 bd 03 d4 fd bd c3 ba 2c bd
       0.089631364 -0.03686976 -0.12393954 -0.042170297
0000f0 c5 76 5d 3b 77 9f 14 be 46 2d e7 3d 54 08 80 3c
       0.0033792716 -0.14513956 0.11287932 0.015628971
000100 23 1f ac 3d f2 4f 28 3d c1 d4 23 bd 45 b5 c7 3d
       0.08404376 0.041091867 -0.03999782 0.09751371
000110 fd c9 78 3d f0 e2 7f 3d 7e f4 a9 be 30 1e a4 bd
       0.060739506 0.062472284 -0.33194345 -0.0801357
000120 5e 3a 32 bc 95 25 dd be 79 67 15 bd f7 74 ee bd
       -0.010878174 -0.43192735 -0.036475632 -0.11643403
000130 ce e5 ea 3c 19 9b 6b bf b6 9b 1f bd a4 42 ad 3d
       0.028674033 -0.92033535 -0.038966857 0.08459976
000140 6c 1d 5c be b7 36 e9 be d6 47 d5 bd 2f 01 d4 bd
       -0.21495599 -0.45549557 -0.10414092 -0.10351788
000150 14 2d 1f bd 83 c4 0b 3e c9 03 32 be ce 25 61 be
       -0.03886135 0.13649182 -0.17384256 -0.21987078
000160 be 53 f9 bc fd 0c 45 bd 37 97 de 3c 18 3f 94 bb
       -0.03043544 -0.04810809 0.027171714 -0.004524123
000170 1c 6f 12 3d ff b5 7d be 0b 5b b7 be 82 75 aa be
       0.035750493 -0.24776457 -0.35811648 -0.33292776
000180 a8 5d b8 bd cc af e3 3d 82 30 4e 3c a1 05 29 3d
       -0.090022385 0.11117515 0.012584807 0.041265134
