models2/Ant-v2/MaxDisSample/Dagger_935.pth (torch, 49503 bytes, 4 tensors)

fc1.weight f4 [100, 111]
00000000: a377 32bd 4bd6 fbbc 4455 643d 6412 a63d
00000010: 7183 9f3d ae44 5fbc 1acb 3a3e b936 7abc
00000020: 9575 32bd a2b5 4a3d dd2d 203d 3c3a 793d
00000030: aa67 32be 355f da3c 63f6 f73c 4e9a f0bd
00000040: c103 50bd be49 b63c 59c3 053e 25ea d4bd
00000050: e7b8 8f3a f032 cdbd 013b 583d d240 e7bd
00000060: 35df 19bc 7d1b c7bd f376 0abd 3b2e 773d
00000070: e332 923d b90e afbd e2a9 803b 8db8 af3c
00000080: 1b7b b43d 93b2 b13d dd27 823d c856 ca3c
00000090: 6723 e33d 1d6a 19be ef4d 3fbe 8846 bdbd
000000a0: 1fef 05bd 28b5 f83d a0aa d6bd 6e42 173d
000000b0: 64ac c53d e13f 1bbb 93e8 953d 4c5c 92bd
000000c0: 987b 70bd f533 913d 4221 a03d 7267 9a3d
000000d0: 57ba e83d f426 46bc 57c2 6bbe b557 65bd
000000e0: 5b6b cabc b814 4b3d 82f5 77bd f7c6 bebc
000000f0: b896 323e 73ef adbc 6bdd 903d 87cc 91be
00000100: eb1c aabd 305b 863d 643f 47bd 4e6e b2bd
00000110: 51ba 3a3d 992c 433b 1887 54be 272c 9cbb
00000120: dc74 823b c02e 07be d8c0 bb3d b4d5 b3bc
00000130: 9304 b03d 981f a6bd 8df1 f83d 475c a0bc
00000140: a066 cd3d cbed caba 4732 58be 671f 30be
00000150: 77fb 4c3d 508a f63b 7c51 b4bb d067 d7bd
00000160: 0a61 553d a2fe dbbd 9558 bcbd df44 80bd
00000170: 146c 423e cf9a 143c 68c5 86bd 30e4 27bd
00000180: 07c2 313e 19ae c5bd b7f0 11bd 928a b0bd
00000190: 20c5 90be abce e13b f609 bd3c 7791 2abd
000001a0: 2ae7 123e e090 e1bc 9a15 df3d bb54 81bd
000001b0: 0a38 e6bd a53b 2fbd 2207 76be 9838 813c
000001c0: 51d7 3bbe 1458 34bd 55a9 08bd b3e4 7c3e
000001d0: 8e25 c33a 2ca2 a03c 3ef7 b13d 8ea9 3fbd
000001e0: fb41 25be 4984 3c3e a4bb d3bd 2e2a d7bd
000001f0: c6b3 b63d 2eed d7bd 2af5 483e e500 e5bc
00000200: cbb8 323e b09a 373e 06d7 06bd 2ad1 e23c
00000210: 2c64 c2bc 0ac1 503b cd10 95bb 04a5 22bd
00000220: fcab ee3b cef9 92bd 5a9f 53bd 9773 983d
00000230: 6517 303e 9007 223d 5a95 7d3d 6d5a 6d3c
00000240: 972c 893d f7ef 06be 37ef c93d 2f6e 3c3d
00000250: d87d 61bd 4c5d be3d 3d84 8ab8 5bf9 cbbc
00000260: 27af c13c e2f3 46be ca79 20be 50ed f2bc
00000270: ea3b 97bd 1f58 d03d 01f0 203e 9b34 86bd
00000280: 4ddd 99bd 0aed afbc cca4 2f3d 2691 34bd
00000290: 8f86 ac3d 4f13 11be 6b86 e03d 22c7 5e3d
000002a0: 5400 85b9 3266 633e fee1 9cbd 4752 ce3c
000002b0: 6b00 df3c 6ad2 74bc b3dd ebbd 14e4 183e
000002c0: a62c cc3d 0ea1 30bd f216 dbbd cf4a a2bd
000002d0: 0319 96bd 86f1 b7bd f383 b83c 4026 ba3c
000002e0: 3181 2abe 4ae0 46bd 58cf d5bd 6b8b 8b3d
000002f0: 31d7 87bd c73e 0cbd b257 67bd 9c6e 363d
00000300: b50b dabd 85da 253c 449f 90b9 1c7b 17bd
00000310: be60 b3bc 7a0b 683c 422a 72bd bed8 9c3d
00000320: aec7 043e 93d2 7ebd 93b6 d3bd 97e3 e63d
00000330: e70b 0ebd 3868 ee3d fa83 eabd 0e95 3f3d
00000340: 6d1b 50bd 75f2 ae3d e21f 58bd 4dd3 7cbc
00000350: 4a52 93bc 59f5 49bc 1a81 50bc c0cf a8bc
00000360: c1fb 8dbd 7679 a93d 8ba4 6abd af34 153e
00000370: d781 013c a5e5 bb3c 062c 183e 100e 2cbd
00000380: 536e 5d3c b15a cebd 7f48 993c 372a 3ebc
00000390: 1f11 03bd 5343 3ebe 8833 0ebe 0080 19be
000003a0: ff3a 28be e8f8 6fbe 52b3 c1bc 4ccf 0a3e
000003b0: e2db b9bd f44d d63d 0170 5a3e 6be9 cebd
000003c0: 5745 1bbc f994 83bd 90dd babc 3718 3fbd
000003d0: 4f4f 4f3d bb3e 5b3d afba 82bc 77e1 f0bd
000003e0: 6a71 023e ef0e 053c eeee 11be 2fd1 2bbe
000003f0: cb8e 793d ffc6 013e c665 1a3e 732a ec3c
-0.043571126 -0.030741831 0.055745378 0.081089765 0.07788742 -0.013627214 0.1824154 -0.015271836
-0.043569166 0.049489625 0.03910624 0.060846552 -0.17422357 0.026656726 0.030268854 -0.11748181
-0.05078483 0.02225196 0.130628 -0.10396222 0.0010965139 -0.10019481 0.052790646 -0.1129166
-0.009391596 -0.0972204 -0.033804845 0.060346823 0.07138612 -0.0854773 0.0039265016 0.021450305
0.08812543 0.086766385 0.063552596 0.024699584 0.11090737 -0.14981885 -0.18682073 -0.092419684
-0.032698747 0.12143928 -0.10481763 0.036928587 0.096520215 -0.0023689198 0.07319751 -0.071465105
-0.05871162 0.07089988 0.078188434 0.07539262 0.113636665 -0.012094248 -0.23023354 -0.055991847
-0.024709394 0.049580306 -0.06053687 -0.023288233 0.17440307 -0.021232342 0.07073482 -0.28476354
-0.08306297 0.065603614 -0.04864444 -0.08712445 0.04558784 0.002978122 -0.20754659 -0.0047660056
0.003981216 -0.13201427 0.091676414 -0.021952488 0.085946225 -0.08111495 0.12155447 -0.019575251
0.1002934 -0.0015482245 -0.2111293 -0.17199479 0.050044503 0.0075238124 -0.0055028778 -0.105178475
0.052094497 -0.10741927 -0.09196583 -0.06263136 0.18986541 0.009070112 -0.06580621 -0.0409891
0.17359172 -0.09652347 -0.035629954 -0.0862018 -0.28275394 0.006891092 0.023076039 -0.041642632
0.14345995 -0.027534902 0.10892792 -0.06314989 -0.11241157 -0.04278149 -0.24026158 0.015774056
-0.18343855 -0.04402931 -0.033364613 0.24696617 0.0014888512 0.01960858 0.08689736 -0.04679256
-0.16138451 0.18409838 -0.10338524 -0.10506092 0.08921008 -0.10543285 0.19624773 -0.027954528
0.17453305 0.17930102 -0.032919906 0.027687628 -0.023729406 0.0031853341 -0.004549122 -0.039708152
0.0072836857 -0.07176553 -0.05166564 0.07443922 0.17196424 0.039557993 0.06191001 0.014486891
0.06697958 -0.13177477 0.0986008 0.046003517 -0.055051655 0.09295139 -6.604984e-05 -0.024899175
0.02364309 -0.19428971 -0.15671459 -0.029654175 -0.073844746 0.10173058 0.15716554 -0.065530024
-0.07512913 -0.021475334 0.042881772 -0.044083737 0.084241025 -0.14167522 0.10963138 0.054389127
-0.0002536798 0.22206953 -0.07660292 0.025185717 0.027221879 -0.014942745 -0.11516895 0.14930755
0.099694535 -0.043122344 -0.10697736 -0.07924425 -0.07328989 -0.08981614 0.022523856 0.022723317
-0.16650845 -0.048553742 -0.10439938 0.06813701 -0.066328414 -0.034239557 -0.056480117 0.04453908
-0.10646764 0.0101229 -0.00027584482 -0.03698264 -0.021896716 0.0141628925 -0.05912233 0.07658528
0.12966797 -0.062212538 -0.10337558 0.11273878 -0.03467932 0.11640972 -0.11450954 0.04677301
-0.050807405 0.08542339 -0.05276478 -0.015431237 -0.017983574 -0.012326562 -0.012726093 -0.020606875
-0.06932784 0.0827512 -0.057285827 0.14570878 0.007904491 0.022936651 0.14860544 -0.0420056
0.013515073 -0.10075892 0.018711327 -0.0116067445 -0.03199875 -0.1858037 -0.13886845 -0.14990234
-0.16428755 -0.23434794 -0.023645077 0.1355564 -0.090751424 0.10464087 0.21331789 -0.10103115
-0.009476981 -0.06424899 -0.022810727 -0.046653952 0.050612744 0.05352662 -0.015958158 -0.11761754
0.12738577 0.008121236 -0.142513 -0.16779016 0.060927194 0.12673567 0.15077886 0.028828835

fc1.bias f4 [100]
00000000: 2e34 cbbd e8a0 05be fba2 e43c df85 55bd
00000010: 635c c8bd 8e4c 9b3c ab7b 95bd c3c8 a5ba
00000020: e2e6 093c 155f 913d e682 d8bd d197 9fbd
00000030: b498 4e3c e29c 56bd 725c 2dbd 2cf4 4fbc
00000040: aa36 dd3d 7fef b6bd 4ac5 90bd 2e06 8fbd
00000050: e0cc 013e 364e 50bd 678d 823d 6a81 dd3d
00000060: 6f47 e83b 8554 40bc d467 213c 7831 473d
00000070: 7bc1 48bc 2dfa 9f3d 5398 c93d a0a5 96bc
00000080: c9b1 dabd a6bd 1cbd da0a 99bd 8b76 20bd
00000090: d429 6a3b e4d0 c8bd 293e 383b 965f 0dbd
000000a0: 0e6d 5abc c431 58bd ab2a 9ebd d643 f6bc
000000b0: 7011 a33d 5059 b93c e486 be3b 601b f63c
000000c0: 93ed 343d 3eee 933c 823d 443c 4089 3d3d
000000d0: 8fab ddbd 26cd d33c 3393 233d 166e 1b3d
000000e0: d3e7 613d 9f13 ddbd 5c44 31bd 727d 24bd
000000f0: 8816 02bd 7818 103e e77f b0bc ce3b 0fbd
00000100: 38a9 bb3d 4b2e 8c3d ac88 9fbd 3f35 a5bd
00000110: 0537 803d 3c59 2fbd 3625 f4bd dbf4 dabc
00000120: 68c2 5a3b ece8 05be 21e7 773d f6bc a6bc
00000130: 732f 19bd 16ca 903c 8b6a debb 7904 ad3d
00000140: 6ad8 203c c1f5 713d 9f74 ed3c 6294 fdbd
00000150: f57d 6f3d 0c7e 5b3d ffe2 d5bd b921 65bd
00000160: 6d1b 843c d831 cf3d 3b6a 193e 52cb 773d
00000170: 6fda aabd 69f1 90bd 806b 353d 33b9 53bd
00000180: d637 81bd 3065 d63c 69f6 27bd 8176 823d
-0.09922062 -0.13049662 0.027909746 -0.052129623 -0.09783246 0.018957403 -0.072989784 -0.0012648333
0.008416863 0.070982136 -0.10571842 -0.077926286 0.012609649 -0.05239571 -0.04232449 -0.012692492
0.10801442 -0.08932399 -0.0706888 -0.069836006 0.1267581 -0.050855838 0.063746266 0.108156994
0.0070885937 -0.011738901 0.009851415 0.04863116 -0.012253161 0.07811389 0.09843507 -0.018389523
-0.10678441 -0.0382668 -0.07472773 -0.03917555 0.0035730498 -0.09805468 0.0028113222 -0.034514986
-0.013331665 -0.052781835 -0.07722982 -0.030061644 0.0796231 0.022625595 0.00581442 0.03004235
0.04417188 0.018057939 0.011977555 0.04627347 -0.10823738 0.025854658 0.039935302 0.037946783
0.055152725 -0.10794758 -0.043278083 -0.040158696 -0.03175977 0.14071834 -0.021545364 -0.034969144
0.09163135 0.06844767 -0.0778974 -0.080667965 0.06260494 -0.04280971 -0.1192116 -0.026728084
0.0033380035 -0.13077134 0.060523156 -0.020353775 -0.037398767 0.017674487 -0.0067876033 0.08448119
0.009817222 0.05907226 0.028986273 -0.123818174 0.05846973 0.053587005 -0.10443687 -0.055940364
0.016126359 0.10116929 0.1498193 0.060496636 -0.08342444 -0.07077295 0.044291973 -0.05169029
-0.06309478 0.026171297 -0.04100648 0.06370259

out.weight f4 [8, 100]
00000000: cae0 6dbd 1362 bfbd 78d9 6c3e 1b6f a43d
00000010: 2357 febd a1bb 493d c0ab 2a3c 9a52 79bd
00000020: e92b 96bd 1001 043e 656c 12be ad12 a33c
00000030: 1c95 713d 57de 853d a2b4 393d 4f1f afbd
00000040: c15c c2bc cc41 7dbe d4c5 4fbc d0a5 87bd
00000050: 0e68 6fbd a6c4 503b 3244 fd3d 9ba0 36bc
00000060: 158f d7bc c5f8 f6bd a300 71bc fca2 a93b
00000070: f36b 27bc e942 153d 7a79 0ebd a1ed 6abd
00000080: fefa 30bd 2cb1 38bd c233 b23d 145b 9abd
00000090: 7b47 bd3d a7d4 743a 6d47 aa3b 1594 debc
000000a0: 6396 7dbd f53b b2bd 5278 a23c 363a 983d
000000b0: d31d 8a3d 01ed 883e e1a8 82bc c612 82bd
000000c0: e14a be3d f4aa 6c3d f801 873d d52e b53c
000000d0: 1a9a 2c3e 4dc4 aabd fcab dcbc 9515 a0bd
000000e0: 1cf8 a53d b0ec c13d 88b5 6d3d 4f42 62bd
000000f0: 4c8a 803d 5c5f 75bd 2f5f 1abd 8cba 903d
00000100: 8298 ad3d d664 5ebd 34ec 383e 7efd 48be
00000110: fda8 48bd f7a3 8abd 7a0d 083e 7516 2abd
00000120: c772 493d 8180 273d 6392 bebd 1696 203d
00000130: 90bb 00bd e871 06be d37a 8bbd d650 4abd
00000140: c176 bd3d 8714 01be 5f7a d6bd 17ef babd
00000150: 1dc1 44bd 3ed2 e13b 920f 78bc e8a4 a3bc
00000160: e99d 60be 159a 81bd 72b4 30be 257e 0cbd
00000170: ce6d 40be 975a 543c 2c9f 863d ce20 363d
00000180: 4b51 61be 6b76 07bc 04ae 58bd 99fd 853c
00000190: 1805 313d c450 273e 3569 923d 9040 24bd
000001a0: c6f5 9bbd e350 073d 7a6f 6b3d 4074 0fbc
000001b0: 1553 b6bc fe61 5abe aa93 a83d c3ca c93d
000001c0: 03e9 923c e555 6d3c 3823 02be 487d 1fbd
000001d0: 9683 16be fb50 42bc 0363 263e 54e0 003d
000001e0: a6a3 6dbd 5cd2 60bd 4e87 aabb feea d83c
000001f0: eeeb ebbd 202e f5bb 0f3f 4bbd 00e6 d6bd
00000200: 0cbe 1fbd bb3d 5bbc 444d dcbd 3de8 0f3e
00000210: ecac 83be 7353 6e3d 5a46 ae3d 5990 c83d
00000220: c75b 193e c3d1 6d3c c6ac 2bbe 63bf f83d
00000230: 13d7 863e 4c63 73bc 9936 8e3d 0ad5 f43d
00000240: ef7d 5cbd 76c5 6abd b3fd 03be caf0 9fbd
00000250: 2628 1c3d fb9c a0bd ad87 a53d 3b36 82bd
00000260: b5b2 85bd c6c0 16be b2ae 59be bb38 8b3d
00000270: 0e51 a53b eecf 753d 3da0 f7bd d7db 9c3b
00000280: 6b38 103d fe42 ddbd 69da a4bd 6a2f c0bb
00000290: 909e 0e3e af6d e93c a58d c5bd 88f3 4b3e
000002a0: 2abf 90bd 446e 59bd c2ce bb3d 2ad6 98bd
000002b0: 7006 353e 3ea1 a7bc 1692 0bbe 04ed c73d
000002c0: 4f78 083d b8bc 9b3d e899 e3bb 4ec1 a83d
000002d0: 8146 c03d 00e3 fd3c 2f6d a63c a0ac c73d
000002e0: 9a59 d43b 44fa 14bd ade2 d13c ede7 6d3c
000002f0: 4651 6dbd 04dc a2bd c1c1 46bb 50a1 4dbd
00000300: 2f93 9f3d eb59 243e 1a2c 963e 1641 edbb
00000310: 85a2 0f3e d4a4 3b3d 455a 033d 1f67 23be
00000320: c3d6 8dbd af03 213e a53f a1bd f719 0cbc
00000330: 117f 22bc 1ce9 8e3d 63a6 5ebe 6ad1 373c
00000340: 7afd 7c3d 2f9f 8b3d 094c d0bd 051c 543e
00000350: 078c c6bc d098 03bc 8f9e 4a3d 1e02 fc3d
00000360: e040 c63d dac6 863d 6a1f 063c 3c5e 343e
00000370: 0c68 a0bc 8f42 dd3c 822c c43d dda6 ce3b
00000380: d56c d63d ad0c 2dbd 5715 0bbd 973d 56bc
00000390: a143 3bbd e3c7 6f3d 0c18 6d3d e34f 54bd
000003a0: 188d 0dbe 3586 f5bd b127 193d 512a a73b
000003b0: 67bc 213d 4963 2a3e 6380 96bd 7f3f 593e
000003c0: ed55 01be facb 2e3e 3c1b 9ebd df5a 1abe
000003d0: 3b0a 13be a725 61bd 9bb4 643d 859d 96bd
000003e0: 95e7 20bd a69a 35be 5aeb 7f3d 002e 9abd
000003f0: ec17 88bc 49b6 adbc 83e9 553d cfb0 37bd
-0.058075704 -0.09344878 0.23129833 0.08029004 -0.12418964 0.049251202 0.010416925 -0.06086979
-0.07332594 0.1289103 -0.14299162 0.019906366 0.058980092 0.065365486 0.04533828 -0.085508935
-0.02372587 -0.24732131 -0.012681443 -0.06623423 -0.058448844 0.0031855493 0.12366523 -0.01114669
-0.026313344 -0.12059168 -0.014709624 0.0051769 -0.010218608 0.036440764 -0.034783818 -0.057355527
-0.043208115 -0.04509084 0.08701278 -0.07536903 0.092421494 0.0009339549 0.005196503 -0.02717022
-0.061910998 -0.08702842 0.019832764 0.07432978 0.0674397 0.2674332 -0.015949668 -0.06351237
0.09291626 0.05778022 0.065921724 0.022117058 0.1685566 -0.08338223 -0.026937477 -0.078166164
0.08103964 0.09468973 0.05803445 -0.055239018 0.06276378 -0.059905395 -0.03768843 0.07066831
0.08476354 -0.054295383 0.18058854 -0.1962795 -0.048989285 -0.06769555 0.13286391 -0.041525323
0.049181726 0.040894035 -0.09305265 0.039205633 -0.031428874 -0.1312939 -0.06810536 -0.049393497
0.09251166 -0.12605487 -0.10472559 -0.09127634 -0.04803573 0.006891518 -0.015140431 -0.019976094
-0.21935238 -0.06328217 -0.17256334 -0.03429999 -0.18791887 0.012961051 0.065733284 0.04446488
-0.22003667 -0.008267979 -0.05290033 0.016356276 0.04321775 0.16339403 0.07148973 -0.040100634
-0.07615237 0.033036124 0.05747936 -0.0087557435 -0.022256413 -0.21326444 0.0823129 0.09853127
0.017933374 0.014485811 -0.12708747 -0.038937837 -0.14698634 -0.011860128 0.16248707 0.031463936
-0.058017395 -0.054888114 -0.005204118 0.02647924 -0.115196094 -0.007482305 -0.049620684 -0.10493088
-0.038999602 -0.013381417 -0.10756925 0.14053436 -0.25717866 0.058185052 0.08509512 0.09793157
0.14976417 0.014515343 -0.16765127 0.12145879 0.26335964 -0.014855217 0.069440074 0.119546965
-0.053831037 -0.05731722 -0.12889747 -0.07809599 0.038124226 -0.07842442 0.08082519 -0.06358
-0.06528226 -0.14721975 -0.21258047 0.0679793 0.005045063 0.06001275 -0.1209111 0.004786949
0.035210054 -0.10803793 -0.08049471 -0.005865027 0.13927674 0.028494684 -0.09646157 0.19917119
-0.07067712 -0.053083673 0.09170295 -0.074627236 0.17678237 -0.020462628 -0.13629946 0.09762004
0.03331786 0.076043546 -0.0069458373 0.08239995 0.093884476 0.030992031 0.020315735 0.097497225
0.006480408 -0.036371484 0.025620783 0.014520627 -0.057938837 -0.07952121 -0.0030327889 -0.050202668
0.07791745 0.16049926 0.29330522 -0.007240425 0.1402684 0.04581149 0.03206851 -0.15957306
-0.06925728 0.15724061 -0.07873467 -0.008551112 -0.00991799 0.06978056 -0.21743159 0.011219362
0.06176517 0.06817471 -0.101707526 0.20713814 -0.024236692 -0.008032039 0.04946762 0.12305091
0.09680343 0.06580897 0.008186201 0.17614073 -0.019580863 0.027009277 0.09578802 0.0063065127
0.10469977 -0.042248417 -0.033955898 -0.013076208 -0.045718793 0.058540236 0.05788426 -0.051834
-0.13823354 -0.119884886 0.03739137 0.00510148 0.039486315 0.16639437 -0.073487066 0.21215628
-0.12630434 0.17069998 -0.07720038 -0.15073727 -0.14359371 -0.05496755 0.0558363 -0.07354263
-0.039283354 -0.17734775 0.062480308 -0.07528305 -0.01661297 -0.021205084 0.052224647 -0.044846352

out.bias f4 [8]
00000000: cfca 2abd dc8b 4b3d ef48 8a3d 144e a63d
00000010: e7ee 433c b7dc 09bd b077 943c 17d4 f83d
-0.04169732 0.049693927 0.06752192 0.08120361 0.011958814 -0.033657756 0.018123478 0.12149828
