models2/Ant-v2/MaxDisSample/Dagger_750.pth (torch, 49503 bytes, 4 tensors)

fc1.weight f4 [100, 111]
0	0xbd242e83	-0.04008342
1	0xbd042ea0	-0.032271028
2	0x3d3090e5	0.043106932
3	0x3da64b00	0.08119774
4	0x3d95604f	0.0729376
5	0xbb75bdf1	-0.0037497247
6	0x3e391739	0.18075265
7	0xbc369294	-0.011143345
8	0xbd38ad1d	-0.04508697
9	0x3d37ce34	0.044874385
10	0x3d17145e	0.036884658
11	0x3d6bb142	0.057542093
12	0xbe2b86d6	-0.16750655
13	0x3cb61d73	0.02223084
14	0x3d1d10e0	0.03834617
15	0xbdf34f5b	-0.1188037
16	0xbd69927e	-0.05702447
17	0x3caadcd7	0.020857258
18	0x3e0bca18	0.13651311
19	0xbdd74ffa	-0.10513301
20	0xba174366	-0.0005770236
21	0xbdc1b82e	-0.094589576
22	0x3d4eedba	0.050519682
23	0xbdf5ffcd	-0.12011681
24	0xbc3cb908	-0.011518724
25	0xbda23244	-0.07919744
26	0xbd039f94	-0.032134607
27	0x3d772e3b	0.060346823
28	0x3d9232e3	0.07138612
29	0xbdaf0eb9	-0.0854773
30	0x3b80a9e2	0.0039265016
31	0x3cafb88d	0.021450305
32	0x3db47b1b	0.08812543
33	0x3db1b293	0.086766385
34	0x3d8227dd	0.063552596
35	0x3cca56c8	0.024699584
36	0x3de32367	0.11090737
37	0xbe196a1d	-0.14981885
38	0xbe3f4def	-0.18682073
39	0xbdbd4688	-0.092419684
40	0xbd05ef1f	-0.032698747
41	0x3df8b528	0.12143928
42	0xbdd6aaa0	-0.10481763
43	0x3d17426e	0.036928587
44	0x3dc5ac64	0.096520215
45	0xbb1b3fe1	-0.0023689198
46	0x3d95e893	0.07319751
47	0xbd925c4c	-0.071465105
48	0xbd707b98	-0.05871162
49	0x3d9133f5	0.07089988
50	0x3da02142	0.078188434
51	0x3d9a6772	0.07539262
52	0x3de8ba57	0.113636665
53	0xbc4626f4	-0.012094248
54	0xbe6bc257	-0.23023354
55	0xbd6557b5	-0.055991847
56	0xbcca6b5b	-0.024709394
57	0x3d4b14b8	0.049580306
58	0xbd77f582	-0.06053687
59	0xbcbec6f7	-0.023288233
60	0x3e3296b8	0.17440307
61	0xbcadef73	-0.021232342
62	0x3d90dd6b	0.07073482
63	0xbe91cc87	-0.28476354
64	0xbdaa1ceb	-0.08306297
65	0x3d865b30	0.065603614
66	0xbd473f64	-0.04864444
67	0xbdb26e4e	-0.08712445
68	0x3d3aba51	0.04558784
69	0x3b432c99	0.002978122
70	0xbe548718	-0.20754659
71	0xbb9c2c27	-0.0047660056
72	0x3b8274dc	0.003981216
73	0xbe072ec0	-0.13201427
74	0x3dbbc0d8	0.091676414
75	0xbcb3d5b4	-0.021952488
76	0x3db00493	0.085946225
77	0xbda61f98	-0.08111495
78	0x3df8f18d	0.12155447
79	0xbca05c47	-0.019575251
80	0x3dcd66a0	0.1002934
81	0xbacaedcb	-0.0015482245
82	0xbe583247	-0.2111293
83	0xbe301f67	-0.17199479
84	0x3d4cfb77	0.050044503
85	0x3bf68a50	0.0075238124
86	0xbbb4517c	-0.0055028778
87	0xbdd767d0	-0.105178475
88	0x3d55610a	0.052094497
89	0xbddbfea2	-0.10741927
90	0xbdbc5895	-0.09196583
91	0xbd8044df	-0.06263136
92	0x3e426c14	0.18986541
93	0x3c149acf	0.009070112
94	0xbd86c568	-0.06580621
95	0xbd27e430	-0.0409891
96	0x3e31c207	0.17359172
97	0xbdc5ae19	-0.09652347
98	0xbd11f0b7	-0.035629954
99	0xbdb08a92	-0.0862018
100	0xbe90c520	-0.28275394
101	0x3be1ceab	0.006891092
102	0x3cbd09f6	0.023076039
103	0xbd2a9177	-0.041642632
104	0x3e12e72a	0.14345995
105	0xbce190e0	-0.027534902
106	0x3ddf159a	0.10892792
107	0xbd8154bb	-0.06314989
108	0xbde6380a	-0.11241157
109	0xbd2f3ba5	-0.04278149
110	0xbe760722	-0.24026158
111	0x3cb0907a	0.021553267
112	0xbe3031db	-0.17206518
113	0xbccdd7bb	-0.025127282
114	0xbd5aed9b	-0.053449254
115	0x3e7142f9	0.23560704
116	0x3c28a50d	0.010293257
117	0x3c8d9646	0.01728357
118	0x3dc16568	0.0944317
119	0xbd4eb77b	-0.05046795
120	0xbe2be571	-0.16786744
121	0x3e38c5f0	0.18044257
122	0xbddb787b	-0.10716339
123	0xbdc77564	-0.09739187
124	0x3dd59e03	0.10430529
125	0xbdf1e016	-0.11810319
126	0x3e2ed510	0.17073464
127	0xbce8104a	-0.02832808
128	0x3e31b014	0.17352325
129	0x3e375e65	0.17907102
130	0xbcf537a5	-0.02993376
131	0x3d045da5	0.03231587
132	0xbcbe3b13	-0.023221528
133	0x3acd3374	0.0015655593
134	0xbc88dc9d	-0.01670676
135	0xbd272d76	-0.04081484
136	0x3baee120	0.0053368956
137	0xbd98ee9a	-0.07467385
138	0xbd539f5a	-0.05166564
139	0x3d987397	0.07443922
140	0x3e301765	0.17196424
141	0x3d220790	0.039557993
142	0x3d7d955a	0.06191001
143	0x3c6d5a6d	0.014486891
144	0x3d892c97	0.06697958
145	0xbe06eff7	-0.13177477
146	0x3dc9ef37	0.0986008
147	0x3d3c6e2f	0.046003517
148	0xbd617dd8	-0.055051655
149	0x3dbe5d4c	0.09295139
150	0xb88a843d	-6.604984e-05
151	0xbccbf95b	-0.024899175
152	0x3cc1af27	0.02364309
153	0xbe46f3e2	-0.19428971
154	0xbe2079ca	-0.15671459
155	0xbcf2ed50	-0.029654175
156	0xbd973bea	-0.073844746
157	0x3dd0581f	0.10173058
158	0x3e20f001	0.15716554
159	0xbd86349b	-0.065530024
160	0xbd99dd4d	-0.07512913
161	0xbcafed0a	-0.021475334
162	0x3d2fa4cc	0.042881772
163	0xbd349126	-0.044083737
164	0x3dac868f	0.084241025
165	0xbe11134f	-0.14167522
166	0x3de0866b	0.10963138
167	0x3d5ec722	0.054389127
168	0xb9850054	-0.0002536798
169	0x3e636632	0.22206953
170	0xbd9ce1fe	-0.07660292
171	0x3cce5247	0.025185717
172	0x3cdf006b	0.027221879
173	0xbc74d26a	-0.014942745
174	0xbdebddb3	-0.11516895
175	0x3e18e414	0.14930755
176	0x3dcc2ca6	0.099694535
177	0xbd30a10e	-0.043122344
178	0xbddb16f2	-0.10697736
179	0xbda24acf	-0.07924425
180	0xbd961903	-0.07328989
181	0xbdb7f186	-0.08981614
182	0x3cb883f3	0.022523856
183	0x3cba2640	0.022723317
184	0xbe2a8131	-0.16650845
185	0xbd46e04a	-0.048553742
186	0xbdd5cf58	-0.10439938
187	0x3d8b8b6b	0.06813701
188	0xbd87d731	-0.066328414
189	0xbd0c3ec7	-0.034239557
190	0xbd6757b2	-0.056480117
191	0x3d366e9c	0.04453908
192	0xbdda0bb5	-0.10646764
193	0x3c25da85	0.0101229
194	0xb9909f44	-0.00027584482
195	0xbd177b1c	-0.03698264
196	0xbcb360be	-0.021896716
197	0x3c680b7a	0.0141628925
198	0xbd722a42	-0.05912233
199	0x3d9cd8be	0.07658528
200	0x3e04c7ae	0.12966797
201	0xbd7ed293	-0.062212538
202	0xbdd3b693	-0.10337558
203	0x3de6e397	0.11273878
204	0xbd0e0be7	-0.03467932
205	0x3dee6838	0.11640972
206	0xbdea83fa	-0.11450954
207	0x3d3f950e	0.04677301
208	0xbd501b6d	-0.050807405
209	0x3daef275	0.08542339
210	0xbd581fe2	-0.05276478
211	0xbc7cd34d	-0.015431237
212	0xbc93524a	-0.017983574
213	0xbc49f559	-0.012326562
214	0xbc50811a	-0.012726093
215	0xbca8cfc0	-0.020606875
216	0xbd8dfbc1	-0.06932784
217	0x3da97976	0.0827512
218	0xbd6aa48b	-0.057285827
219	0x3e1534af	0.14570878
220	0x3c0181d7	0.007904491
221	0x3cbbe5a5	0.022936651
222	0x3e13d733	0.1443756
223	0xbd3479e4	-0.044061556
224	0x3bf30c6b	0.007417252
225	0xbdbe5eac	-0.09295401
226	0x3cd5480f	0.026035337
227	0xbc92fc38	-0.017942533
228	0xbd1ee778	-0.038794965
229	0xbe442153	-0.19153337
230	0xbe0a7932	-0.13522795
231	0xbe16edce	-0.14739153
232	0xbe247f20	-0.1606412
233	0xbe6c0702	-0.23049548
234	0xbd06edde	-0.03294169
235	0x3e09f17c	0.13471025
236	0xbdc9bd1a	-0.098505214
237	0x3de8d339	0.113684125
238	0x3e58b539	0.21162881
239	0xbdd5b872	-0.10435571
240	0xbbe61793	-0.0070218532
241	0xbd8da378	-0.06915945
242	0xbcc19457	-0.023630304
243	0xbd3ad454	-0.045612648
244	0x3d4eb0d6	0.050461613
245	0x3d76be71	0.060240213
246	0xbc8c638f	-0.017137317
247	0xbdf5959c	-0.11991426
248	0x3e08aabf	0.13346384
249	0x3c050eef	0.008121236
250	0xbe11eeee	-0.142513
251	0xbe2bd12f	-0.16779016
252	0x3d798ecb	0.060927194
253	0x3e01c6ff	0.12673567
254	0x3e1a65c6	0.15077886
255	0x3cec2a73	0.028828835

fc1.bias f4 [100]
0	0xbdc6f57b	-0.097147904
1	0xbe0172eb	-0.12641494
2	0x3cc86783	0.02446342
3	0xbd4ec553	-0.05048115
4	0xbdb67c0c	-0.08910379
5	0x3c9034d8	0.017603323
6	0xbd97e9da	-0.074176505
7	0xbb6458e7	-0.003484303
8	0x3be734c1	0.0070558493
9	0x3d9424e0	0.07233596
10	0xbdd75d3d	-0.10515831
11	0xbd9ddf65	-0.07708625
12	0x3c773211	0.01508762
13	0xbd5716e9	-0.052512083
14	0xbd261999	-0.040551756
15	0xbba48604	-0.0050208587
16	0x3de4a742	0.111647144
17	0xbdb773c4	-0.089576274
18	0xbd915a43	-0.07097294
19	0xbd8e837e	-0.06958674
20	0x3df580da	0.11987467
21	0xbd668e90	-0.056288302
22	0x3d7ecdd1	0.062208
23	0x3dd682c0	0.10474157
24	0x3bdbc5b7	0.006706919
25	0xbc3a720e	-0.011379732
26	0x3c9f69c1	0.019459607
27	0x3d2a2d4e	0.041547112
28	0xbc4ea10b	-0.012611638
29	0x3d90ec90	0.07076371
30	0x3dce1716	0.10062997
31	0xbc8559bb	-0.016278138
32	0xbdd5fcb3	-0.10448589
33	0xbd24a087	-0.040192153
34	0xbda17bf6	-0.07884972
35	0xbd19b0fa	-0.037522294
36	0x3b5d8135	0.0033798937
37	0xbdd791ce	-0.10525857
38	0x3ad52c45	0.0016263804
39	0xbd20e5c8	-0.039281636
40	0xbc833264	-0.016015239
41	0xbd44756e	-0.047963552
42	0xbd904b82	-0.07045652
43	0xbceac887	-0.028660072
44	0x3da5bdc7	0.08092838
45	0x3cc4cf75	0.024024704
46	0x3bf4f0b3	0.0074749826
47	0x3ce6c1b1	0.028168531
48	0x3d30e00b	0.043182414
49	0x3c668fc7	0.014072365
50	0x3c418d42	0.011813464
51	0x3d56ed3f	0.05247235
52	0xbddc3641	-0.107525356
53	0x3ce1cc69	0.02756329
54	0x3d02e025	0.031952042
55	0x3d095379	0.03352687
56	0x3d5672c9	0.05235556
57	0xbddf6373	-0.1090764
58	0xbd20390c	-0.039116904
59	0xbd23d17f	-0.039994713
60	0xbcfafe22	-0.030638758
61	0x3e0b6997	0.13614498
62	0xbca4c032	-0.020111177
63	0xbd0ebb58	-0.034846634
64	0x3dbf14e4	0.093301564
65	0x3d8ff717	0.070295505
66	0xbd97383b	-0.07383772
67	0xbda738b0	-0.08165109
68	0x3d7935f8	0.060842484
69	0xbd3364b7	-0.04379722
70	0xbdf8a07e	-0.121399865
71	0xbcca40cb	-0.024689099
72	0x3ab9bc01	0.0014170409
73	0xbe06ece4	-0.13176304
74	0x3d7fa682	0.062414654
75	0xbc9fd0fc	-0.019508831
76	0xbd1de957	-0.03855261
77	0x3c8d6168	0.017258361
78	0xbbfec23a	-0.0077746185
79	0x3db5ccd6	0.0887696
80	0x3c0d4e85	0.008624678
81	0x3d6ec6b2	0.05829496
82	0x3ce4c9e6	0.027928304
83	0xbdfa8088	-0.12231547
84	0x3d5df1f8	0.054185838
85	0x3d464af2	0.048411317
86	0xbdd482ee	-0.10376535
87	0xbd6c7064	-0.05772437
88	0x3c83d9ec	0.016095124
89	0x3dcea4cc	0.10090026
90	0x3e14c4ab	0.14528148
91	0x3d734ead	0.059401203
92	0xbdae8adf	-0.08522581
93	0xbd9c7e50	-0.0764128
94	0x3d424aa9	0.047434483
95	0xbd6a80a9	-0.057251606
96	0xbd6a85b9	-0.057256434
97	0x3c9fbcc3	0.019499188
98	0xbd232274	-0.03982778
99	0x3d8233c3	0.06357529

out.weight f4 [8, 100]
0	0xbd717ad1	-0.058955017
1	0xbdba92a0	-0.09109998
2	0x3e73ae15	0.23796876
3	0x3da67475	0.08127681
4	0xbe051e27	-0.12999783
5	0x3d3ec7a6	0.04657712
6	0x3bf8fc6a	0.0075984495
7	0xbd73e80d	-0.059547473
8	0xbd99c0ef	-0.07507502
9	0x3e0747f0	0.13211036
10	0xbe131651	-0.14363982
11	0x3cd3a196	0.025833886
12	0x3d7fd50a	0.06245903
13	0x3d87fd7e	0.06640147
14	0x3d34c720	0.044135213
15	0xbdb10c3b	-0.08644911
16	0xbcc8a99e	-0.024494942
17	0xbe7e17aa	-0.24813715
18	0xbc2eb7e3	-0.010663959
19	0xbd8deffc	-0.06930539
20	0xbd7075b2	-0.058705993
21	0x3ac40a81	0.0014956744
22	0x3dfc4a79	0.12318892
23	0xbc33b175	-0.010967602
24	0xbcd4b6f4	-0.025966145
25	0xbdf6c01a	-0.12048359
26	0xbc66171c	-0.014043596
27	0x3be06ca4	0.0068488885
28	0xbc10bed1	-0.008834557
29	0x3d18b4ee	0.037281923
30	0xbd056b42	-0.032572992
31	0xbd7122ee	-0.058871202
32	0xbd2cc6f6	-0.04218193
33	0xbd37f3aa	-0.04491011
34	0x3db42c6a	0.08797534
35	0xbd9669d7	-0.07344406
36	0x3dbeca36	0.093159124
37	0x3b1572d8	0.0022804048
38	0x3b9c5348	0.00477067
39	0xbcfa719e	-0.030571755
40	0xbd7bd58d	-0.061482955
41	0xbdbbad82	-0.09163953
42	0x3ca95ce7	0.020674182
43	0x3d9aaad8	0.07552117
44	0x3d87bbf0	0.06627643
45	0x3e87eab1	0.26546243
46	0xbc795304	-0.015217546
47	0xbd7ebd9f	-0.062192556
48	0x3dc0ea6b	0.09419712
49	0x3d5df946	0.054192804
50	0x3d840ce3	0.064477704
51	0x3cc147bf	0.023593782
52	0x3e2be685	0.16787155
53	0xbda5f5b8	-0.08103508
54	0xbcd4a95b	-0.025959661
55	0xbd9c0923	-0.0761893
56	0x3da81241	0.08206607
57	0x3dc551ab	0.096347176
58	0x3d70a97d	0.058755387
59	0xbd4b66dc	-0.04965864
60	0x3d71b239	0.059007857
61	0xbd6c0905	-0.05762579
62	0xbd1bc145	-0.038026113
63	0x3d94b574	0.07261172
64	0x3daeaaa6	0.08528642
65	0xbd5f50ec	-0.054520532
66	0x3e3b137a	0.18269148
67	0xbe48fac3	-0.19626908
68	0xbd4a954b	-0.049458783
69	0xbd903eb1	-0.070432074
70	0x3e09f264	0.13471371
71	0xbd28d4cf	-0.041218575
72	0x3d4f1f93	0.05056722
73	0x3d350604	0.04419519
74	0xbdc24cc9	-0.09487302
75	0x3d115347	0.03547981
76	0xbcf850e5	-0.030312011
77	0xbe05bbf7	-0.13059984
78	0xbd882bd1	-0.06648982
79	0xbd4e8319	-0.050417993
80	0x3dba37a3	0.09092643
81	0xbdfca20e	-0.12335597
82	0xbdd19c87	-0.10234933
83	0xbdb6a6d6	-0.0891854
84	0xbd3be16b	-0.045869272
85	0x3be1afc3	0.0068874075
86	0xbc67c0f3	-0.014145124
87	0xbc9ab859	-0.018886732
88	0xbe65528a	-0.22394767
89	0xbd7e74c2	-0.062123068
90	0xbe25ffb0	-0.16210818
91	0xbcfacbea	-0.030614812
92	0xbe46fa37	-0.19431387
93	0x3c36cf64	0.011157844
94	0x3d8639ab	0.06553968
95	0x3d3e0177	0.046388116
96	0xbe5ef5f2	-0.21773508
97	0xbbd23951	-0.006415524
98	0xbd52b011	-0.05143744
99	0x3c8320d6	0.016006868
100	0x3d2b1f8c	0.041778132
101	0x3e29e48a	0.16591087
102	0x3d923500	0.07139015
103	0xbd1459f8	-0.036218613
104	0xbd9b0c5a	-0.07570715
105	0x3d05cc13	0.032665323
106	0x3d63ee42	0.055647142
107	0xbbf8c8b9	-0.0075922874
108	0xbcbc872e	-0.023013677
109	0xbe5d6234	-0.21619493
110	0x3d9e166e	0.07719122
111	0x3dd102e8	0.102056324
112	0x3c826578	0.015917525
113	0x3c4f438b	0.012650381
114	0xbe04620d	-0.12928028
115	0xbd18140f	-0.037128504
116	0xbe1a5554	-0.15071613
117	0xbc2a4224	-0.010391746
118	0x3e251fce	0.16125414
119	0x3d08e6f5	0.033423383
120	0xbd77034d	-0.060305882
121	0xbd49ca6c	-0.04926531
122	0xbb588b30	-0.0033041947
123	0x3d25b384	0.040454403
124	0xbdf278d1	-0.1183945
125	0xbc20307d	-0.0097771855
126	0xbd3e9ce2	-0.046536334
127	0xbdd4df05	-0.103941
128	0xbd238f2f	-0.039931472
129	0xbc6eed0a	-0.014582882
130	0xbdd86772	-0.10566606
131	0x3e10976d	0.14120264
132	0xbe841779	-0.25799158
133	0x3d8e485a	0.06947394
134	0x3dba1967	0.09086876
135	0x3db72d48	0.089441836
136	0x3e1c1fef	0.15246557
137	0x3c6cb386	0.014447099
138	0xbe2a7d20	-0.16649294
139	0x3df24c08	0.11830908
140	0x3e85c9d4	0.26130545
141	0xbc60d027	-0.013721502
142	0x3d8e04b9	0.069344945
143	0x3df5212b	0.11969217
144	0xbd4d1971	-0.05007309
145	0xbd60e36c	-0.054904386
146	0xbe07b528	-0.132527
147	0xbda48e45	-0.08034948
148	0x3d1ca79b	0.03824578
149	0xbd9a6737	-0.07539218
150	0x3daa5fed	0.08319078
151	0xbd845cf7	-0.06463044
152	0xbd89bf7d	-0.067259766
153	0xbe17fc0b	-0.1484224
154	0xbe608706	-0.21926507
155	0x3d879752	0.06620659
156	0x3b8a2e8d	0.004216975
157	0x3d8225bf	0.06354856
158	0xbdf37487	-0.1188746
159	0xba9f975b	-0.0012175845
160	0x3d01f5e3	0.031728636
161	0xbde51c50	-0.11187041
162	0xbdb1e0dc	-0.08685467
163	0xbc29785a	-0.010343635
164	0x3e0bedff	0.13665007
165	0x3cdd9cb7	0.027052267
166	0xbdc1e065	-0.09466628
167	0x3e423648	0.18966019
168	0xbd9ab6b0	-0.07554376
169	0xbd41e4be	-0.047337286
170	0x3dbd4ffa	0.0924377
171	0xbd97ccbd	-0.074120976
172	0x3e3339c3	0.17502503
173	0xbcb98222	-0.02264506
174	0xbe0d2902	-0.13785174
175	0x3dc9b43c	0.0984883
176	0x3d005278	0.03132865
177	0x3d8c8e2c	0.06863055
178	0xbb879acd	-0.0041383267
179	0x3dac085a	0.084000304
180	0x3dc5eeea	0.0966471
181	0x3ccfc8a1	0.025364222
182	0x3c9f7176	0.019463282
183	0x3dcee416	0.10102098
184	0x3c1258b2	0.008932279
185	0xbd1fdb7f	-0.039027687
186	0x3ccc4028	0.024932936
187	0x3c50a547	0.012734718
188	0xbd54963c	-0.051901087
189	0xbda00af9	-0.07814593
190	0xbbb8ee4d	-0.005643642
191	0xbd655ba4	-0.0559956
192	0x3da8ad46	0.08236174
193	0x3e255362	0.1614509
194	0x3e994d84	0.29941952
195	0xbbc6b304	-0.006063821
196	0x3e16cb2e	0.14725944
197	0x3d34d9db	0.044153076
198	0x3d0a331b	0.033740144
199	0xbe25fb2f	-0.162091
200	0xbd941841	-0.072311886
201	0x3e1ce188	0.15320408
202	0xbdb12d65	-0.086512364
203	0xbbc92ef6	-0.0061396314
204	0xbc2a4fd7	-0.010395012
205	0x3d903305	0.07040981
206	0xbe5cccb9	-0.2156247
207	0x3c62237e	0.013802407
208	0x3d8301a8	0.063968
209	0x3d8ba3d2	0.068183556
210	0xbdcbf72b	-0.09959253
211	0x3e59432d	0.21217032
212	0xbca76565	-0.02043409
213	0xbc314b1f	-0.010821133
214	0x3d4a798a	0.049432315
215	0x3dff78ea	0.124742344
216	0x3dc7f068	0.09762651
217	0x3d84724a	0.064671114
218	0x3c07db37	0.008292011
219	0x3e35b932	0.17746428
220	0xbc8bbd54	-0.017058052
221	0x3cbfd0b7	0.023414953
222	0x3dc5abd4	0.09651914
223	0x3bb4a5d3	0.005512932
224	0x3dd4fa59	0.103993125
225	0xbd1fe099	-0.039032552
226	0xbd085fc9	-0.033294473
227	0xbc62af29	-0.013835707
228	0xbd486caf	-0.048931774
229	0x3d660f55	0.056166966
230	0x3d6fd6f7	0.058554616
231	0xbd5b17b1	-0.05348939
232	0xbe0da8b9	-0.13833894
233	0xbe027cb5	-0.12742884
234	0x3d142e24	0.036176816
235	0x3bb053fa	0.0053811045
236	0x3d1eccf7	0.03876969
237	0x3e29b425	0.16572626
238	0xbd8cece9	-0.068811245
239	0x3e5c3bf9	0.21507253
240	0xbe038861	-0.12844993
241	0x3e2e3f45	0.17016323
242	0xbda38b67	-0.07985573
243	0xbe1df3c6	-0.15425023
244	0xbe146772	-0.14492586
245	0xbd615027	-0.05500808
246	0x3d61d225	0.05513205
247	0xbd9a78b3	-0.07542553
248	0xbd1b9f89	-0.03799394
249	0xbe34675a	-0.1761755
250	0x3d6a92cf	0.057268914
251	0xbda1b5e7	-0.07896023
252	0xbc6cac55	-0.014445384
253	0xbcc20b0f	-0.023686914
254	0x3d56894c	0.05237703
255	0xbd3fb589	-0.046803985

out.bias f4 [8]
0	0xbd263525	-0.040578026
1	0x3d4e54cc	0.050373837
2	0x3d8904f8	0.06690401
3	0x3da955b9	0.082683034
4	0x3c2e589d	0.010641244
5	0xbd0ec2b3	-0.03485365
6	0x3ca4f0b6	0.020134311
7	0x3df9bd9d	0.12194369
