models2/HalfCheetah-v2/LossPredict/Dagger_350.pth (torch, 11167 bytes, 4 tensors)

fc1.weight f4 [100, 17]
-0.08663023 0.1913993 -0.1109922 0.019333823 0.2702474 0.0768198 -0.006485496 0.11924328
0.014059256 0.026998054 -0.043667436 0.004512209 0.03745 0.07045368 0.03791806 0.007462077
0.11294562 -0.0687249 0.018846834 -0.017711312 -0.034521855 0.008438497 0.073296845 0.049215287
-0.0017683483 0.06354843 0.06361285 -0.031806286 0.05762259 -0.05928572 0.12193394 0.13312891
-0.09347842 0.023466362 0.019371664 -0.09262808 0.07986716 0.08177344 -0.088313475 -0.1143187
0.10909759 -0.09605499 0.14342822 0.020378212 0.037740067 -0.12434382 -0.021112965 -0.023942117
-0.00037111 0.0992139 -0.016663613 0.015302368 -0.18436697 0.08332949 -0.114401855 0.019084368
0.012246242 0.112973765 -0.09453032 0.012950299 0.26478902 -0.17150126 -0.08807016 0.022924688
0.048804037 -0.1590451 -0.0057509183 -0.18997589 0.33448938 0.03088445 -0.114447474 -0.051616862
0.014697573 -0.10445171 -0.01331318 0.050825633 -0.05031845 0.24201569 -0.0039151898 0.02838724
-0.12836164 -0.01001881 0.06451299 0.015805468 -0.1780603 0.00045864363 0.030078735 -0.08439662
-0.14924982 0.020771362 0.146913 -0.03604352 0.08678037 -0.116696216 -0.23243949 0.01840574
0.015426419 -0.12678836 0.1210803 -0.10628042 0.054800887 0.058175683 0.19113205 -0.11170616
0.06716308 -0.06296653 0.053926967 -0.08831169 -0.020445416 -0.12098113 0.16540371 0.3593834
-0.04876753 0.094878085 0.08504623 -0.12083459 -0.1361818 -0.18043125 -0.07784058 0.00043970102
0.06388968 0.19923474 -0.08686188 0.03759775 0.22733854 0.022730915 0.11151794 -0.15723391
0.07042483 -0.14356028 -0.00195522 0.026384063 0.05770361 0.008123057 -0.001422672 -0.1419481
-0.028419046 0.0717587 -0.09182599 -0.008611478 0.14542595 0.12529883 -0.01869514 -0.017595781
0.07253019 0.08849573 0.08514946 -0.18847658 0.05609248 -0.08078616 0.06143103 -0.028610285
0.12148533 -0.01616635 -0.15100454 -0.040979624 0.144243 0.1801046 0.039783966 -0.06642518
-0.028888207 0.021780262 0.04233778 0.11486952 -0.2022747 0.101331696 0.07849606 -0.13595366
0.0035447637 0.07754047 -0.0013174022 -0.045215063 -0.013196329 0.07827633 0.1213512 0.008506622
-0.05053217 0.091603 0.022184262 -0.019439446 -0.12000243 0.1605488 -0.09488119 0.02387638
0.10566601 0.14025052 -0.034053415 0.17187467 0.1459878 -0.017659796 0.10866671 0.007537769
-0.002920269 0.1731912 -0.06541028 0.061966807 -0.016459769 -0.11811144 0.016453022 0.046783645
0.14386038 -0.060345817 -0.07405287 0.15538828 -0.047532182 -0.14285998 0.04771532 0.006028788
-0.012858594 0.031644844 -0.12959117 -0.08236916 -0.071976885 0.18222956 0.043762572 0.07369276
-0.018613959 0.12624991 -0.061997022 -0.031471062 -0.12998646 -0.087534755 0.008448669 -0.056898057
0.13016477 0.12035866 -0.13599856 -0.17566748 0.0481631 -0.097399406 0.16962267 -0.12390804
0.1266209 0.008175474 0.0015033181 -0.01826852 0.08167463 -0.033211023 -0.25740674 0.022629317
-0.023686836 -0.08118055 -0.142417 -0.04727609 -0.101822525 -0.27645844 0.005499937 -0.25282848
0.10138416 -0.12611918 0.14874177 0.015976775 -0.145655 -0.09535939 0.006649678 -0.20453793
00000000: 316b b1bd 2efe 433e e14f e3bd f761 9e3c
00000010: de5d 8a3e b353 9d3d 4984 d4bb d235 f43d
00000020: cb58 663c 062b dd3c a0dc 32bd 27db 933b
00000030: 2c65 193d 054a 903d f84f 1b3d 7084 f43b
00000040: 0950 e73d a4bf 8cbd ad64 9a3c 5017 91bc
00000050: ca66 0dbd 9f41 0a3c a81c 963d f895 493d
00000060: ecc7 e7ba ae25 823d 7447 823d 4f47 02bd
00000070: aa05 6c3d 95d5 72bd 80b8 f93d f252 083e
00000080: 9d71 bfbd 873c c03c 53b1 9e3c cab3 bdbd
00000090: 6591 a33d d578 a73d b2dd b4bd ec1f eabd
000000a0: 8f6e df3d 7bb8 c4bd d9de 123e 35f0 a63c
000000b0: 5495 1a3d f9a7 febd 19f5 acbc 4222 c4bc
000000c0: 8b91 c2b9 a830 cb3d 2182 88bc c9b6 7a3c
000000d0: b2ca 3cbe a7a8 aa3d 854b eabd d256 9c3c
000000e0: 76a4 483c ca5e e73d 1d99 c1bd 7e2d 543c
000000f0: 6d92 873e 079e 2fbe 215e b4bd 8ecc bb3c
00000100: bee6 473d b8dc 22be 3372 bcbb 0a89 42be
00000110: 3142 ab3e 6301 fd3c 7063 eabd 346c 53bd
00000120: 17ce 703c c7ea d5bd 861f 5abc 8a2e 503d
00000130: b81a 4ebd f6d2 773e fe4a 80bb 5b8c e83c
00000140: 3c71 03be ef25 24bc 631f 843d 787a 813c
00000150: 7055 36be 1b76 f039 ae67 f63c 23d8 acbd
00000160: f2d4 18be b428 aa3c 5d70 163e 5fa2 13bd
00000170: e8b9 b13d 6dfe eebd 9e04 6ebe a2c7 963c
00000180: 17bf 7c3c cfd4 01be f3f8 f73d 8da9 d9bd
00000190: e576 603d a049 6e3d 1fb8 433e 33c6 e4bd
000001a0: cc8c 893d 99f4 80bd 86e2 5c3d c2dc b4bd
000001b0: 257d a7bc f4c4 f7bd 975f 293e 1a01 b83e
000001c0: 76c0 47bd 714f c23d b82c ae3d 2078 f7bd
000001d0: 3e73 0bbe f8c2 38be e26a 9fbd ac87 e639
000001e0: 98d8 823d 3104 4c3e a4e4 b1bd 1900 1a3d
000001f0: 6fcb 683e 2f36 ba3c 8563 e43d ed01 21be
00000200: e53a 903d 7701 13be 2623 00bb 6423 d83c
00000210: 9f5a 6c3d 9216 053c f378 baba d85a 11be
00000220: 0fcf e8bc 3af6 923d 440f bcbd 2817 0dbc
00000230: 8aea 143e 564e 003e 8d26 99bc 0725 90bc
00000240: b58a 943d 403d b53d d762 ae3d 0100 41be
00000250: 3ac1 653d 3773 a5bd 1b9f 7b3d 1e60 eabc
00000260: 4dcd f83d 4b6f 84bc efa0 1abe 40da 27bd
00000270: 70b4 133e 576d 383e 83f4 223d ed09 88bd
00000280: f6a6 ecbc 856c b23c 616a 2d3d b640 eb3d
00000290: 1921 4fbe fe86 cf3d 8bc2 a03d 7037 0bbe
000002a0: 444f 683b 8acd 9e3d afac acba 6e33 39bd
000002b0: 6a35 58bc 574f a03d fa86 f83d 5c5f 0b3c
000002c0: d2fa 4ebd 5b9a bb3d c5bb b53c 793f 9fbc
000002d0: d6c3 f5bd e866 243e 1251 c2bd 6698 c33c
000002e0: 6c67 d83d d59d 0f3e 987b 0bbd eaff 2f3e
000002f0: d37d 153e 47ab 90bc a78c de3d 64ff f63b
00000300: fc61 3fbb 0959 313e d3f5 85bd e8d0 7d3d
00000310: a3d6 86bc 69e4 f1bd 7dc8 863c 35a0 3f3d
00000320: 2350 133e 2d2d 77bd 08a9 97bd 1b1e 1f3e
00000330: 1bb1 42bd e349 12be 2471 433d 248d c53b
00000340: daac 52bc 069e 013d 8cb3 04be 2ab1 a8bd
00000350: 9e68 93bd 639a 3a3e 6240 333d 3bec 963d
00000360: 4d7c 98bc a847 013e 97f0 7dbd cde7 00bd
00000370: 2c1b 05be 6c45 b3bd 496c 0a3c f00d 69bd
00000380: ea49 053e 9a7e f63d 3543 0bbe 2de2 33be
00000390: ac46 453d 5779 c7bd 91b1 2d3e 80c3 fdbd
000003a0: e9a8 013e 6cf2 053c fc0a c53a dda7 95bc
000003b0: 0745 a73d 4808 08bd d1ca 83be 1e61 b93c
000003c0: e50a c2bc fd41 a6bd c3d5 11be 93a4 41bd
000003d0: 5488 d0bd f68b 8dbe d138 b43b bc72 81be
000003e0: 80a2 cf3d 6325 01be c34f 183e bae1 823c
000003f0: 9626 15be c94b c3bd 8be5 d93b 6472 51be

fc1.bias f4 [100]
-0.25564623 0.155669 -0.2095271 0.24509962 0.20667717 -0.15573397 0.18515378 -0.20078091
-0.07508785 -0.13197234 -0.12011139 -0.25733942 -0.22302076 0.06947886 -0.0017701205 -0.039186344
-0.020702738 -0.12172798 -0.07659418 -0.12725239 -0.05707766 0.13587682 0.23074283 -0.20246245
-0.07624738 0.10811945 0.15625878 -0.13446419 -0.054412287 -0.14742197 -0.12377451 -0.21199682
0.17347936 -0.19395523 0.18986781 0.1693464 -0.17918825 -0.11137501 -0.13767435 0.21510552
0.04956248 -0.09158022 -0.015102424 -0.12675005 0.12211859 0.0109942565 0.07341242 0.32119936
0.19988094 0.11244938 0.20112313 0.08158321 0.23684078 -0.18937013 0.012819302 0.06292945
-0.05660201 0.2360656 0.06132834 0.20191814 0.016757412 -0.003954448 -0.08810261 -0.16950732
0.15785977 0.13660906 0.050633118 0.10543551 -0.22796172 0.15040663 -0.034478534 0.016647672
0.18008307 -0.104480125 0.06519172 -0.07937524 0.13302794 -0.04865343 0.16239604 -0.13456023
0.2225086 0.17603365 0.11991628 -0.059714664 0.18368675 0.048386678 -0.18864541 -0.21467108
-0.0065602534 0.1923368 0.11039546 0.11563529 0.17793585 0.16954426 -0.064544946 -0.1911904
-0.20005971 -0.19846418 0.036091313 0.019611811
00000000: 10e4 82be b267 1f3e 468e 56be 65fb 7a3e
00000010: 2ea3 533e ba78 1fbe f498 3d3e 8399 4dbe
00000020: a9c7 99bd c223 07be f6fc f5bd fec1 83be
00000030: 8e5f 64be ef4a 8e3d 6303 e8ba dc81 20bd
00000040: ca98 a9bc 854c f9bd 69dd 9cbd 734e 02be
00000050: 44ca 69bd 4b23 0b3e d947 6c3e 5152 4fbe
00000060: 9627 9cbd bb6d dd3d 4d02 203e fbb0 09be
00000070: 6bdf 5ebd c9f5 16be 7e7d fdbd b215 59be
00000080: 93a4 313e 339c 46be b56c 423e 2569 2d3e
00000090: 207d 37be 9518 e4bd 81fa 0cbe 9f44 5c3e
000000a0: 0702 4b3d 698e bbbd 2870 77bc c4ca 01be
000000b0: 5019 fa3d 4121 343c 4059 963d 3e74 a43e
000000c0: 97ad 4c3e dc4b e63d 39f3 4d3e 1915 a73d
000000d0: 6486 723e 3eea 41be 0d08 523c 28e1 803d
000000e0: 82d7 67bd 2ebb 713e 6d33 7b3d a1c3 4e3e
000000f0: d746 893c 5094 81bb 246f b4bd 5493 2dbe
00000100: fea5 213e 3fe3 0b3e ac64 4f3d 93ee d73d
00000110: cc6e 69be 3204 1a3e 5d39 0dbd b360 883c
00000120: b267 383e adf9 d5bd 3d83 853d 7c8f a2bd
00000130: 7a38 083e d248 47bd 264b 263e 28ca 09be
00000140: 4bd9 633e 2a42 343e ab96 f53d 5d97 74bd
00000150: 6118 3c3e 1c31 463d 432c 41be bcd2 5bbe
00000160: 65f7 d6bb f0f3 443e 0417 e23d 32d2 ec3d
00000170: d134 363e 039d 2d3e 2430 84bd 6bc7 43be
00000180: 74dc 4cbe 323a 4bbe 7cd4 133d f3a8 a03c

out.weight f4 [6, 100]
-0.08963182 -0.15535185 0.2127435 0.33811727 0.07593393 -0.06671607 0.2216435 -0.06649117
0.106352895 0.0034105582 0.123732 0.10897207 0.21721287 0.026867513 0.087037385 0.23311764
0.18828025 0.0759048 0.04021805 0.060532454 0.1164471 -0.2199898 0.31607348 0.060384598
-0.014423126 0.007706767 -0.056787338 0.08796752 0.03831566 -0.26440352 0.172447 0.089975715
0.02804636 0.15121692 0.15204065 0.1867401 0.021144409 -0.08657414 0.31071877 0.21617602
-0.022884367 0.11303275 0.19195461 0.046316758 0.09586014 0.06454807 0.023439191 0.14573227
-0.00882427 0.20104459 -0.018189333 0.10239015 0.040868875 0.4396201 -0.17774501 -0.07520472
0.031076033 0.05483832 0.062358025 0.09914368 0.17877299 -0.021997454 0.064972445 0.0906514
-0.056371342 0.005077526 0.015528113 0.24541885 -0.0010660391 0.11517251 -0.059331965 -0.044387035
0.19038385 0.22415902 0.095842876 0.08336775 -0.00954487 -0.0802948 0.20424415 -0.05372125
-0.041848708 0.05481373 -0.021296876 0.019319095 0.14116535 0.16742669 0.1649306 0.100622624
0.035524625 0.03968439 -0.0015710837 0.09352846 -0.045251302 -0.046752214 0.14183246 0.056450225
0.1959355 0.03894901 0.15709826 0.104921766 -0.015540272 -0.05369954 -0.08821411 -0.16745399
-0.12760268 -0.26593876 0.024136487 -0.17137511 -0.13598053 -0.19851714 -0.066012725 -0.2708743
-0.18310104 -0.021780923 -0.03283948 -0.15311208 -0.01834033 -0.18063594 -0.09789786 -0.12087737
-0.27556166 0.036578983 -0.20106259 -0.17611642 -0.2876692 -0.014749444 0.108171046 -0.08578527
-0.16037694 -0.07889597 0.0190914 -0.2418875 -0.2410264 -0.16506211 -0.112329446 0.023510102
-0.121402375 -0.0024866387 -0.04718161 -0.055615425 -0.12801254 0.0019023112 0.0032431255 -0.12033747
-0.122840405 -0.061286103 -0.17282018 -0.06895254 -0.12424786 0.017541124 -0.069219016 -0.25995123
-0.14679347 -0.18217885 -0.02769736 -0.22104579 0.012013741 -0.19736156 -0.09604905 -0.2536826
0.010424982 0.0007544245 0.0385348 -0.073637865 -0.14093286 -0.15798491 -0.2562571 0.027594812
-0.06274908 -0.23798013 -0.18361112 -0.0910303 -0.084407136 0.09025948 -0.25021356 0.055673476
-0.27660227 -0.06332749 -0.1797395 -0.056400858 -0.083107136 -0.06431347 -0.07051075 -0.10931025
-0.33288714 0.019613456 0.030418241 -0.013768338 0.052937545 -0.119554766 -0.09830159 -0.08612996
-0.27937242 -0.14718282 0.03181514 -0.26503077 -0.018074164 0.056698 -0.09140277 0.06927528
-0.11098088 -0.13326536 -0.051714286 0.13620813 0.1632916 0.03841419 0.017348751 -0.18759467
-0.0762291 -0.036223695 -0.015894065 -0.29842755 -0.005284386 -0.019255606 -0.07268689 0.107446104
0.1322016 -0.009172316 0.04080157 0.07478513 0.0491973 0.13598575 0.0791241 -0.09064957
-0.11981927 -0.07811215 -0.016899345 -0.09802792 0.08948776 -0.10282621 -0.09613504 -0.0016498666
-0.090907715 -0.07898933 -0.019056471 -0.05920789 0.062355883 -0.17518674 0.13885577 -0.055669878
-0.12607433 0.01101304 0.12270147 -0.03313403 -0.041545957 0.20720093 0.027728766 0.10202391
0.008966108 -0.051964298 -0.20426182 0.14779432 0.31181523 -0.010877461 -0.024052383 0.17207083
00000000: e390 b7bd 8e14 1fbe 6fd9 593e b51d ad3e
00000010: 4083 9b3d 6fa2 88bd 83f6 623e 862c 88bd
00000020: 8ccf d93d ac83 5f3b 3467 fd3d c02c df3d
00000030: 0d6d 5e3e 4219 dc3c a840 b23d 64b6 6e3e
00000040: 8acc 403e fa73 9b3d afbb 243d e1f0 773d
00000050: d17b ee3d 0245 61be 62d4 a13e d755 773d
00000060: fa4e 6cbc 0c89 fc3b d799 68bd 5128 b43d
00000070: e2f0 1c3d e65f 87be f295 303e 3045 b83d
00000080: 7bc1 e53c 9cd8 1a3e 8bb0 1b3e cc38 3f3e
00000090: 0a37 ad3c c84d b1bd 8816 9f3e 3f5d 5d3e
000000a0: ff77 bbbc b77d e73d c08f 443e a4b6 3d3d
000000b0: 5252 c43d c731 843d 8c03 c03c d73a 153e
000000c0: ac93 10bc a2de 4d3e cc01 95bc edb1 d13d
000000d0: 1f66 273d e315 e13e ca02 36be ef04 9abd
000000e0: 2a93 fe3c 259e 603d 216b 7f3d d70b cb3d
000000f0: 4410 373e 0134 b4bc 4610 853d 71a7 b93d
00000100: a3e5 66bd 6061 a63b a069 7e3c 144f 7b3e
00000110: 56ba 8bba 91df eb3d 1306 73bd 2ecf 35bd
00000120: fcf3 423e f189 653e 4549 c43d b6bc aa3d
00000130: 1662 1cbc 9a71 a4bd 6125 513e d00a 5cbd
00000140: 8d69 2bbd 5d84 603d c976 aebc 1443 9e3c
00000150: a68d 103e e771 2b3e 91e3 283e 3c13 ce3d
00000160: 4582 113d 198c 223d d2ec cdba d98b bf3d
00000170: 6e59 39bd 407f 3fbd 873c 113e 5a38 673d
00000180: 51a3 483e ff88 1f3d 5ede 203e 39e1 d63d
00000190: a09c 7ebc 0df4 5bbd 99a9 b4bd 0f79 2bbe
000001a0: 47aa 02be 2029 88be e2b9 c53c f57c 2fbe
000001b0: 7b3e 0bbe 1448 4bbe ae31 87bd 09b0 8abe
000001c0: d77e 3bbe e86d b2bc b182 06bd 6ac9 1cbe
000001d0: 763e 96bc a1f8 38be ac7e c8bd 8e8e f7bd
000001e0: 6b16 8dbe d8d3 153d 5ae3 4dbe dd57 34be
000001f0: 6149 93be a7a7 71bc c888 dd3d 30b0 afbd
00000200: da39 24be 3694 a1bd 9165 9c3c 5bb1 77be
00000210: a0cf 76be 0b06 29be fb0c e6bd 4298 c03c
00000220: cfa1 f8bd e0f6 22bb 8141 41bd 00cd 63bd
00000230: b815 03be f956 f93a 9e8a 543b 7e73 f6bd
00000240: c093 fbbd 2307 7bbd c6f7 30be fd36 8dbd
00000250: a975 febd 67b2 8f3c b3c2 8dbd 5418 85be
00000260: 0751 16be 188d 3abe 93e5 e2bc d459 62be
00000270: 48d5 443c 2619 4abe 5db5 c4bd b0e2 81be
00000280: 8bcd 2a3c 92c4 453a abd6 1d3d 73cf 96bd
00000290: b450 10be ccc6 21be 2134 83be 840e e23c
000002a0: 9782 80bd 10b1 73be 8e04 3cbe 186e babd
000002b0: a6dd acbd f6d9 b83d fe1b 80be df09 643d
000002c0: d09e 8dbe d8b1 81bd a20d 38be 9604 67bd
000002d0: 1334 aabd c8b6 83bd f167 90bd 0dde dfbd
000002e0: 2f70 aabe 66ac a03c ad2f f93c 9894 61bc
000002f0: 0ad5 583d 21d9 f4bd 5852 c9bd e864 b0bd
00000300: e709 8fbe 18b7 16be 9850 023d 1db2 87be
00000310: 4510 94bc 293c 683d 6031 bbbd 33e0 8d3d
00000320: f249 e3bd b776 08be 5cd2 53bd 257a 0b3e
00000330: ea35 273e 3358 1d3d f81e 8e3c d118 40be
00000340: 011e 9cbd 4c5f 14bd 4534 82bc 7fcb 98be
00000350: a528 adbb efbd 9dbc dddc 94bd b40c dc3d
00000360: db5f 073e 7b47 16bc 8c1f 273d f228 993d
00000370: 1c83 493d d93f 0b3e d10b a23d 7ba6 b9bd
00000380: ce63 f5bd 43f9 9fbd 7f70 8abc ddc2 c8bd
00000390: 5c45 b73d 8c96 d2bd 73e2 c4bd 5640 d8ba
000003a0: d32d babd 28c5 a1bd 511c 9cbc f983 72bd
000003b0: e268 7f3d 2764 33be 3530 0e3e 1906 64bd
000003c0: a119 01be 0a70 343c e94a fb3d 8cb7 07bd
000003d0: 182c 2abd 7b2c 543e 7027 e33c e9f1 d03d
000003e0: 95e6 123c 84d8 54bd 032a 51be 6557 173e
000003f0: 3fa6 9f3e 6137 32bc 8109 c5bc 5633 303e

out.bias f4 [6]
0.061758824 -0.08160841 -0.08666077 0.023136036 0.08793662 0.22179772
00000000: d2f6 7c3d 4f22 a7bd 347b b1bd c987 bd3c
00000010: 1d18 b43d f11e 633e
