models2/HalfCheetah-v2/DisSample/Dagger_450.pth (torch, 11167 bytes, 4 tensors)

fc1.weight f4 [100, 17]
-0.0859989 0.24355058 -0.14469333 0.039046366 0.21778661 0.048516434 -0.04012528 0.083529
0.014002873 -0.09094746 0.019751992 0.0048674024 0.022221033 0.03998146 0.018912805 -0.010197327
0.13579364 -0.05340841 0.09019146 -0.08181819 -0.004306863 -0.0055408375 0.0054844557 0.0020690565
-0.055768404 0.0112224845 -0.003744251 0.04313215 0.06190017 -0.04556228 0.11461203 0.124886274
-0.067660026 0.022976315 -0.04697087 -0.05514584 0.18581545 -0.0068997657 -0.06315468 0.002955276
0.15007152 0.020109631 0.31430477 0.0039543654 0.19828093 -0.19814438 0.03498002 -0.032741144
0.08129418 0.06671916 -0.02188668 -0.03776835 -0.17034465 0.14940645 -0.20133229 0.09838664
0.10076435 0.15807788 -0.0218319 0.043344304 0.36760858 -0.30882028 -0.10238746 0.043557607
0.041061677 -0.16425845 -0.023032138 -0.19161123 0.24952406 0.075275145 -0.07113501 -0.111995585
0.11582106 -0.063726895 0.043416586 0.11337021 -0.08959651 0.31527588 -0.041142575 0.032146387
-0.12582646 -0.06305401 0.08660209 0.0009821075 -0.17046866 0.0029849224 0.010278622 -0.10829797
-0.13621831 0.042905338 0.10554872 -0.029435916 0.06911029 -0.13127579 -0.35855317 0.08660322
0.029267797 -0.09884308 0.14289843 -0.10858975 -0.0026809655 0.04420853 0.27120426 -0.18375821
0.08956185 -0.056390546 0.013673944 -0.08753554 -0.053264577 -0.11346387 0.16840528 0.47862968
-0.17418447 0.18690836 0.03302211 -0.089998476 -0.09235804 -0.1922796 -0.08755202 -0.032665182
0.097916424 0.19182171 -0.1220006 0.045450386 0.23372757 0.07010441 0.12839083 -0.11556511
0.014694464 -0.045814324 -0.0031453515 0.016751083 0.089122735 -0.019358475 0.027930692 -0.14651991
-0.06979627 0.08322773 -0.11869275 0.015275527 0.06601737 0.10963256 -0.0056288615 -0.035334513
0.12072155 0.07397705 0.0855706 -0.17738092 0.015332952 -0.06678081 0.0019509868 0.011222653
0.13840598 -0.044396468 -0.14512521 -0.0201711 0.120378576 0.14448135 0.06282232 0.007467696
-0.0074348045 0.08921169 0.07550216 0.073828325 -0.1540931 0.100781046 0.10710195 -0.18568698
0.029166467 0.0566103 -0.01403581 -0.06939113 0.043606382 0.017855186 0.19422814 0.06399982
-0.0062039117 0.15989289 0.07384839 0.01616373 -0.124114454 0.14284776 -0.10719122 0.022335012
0.17907906 0.13749978 -0.037318498 0.09311467 0.19861703 0.09152479 0.0044716476 0.054797605
0.09189405 0.26076144 0.031882912 0.20558438 0.017441496 -0.051858883 0.003882761 0.06354022
0.22171561 -0.02274323 -0.12250279 0.12471585 -0.07792063 -0.15249598 0.089757666 -0.038365435
0.056668583 0.058338463 -0.09126932 -0.036137544 -0.053269234 0.26999408 0.024409223 0.09052961
-0.041593302 0.14717385 -0.06933482 -0.00032289402 -0.13883571 -0.048239004 -0.017930277 -0.07995171
0.13867904 0.12849405 -0.16599032 -0.1994128 0.02631656 -0.10530546 0.16781878 -0.092250735
0.11520791 0.027862856 -0.022213958 -0.0017880928 0.06455354 -0.053098083 -0.27570227 0.037287027
-0.024040524 -0.0747214 -0.14978065 0.0037251685 -0.100780696 -0.2576903 0.10267296 -0.29573363
0.16333818 -0.12376668 0.12314344 0.0030596117 -0.13488491 -0.07211896 0.0153242415 -0.21552661
00000000: 3120 b0bd 5365 793e 7d2a 14be 15ef 1f3d
00000010: 7403 5f3e 2bb9 463d 685a 24bd 4111 ab3d
00000020: 4e6c 653c a942 babd eece a13c bb7e 9f3b
00000030: e208 b63c 99c3 233d 07ef 9a3c b012 27bc
00000040: 7d0d 0b3e c7c2 5abd 4db6 b83d 4c90 a7bd
00000050: 9620 8dbb ea8f b5bb f3b6 b33b 0299 073b
00000060: 696d 64bd 83de 373c 1c62 75bb 56ab 303d
00000070: 088b 7d3d 839f 3abd b6b9 ea3d 60c4 ff3d
00000080: 5791 8abd d338 bc3c 8764 40bd 9be0 61bd
00000090: 6846 3e3e 6e17 e2bb 3e57 81bd 4ead 413b
000000a0: 59ac 193e f4bc a43c 8eec a03e 9f93 813b
000000b0: 280a 4b3e 5ce6 4abe 3647 0f3d 941b 06bd
000000c0: 907d a63d 0ea4 883d b24b b3bc fcb2 1abd
000000d0: d46e 2ebe 01fe 183e 0d2a 4ebe ef7e c93d
000000e0: 8a5d ce3d 2bdf 213e d0d8 b2bc cc89 313d
000000f0: 3137 bc3e b11d 9ebe 84b0 d1bd 7669 323d
00000100: 4a30 283d 5e33 28be e5ad bcbc bc35 44be
00000110: 3c83 7f3e db29 9a3d 3baf 91bd f15d e5bd
00000120: 9833 ed3d 3f83 82bd 97d5 313d a42e e83d
00000130: 607e b7bd d76b a13e 1e85 28bd eeab 033d
00000140: a7d8 00be 7622 81bd 705c b13d 0fba 803a
00000150: 568f 2ebe b09e 433b aa67 283c 53cb ddbd
00000160: d07c 0bbe 82bd 2f3d ed29 d83d 9723 f1bc
00000170: b289 8d3d 296d 06be 4894 b7be 075d b13d
00000180: 05c3 ef3c 3e6e cabd f753 123e 4e64 debd
00000190: 23b3 2fbb 0114 353d 49db 8a3e 1d2b 3cbe
000001a0: 346c b73d c6f9 66bd ae08 603c d545 b3bd
000001b0: f52b 5abd bf5f e8bd 6f72 2c3e f30e f53e
000001c0: 6a5d 32be e864 3f3e 3142 073d 1f51 b8bd
000001d0: 3626 bdbd f2e4 44be 794e b3bd edcb 05bd
000001e0: 6888 c83d e96c 443e 73db f9bd 2f2a 3a3d
000001f0: 4856 6f3e e792 8f3d e378 033e 67ad ecbd
00000200: 0dc1 703c cda7 3bbd 3e22 4ebb 9139 893c
00000210: fb85 b63d aa95 9ebc e8ce e43c 5109 16be
00000220: 59f1 8ebd 4d73 aa3d 2f15 f3bd 3446 7a3c
00000230: 1d34 873d 0987 e03d 5072 b8bb ecba 10bd
00000240: dc3c f73d 4881 973d a43f af3d 58a3 35be
00000250: 1037 7b3c 61c4 88bd 41b8 ff3a 38df 373c
00000260: 4cba 0d3e 12d9 35bd b49b 14be dd3d a5bc
00000270: 0b89 f63d ebf2 133e fda8 803d 93b3 f43b
00000280: a99f f3bb 9eb4 b63d e0a0 9a3d 4e33 973d
00000290: 95ca 1dbe 4b66 ce3d 4458 db3d ba24 3ebe
000002a0: 84ee ee3c 34e0 673d 74f6 65bc f01c 8ebd
000002b0: 9b9c 323d 0a45 923c bee3 463e 5612 833d
000002c0: 2f4a cbbb f6ba 233e d33d 973d cc69 843c
000002d0: b82f febd af46 123e 1287 dbbd eaf7 b63c
000002e0: 8060 373e becc 0c3e 48db 18bd e7b2 be3d
000002f0: 4362 4b3e 5971 bb3d e686 923b 7473 603d
00000300: f332 bc3d 8682 853e a897 023d b684 523e
00000310: 78e1 8e3c fb69 54bd ec75 7e3b 6021 823d
00000320: 6b09 633e 0350 babc bee2 fabd 066b ff3d
00000330: da94 9fbd e827 1cbe ded2 b73d 1325 1dbd
00000340: 511d 683d 50f4 6e3d 69eb babd f604 14bd
00000350: d730 5abd aa3c 8a3e daf5 c73c 9767 b93d
00000360: bd5d 2abd beb4 163e 6aff 8dbd 1a4a a9b9
00000370: f32a 0ebe 4396 45bd 84e2 92bc b9bd a3bd
00000380: e101 0e3e f293 033e 5ef9 29be de32 4cbe
00000390: d495 d73c 64aa d7bd b0d8 2b3e f4ed bcbd
000003a0: 20f2 eb3d a540 e43c 0cfa b5bc 705e eaba
000003b0: a534 843d 607d 59bd d928 8dbe 48ba 183d
000003c0: a2f0 c4bc 8907 99bd 1960 19be f521 743b
000003d0: 1c66 cebd fcef 83be 3346 d23d 666a 97be
000003e0: 2042 273e 6379 fdbd a132 fc3d c483 483b
000003f0: 451f 0abe 1bb3 93bd 8712 7b3c 02b3 5cbe

fc1.bias f4 [100]
-0.28688356 0.10741645 -0.115549386 0.33505532 0.28688896 -0.17499483 0.19658281 -0.18925431
-0.08800717 -0.117028534 -0.06983494 -0.16313624 -0.18329883 0.04839342 -0.0017422979 -0.018817253
-0.045210987 -0.10662223 -0.018473962 -0.14487308 -0.053188704 0.17808752 0.29650205 -0.14857413
-0.09697956 0.25995135 0.14764355 -0.04533792 -0.02179826 -0.18549888 -0.120973974 -0.122089
0.18569136 -0.0692708 0.18726031 0.23868231 -0.19032572 -0.12408619 -0.14922784 0.30206913
-0.00655917 -0.1582621 -0.014263813 -0.14605583 0.1822896 0.07436039 0.08067357 0.3492918
0.10189287 0.07462997 0.13382505 0.15905806 0.28705415 -0.1482199 -0.024517767 0.06044131
-0.038976632 0.33790034 0.08720919 0.30638027 0.0145316105 -0.031903803 -0.082669266 -0.23024313
0.22076449 0.13202745 0.14557333 0.075068824 -0.14212818 0.20199127 -0.06423046 -0.019042976
0.27593133 -0.06878275 0.13858558 -0.067335635 0.21784438 -0.055467725 0.22726013 -0.15587835
0.27190992 0.22388904 0.0951646 -0.03447646 0.25646377 0.030417504 -0.17012903 -0.17353708
-0.032486394 0.2423166 0.07145847 0.08976695 0.22273415 0.22102779 -0.042592235 -0.206379
-0.21256854 -0.22733852 0.11677297 0.028975096
00000000: 67e2 92be 28fd db3d 28a5 ecbd 5f8c ab3e
00000010: 1ce3 923e d831 33be 014d 493e e2cb 41be
00000020: 1a3d b4bd a8ac efbd 9f05 8fbd 300d 27be
00000030: b0b2 3bbe 2e38 463d d15d e4ba a426 9abc
00000040: 282f 39bd c15c dabd b556 97bc 9c59 14be
00000050: 66dc 59bd 935c 363e 1ecf 973e d123 18be
00000060: 389d c6bd 5818 853e df2f 173e 41b4 39bd
00000070: 4492 b2bc 6bf3 3dbe 34c1 f7bd cc09 fabd
00000080: e025 3e3e d9dd 8dbd 2bc1 3f3e 2369 743e
00000090: bfe4 42be e620 febd 2fcf 18be cea8 9a3e
000000a0: 4eee d6bb 760f 22be c5b2 69bc a98f 15be
000000b0: 20aa 3a3e 434a 983d 2f38 a53d 60d6 b23e
000000c0: 36ad d03d 99d7 983d 6f09 093e 1ee0 223e
000000d0: c3f8 923e f5c6 17be 7cd9 c8bc 4f91 773d
000000e0: f6a5 1fbd 4601 ad3e bb9a b23d e0dd 9c3e
000000f0: fe15 6e3c 90ad 02bd 814e a9bd dbc4 6bbe
00000100: 1610 623e 3432 073e 2d11 153e afbd 993d
00000110: 0d8a 11be cdd6 4e3e 428b 83bd 0400 9cbc
00000120: df46 8d3e f8dd 8cbd 61e9 0d3e 44e7 89bd
00000130: 9912 5f3e 2032 63bd e1b6 683e 939e 1fbe
00000140: c737 8b3e 2b43 653e a8e5 c23d 3037 0dbd
00000150: 384f 833e 212e f93c 4e36 2ebe b4b3 31be
00000160: 7410 05bd d821 783e d158 923d bcd7 b73d
00000170: 6c14 643e 1c55 623e 3275 2ebd 0455 53be
00000180: 91ab 59be 6ecb 68be ab26 ef3d 2e5d ed3c

out.weight f4 [6, 100]
-0.14781892 -0.18666394 0.20138036 0.441513 0.095007166 -0.1218257 0.20007221 -0.06535488
0.031756107 0.07937684 0.10309976 0.054668147 0.17626765 -0.05961752 0.05776686 0.18908595
0.124469794 0.045819607 0.04088906 0.012049883 0.06866593 -0.25626838 0.30707029 0.067150466
-0.099962324 0.026204264 -0.11681124 0.07305803 -5.0135634e-05 -0.30929264 0.13588989 0.051095817
0.004261812 0.15295152 0.15996853 0.17808382 -0.083511814 -0.15424807 0.2457624 0.17041765
-0.059815343 0.017354358 0.17488128 -0.027441308 0.08310363 0.021352082 0.029923731 0.111331485
-0.11946427 0.15170023 -0.09126566 0.06702451 -0.001677805 0.38659087 -0.19450401 -0.14640208
-0.01920739 0.06008491 0.03351507 0.09861724 0.08684681 -0.048309136 0.0093154125 0.042809937
-0.091227 0.04918805 -0.059639 0.18456452 -0.040487345 0.04090052 -0.087352306 -0.074651815
0.1901555 0.23635678 0.05122862 0.04287522 -0.062626556 -0.15286666 0.18775895 -0.12988168
-0.006872223 0.039823715 -0.045445487 0.020379322 0.14714123 0.106824264 0.09951829 0.08148884
-0.005681147 0.045006134 0.015925387 0.058032475 -0.02130748 -0.0740578 0.12332593 -0.01912399
0.1312492 0.046371464 0.14412735 0.06845778 0.0628044 0.013656303 -0.03542959 -0.12983793
-0.06347244 -0.21499573 0.09071051 -0.12774459 -0.06544167 -0.15716513 -0.014110416 -0.22755428
-0.14303324 0.029862782 0.039100908 -0.11518284 0.039206445 -0.105164774 -0.04753038 -0.06530892
-0.21371698 0.0780285 -0.13569772 -0.1329355 -0.21692893 0.027256351 0.18481678 -0.022426663
-0.12813348 -0.007604263 0.07966573 -0.18399027 -0.18262656 -0.10494624 -0.038524725 0.09323648
-0.050324384 0.06552409 -0.0072450656 0.004302574 -0.034815587 0.071314 0.05626612 -0.06700567
-0.060042135 -0.015902625 -0.14120339 -0.029892502 -0.04824789 0.104927264 0.012326574 -0.17237043
-0.11061547 -0.113219604 0.04786682 -0.15240848 0.089422114 -0.14309776 -0.027924746 -0.21008913
0.0769673 0.06324399 0.11572347 -0.03906593 -0.09444533 -0.0921346 -0.20281267 0.097278535
0.005477195 -0.17661484 -0.122592546 -0.027291548 -0.03892333 0.14200896 -0.18433659 0.120638356
-0.23582745 -4.891316e-05 -0.117647216 0.009051235 -0.043252096 0.017905451 -0.002817353 -0.04737323
-0.28308216 0.08681336 0.06622618 0.06261051 0.11284239 -0.06491324 -0.040966336 -0.024887633
-0.20563293 -0.07361994 0.09024756 -0.20968528 0.046326406 0.10884442 -0.04568582 0.14648314
-0.060564592 -0.056300096 -0.095375866 0.1914817 0.21651353 0.016143182 0.03908516 -0.16439094
-0.056548364 -0.026565172 -0.001396517 -0.27851474 -0.016401162 -0.07926761 -0.03555788 0.09609953
0.09994834 -0.012219239 0.0191528 0.12564054 0.036032982 0.12816006 0.1250558 -0.1298471
-0.107797414 -0.045995798 0.05186822 -0.0671397 0.07462912 -0.059745193 -0.066047244 0.022371482
-0.07290439 -0.04059679 0.047889087 -0.09647523 0.04332135 -0.12976952 0.09523622 -0.0152758965
-0.16310628 0.0013678538 0.13704002 -0.07313359 -0.044136092 0.21062209 0.030318605 0.15572453
0.024310486 -0.0007529177 -0.15971647 0.1801644 0.31455508 0.022289857 0.01361048 0.18781109
00000000: d85d 17be d524 3fbe a736 4e3e fe0d e23e
00000010: 1e93 c23d c17f f9bd bbdf 4c3e c8d8 85bd
00000020: b112 023d 5390 a23d f825 d33d b5eb 5f3d
00000030: 827f 343e 8031 74bd f19c 6c3d bf9f 413e
00000040: 05ea fe3d 57ad 3b3d 497b 273d df6c 453c
00000050: b9a0 8c3d 9c35 83be 5138 9d3e 2f86 893d
00000060: 0cb9 ccbd 53aa d63c bb3a efbd 739f 953d
00000070: ba48 52b8 9b5b 9ebe b826 0b3e d949 513d
00000080: aca6 8b3b 539f 1c3e cace 233e 9b5b 363e
00000090: 3e08 abbd 35f3 1dbe 23a9 7b3e f781 2e3e
000000a0: ef00 75bd ba2a 8e3c 1414 333e 98cc e0bc
000000b0: 3c32 aa3d 90ea ae3c 9d22 f53c c301 e43d
000000c0: afa9 f4bd 4e57 1b3e 7ee9 babd 2544 893d
000000d0: cbe9 dbba 3def c53e 0f2c 47be 6dea 15be
000000e0: d158 9dbc 981b 763d 1947 093d d6f7 c93d
000000f0: bedc b13d cddf 45bd ac9f 183c 7959 2f3d
00000100: 39d5 babd 6979 493d 0648 74bd 7bfe 3c3e
00000110: 0fd6 25bd 4e87 273d c4e5 b2bd 0de3 98bd
00000120: 20b8 423e 8307 723e 1ad5 513d ed9d 2f3d
00000130: 5a42 80bd 1489 1cbe e243 403e b4ff 04be
00000140: 6330 e1bb 311e 233d 0c25 3abd 89f2 a63c
00000150: 31ac 163e aec6 da3d 3fd0 cb3d 9fe3 a63d
00000160: ea28 babb 5a58 383d f575 823c 76b3 6d3d
00000170: 068d aebc 9eab 97bd 4e92 fc3d eaa9 9cbc
00000180: 3166 063e 01f0 3d3d 1f96 133e 9833 8c3d
00000190: 989f 803d b0be 5f3c 9e1e 11bd 3cf4 04be
000001a0: d7fd 81bd d727 5cbe 6fc6 b93d 7acf 02be
000001b0: 4806 86bd e5ef 20be 602f 67bc fd03 69be
000001c0: 4e77 12be cba2 f43c 4628 203d fbe4 ebbd
000001d0: f096 203d a160 d7bd 37af 42bd afc0 85bd
000001e0: a0d8 5abe 68cd 9f3d 58f4 0abe 3e20 08be
000001f0: 9e22 5ebe b648 df3c 9c40 3d3e 1fb8 b7bc
00000200: 6c35 03be 2e2d f9bb c927 a33d f267 3cbe
00000210: 7502 3bbe 0eee d6bd 1acc 1dbd c5f2 be3d
00000220: f120 4ebd 7e31 863d 0468 edbb 9bfc 8c3b
00000230: ca9a 0ebd 130d 923d 4e77 663d 453a 89bd
00000240: beee 75bd 3946 82bc 9f97 10be 1fe1 f4bc
00000250: 949f 45bd 1be4 d63d 66f5 493c e081 30be
00000260: 5d8a e2bd aedf e7bd 0010 443d f810 1cbe
00000270: f122 b73d 3888 12be 70c2 e4bc 9b21 57be
00000280: 08a1 9d3d 1186 813d 6d00 ed3d 9903 20bd
00000290: 8e6c c1bd 11b1 bcbd 20ae 4fbe f839 c73d
000002a0: 0b7a b33b 85da 34be cd11 fbbd 8692 dfbc
000002b0: 126e 1fbd cc6a 113e bbc2 3cbe 3e11 f73d
000002c0: c07c 71be 1b28 4db8 06f1 f0bd a24b 143c
000002d0: 1c29 31bd 74ae 923c 57a3 38bb 6f0a 42bd
000002e0: 25f0 90be 34cb b13d 97a1 873d f039 803d
000002f0: e919 e73d 3cf1 84bd 51cc 27bd 26e1 cbbc
00000300: 7091 52be 0dc6 96bd b6d3 b83d bdb7 56be
00000310: c2c0 3d3d d3e9 de3d 0e21 3bbd adff 153e
00000320: 9412 78bd ee9a 66bd 6c54 c3bd c713 443e
00000330: b9b5 5d3e b53e 843c c317 203d 1956 28be
00000340: 429f 67bd 349f d9bc 560b b7ba 7c99 8ebe
00000350: bb5b 86bc 0f57 a2bd 24a5 11bd d5cf c43d
00000360: b7b1 cc3d 3433 48bc 55e6 9c3c eaa7 003e
00000370: 5297 133d 643c 033e a10e 003e a3f6 04be
00000380: e4c4 dcbd 1766 3cbd c573 543d 8a80 89bd
00000390: 27d7 983d 60b7 74bd c743 87bd 6644 b73c
000003a0: e64e 95bd d248 26bd 5927 443d ce94 c5bd
000003b0: ba71 313d 4de2 04be 350b c33d c147 7abc
000003c0: 5505 27be 8f49 b33a 3854 0c3e 10c7 95bd
000003d0: 0cc8 34bd 51ad 573e b95e f83c 4076 1f3e
000003e0: c926 c73c 745f 45ba b78c 23be 047d 383e
000003f0: 5d0d a13e 3899 b63c 7efe 5e3c 8d51 403e

out.bias f4 [6]
0.06675784 -0.013140618 -0.006241142 0.024492564 0.083332874 0.17794146
00000000: 56b8 883d bf4b 57bc 7e82 ccbb a1a4 c83c
00000010: 6daa aa3d 4936 363e
