models2/HalfCheetah-v2/Random/Dagger_170.pth (torch, 11167 bytes, 4 tensors)

fc1.weight f4 [100, 17]
000000 1a c8 7c bd 2d 94 39 3e 90 21 01 be c9 5f f3 3c
       -0.06171427 0.18122931 -0.1261046 0.02970876
000010 1c ed 79 3e 11 d3 77 3d a4 04 2d bd a8 58 bd 3d
       0.24406856 0.060504023 -0.042240754 0.092454255
000020 bc 5c f3 bb 4f 0c 04 3d 4c e8 68 bd 6a 89 77 bb
       -0.0074268263 0.0322383 -0.05686216 -0.0037771114
000030 67 f7 7a 3c c7 be 25 3d 5c 98 ba 3c 0d 27 97 bc
       0.015317774 0.040465143 0.022777729 -0.018451238
000040 c6 8f 12 3e c1 98 98 bd 42 f6 43 3d 77 96 5f bd
       0.14312658 -0.074510105 0.04784227 -0.054586854
000050 33 10 af bb 30 26 ca 3c 1c 9d 95 3c bc c5 f7 3b
       -0.0053425073 0.024676412 0.018263392 0.0075614136
000060 2a 0c 03 bd 75 01 f5 3b 84 bd be 3d 00 96 56 bc
       -0.031994022 0.0074769803 0.09313491 -0.013097286
000070 31 d9 b5 3b 40 d8 76 bd 7b a7 f9 3d e9 b7 e3 3d
       0.005549573 -0.060264826 0.121901475 0.111190625
000080 62 ab cf bd af d4 17 3d 8e b8 f4 bc e0 c0 3e bd
       -0.101401106 0.037068065 -0.029873159 -0.04657066
000090 af 99 09 3e 76 9e e2 3c f0 8a 97 bd 9b 12 64 bd
       0.13437532 0.02766345 -0.07399547 -0.055681806
0000a0 23 54 f5 3d f8 07 00 bd 7d 1a 5b 3e 09 12 d8 3c
       0.119789384 -0.0312576 0.21396823 0.026375787
0000b0 b3 63 e7 3d f5 e4 33 be 8b c5 44 3c 0b bc 93 bd
       0.11298313 -0.17567809 0.012009989 -0.07213601
0000c0 d1 be 9f 3d 4b bb 06 bc c0 72 f4 bc 62 2e 0d bd
       0.07800067 -0.008223365 -0.029839873 -0.034468062
0000d0 11 13 1b be 8b 6f e2 3d 81 06 30 be f4 68 8d 3d
       -0.15143992 0.110564314 -0.17189981 0.06904784
0000e0 6b 1a 5e 3d 1a 37 fe 3d fa 4d 5c bd 58 4e 79 3d
       0.054224413 0.124128535 -0.0537853 0.06086573
0000f0 74 1a 7f 3e 5b 01 0e be 78 02 09 be de 3b 61 3d
       0.24912435 -0.13867705 -0.13379848 0.054988734
000100 23 23 eb 3c 69 df 33 be c6 da 8d bc e6 58 53 be
       0.028703278 -0.17565693 -0.017316233 -0.20639381
000110 4a 9b 87 3e f5 b1 8e 3d 0b ce ea bd 1d 20 92 bd
       0.26485664 0.06967536 -0.11465081 -0.07135031
000120 b5 82 a3 3d 51 46 d6 bd 7d ff 75 3a 10 5a 98 3d
       0.07983915 -0.104626305 0.0009384079 0.07439053
000130 3c 10 23 bd 60 72 61 3e 98 d0 37 3d 7d 42 27 3c
       -0.039810404 0.22016287 0.044876665 0.010208723
000140 48 16 06 be 05 de d0 bc e3 0d 9d 3d 3f 90 a6 bc
       -0.13094437 -0.025496492 0.07668664 -0.020332454
000150 6c 8e 40 be cb ec b5 3c 56 ac 83 bc ff 0e db bd
       -0.1880433 0.022207638 -0.016073387 -0.1069622
000160 f1 07 ee bd 37 20 15 3d dc b3 c9 3d 46 12 91 bd
       -0.116226085 0.036407676 0.098487586 -0.070835635
000170 b1 4b 8b 3d eb b5 25 be 92 1f 48 be 86 7a aa 3c
       0.06801546 -0.16182677 -0.19543293 0.020810377
000180 f7 c8 cb bb 1d 9b ce bd cd 65 00 3e b5 5f 0d be
       -0.0062190252 -0.10088179 0.12538834 -0.1380604
000190 d7 97 57 3c f8 40 89 3d 77 ee 77 3e 93 48 2d be
       0.01315876 0.06701845 0.24212061 -0.16922216
0001a0 17 63 80 3d c5 9f 0a bd 0c be 3e 3b 36 75 ae bd
       0.062689 -0.033843774 0.0029104976 -0.0851845
0001b0 63 3c 6b bd ca 12 0b be be bf 46 3e fd 98 af 3e
       -0.057430636 -0.13581386 0.19409081 0.34296408
0001c0 fe 18 62 bd 8f b0 03 3e 4b be 54 3d 9f e7 d6 bd
       -0.055199616 0.1286032 0.05193929 -0.10493397
0001d0 85 68 ea bd 86 88 43 be 95 e0 9d bd 3f 40 3a 3c
       -0.11445717 -0.19095048 -0.07708851 0.0113678565
0001e0 4a 3c 77 3d f1 d3 35 3e 36 86 d0 bd 6d 1a 27 3d
       0.06036023 0.1775663 -0.10181849 0.040796686
0001f0 2c c1 72 3e 12 ca ec 3c ea a9 be 3d 26 b3 39 be
       0.23706502 0.028904948 0.09309752 -0.18134746
000200 ed cf f2 3d c0 ae 18 be 8d 58 ab 3c d6 1a 2b 3c
       0.11856065 -0.14910412 0.020916248 0.01044341
000210 3b 71 93 3d 39 fa 1f bc d2 82 56 3c 67 1d f9 bd
       0.071993314 -0.009764248 0.013092713 -0.12163811
000220 0a 40 70 bc 32 e4 07 3d f8 fe 9c bd f1 c3 aa bc
       -0.014663706 0.03317661 -0.07665819 -0.020845385
000230 ea f7 c7 3d cc c0 1d 3e e4 8a d9 bb f4 b7 f6 bb
       0.09764083 0.15405577 -0.0066388715 -0.007529253
000240 71 26 82 3d fc aa d6 3d 6e 30 80 3d d2 66 29 be
       0.06354988 0.104818314 0.06259237 -0.16543129
000250 6c a1 4a 3c ed 57 9c bd 24 0b 2b 3d 83 a6 20 bc
       0.012367588 -0.07633958 0.04175867 -0.0098053245
000260 13 8e df 3d 36 87 ef bb 9c 9d 17 be 81 33 62 bd
       0.109157704 -0.0073098196 -0.14806217 -0.0552249
000270 54 4c 0f 3e 88 64 00 3e 4d bd 43 3d ef be 77 bd
       0.1399396 0.1253835 0.047787953 -0.060484823
000280 75 bb 3d bd 86 9d e6 3c 10 bc 53 3d 1b 50 99 3d
       -0.04632135 0.028151285 0.051693022 0.07485982
000290 0a dd 18 be ea 1c b1 3d fc da 88 3d 47 de 36 be
       -0.1492807 0.08648093 0.06682393 -0.1785823
0002a0 d0 66 8c 3c ca 22 73 3d d5 22 32 3c 85 b4 2f bd
       0.017138869 0.05935935 0.010872562 -0.042896766
0002b0 82 b3 81 bc a0 19 91 3d ee da 0b 3e 63 eb 96 bc
       -0.015832666 0.07084966 0.13657734 -0.018422788
0002c0 62 93 61 bd 70 26 d5 3d f8 4e 35 3d 7a ba 2a bd
       -0.055072196 0.10407722 0.044264764 -0.041681744
0002d0 8e f0 9f bd 55 95 08 3e fc 92 08 be 07 56 a0 3c
       -0.07809554 0.13338216 -0.1333732 0.019572271
0002e0 47 55 04 3e 40 f2 00 3e 52 6e a3 bd 5b af c3 3d
       0.12923156 0.12592411 -0.07980026 0.09554931
0002f0 bb 3a 5a 3e 61 5c 97 3d 86 81 c4 3c f0 e6 4b 3d
       0.21311466 0.07390667 0.023987543 0.049780786
000300 7e eb ad 3d fb b3 64 3e 2d cc c4 3c 57 4b 35 3e
       0.08492182 0.22334282 0.02402314 0.17704521
000310 b7 07 1e bd d0 6f c2 bd 35 89 23 3d bf 6d 02 3d
       -0.038581576 -0.09493983 0.039925773 0.031842943
000320 5a db 58 3e 86 7a 1f 3c 57 f6 e1 bd 03 56 4a 3e
       0.21177426 0.009733802 -0.11033314 0.19759373
000330 c1 f2 8b bd 04 57 0d be a5 82 97 3d 75 c4 bf bc
       -0.06833411 -0.13802725 0.07397965 -0.023409108
000340 d4 7b 21 3d 02 6d 36 3d b6 70 f8 bd 73 c7 4c bd
       0.039424732 0.04453755 -0.12130873 -0.049994897
000350 82 ed e7 bc bf e8 4a 3e 49 ac c3 3d f7 aa be 3d
       -0.028311495 0.19815348 0.09554345 0.09309953
000360 db d3 32 bd 67 c9 21 3e 47 52 16 bd b6 de 45 bd
       -0.043659072 0.15799485 -0.03669956 -0.048308097
000370 0c 6f 2a be f7 c0 9d bd 47 c7 16 bc f7 0d 9c bd
       -0.16643924 -0.07702821 -0.009202785 -0.07619851
000380 b9 de f2 3d 24 09 10 3e 6f 01 1d be 2a 46 2b be
       0.11858887 0.14065987 -0.15332578 -0.16725984
000390 43 26 22 3d 37 07 e2 bd 53 f7 2c 3e 39 cf 9f bd
       0.03958727 -0.11036532 0.16891222 -0.078031965
0003a0 d9 4f ed 3d ac ca 1f 3c f4 0c 7f bc cc cc 9c bc
       0.11587495 0.009752911 -0.015567053 -0.019140624
0003b0 0d d1 99 3d 69 33 66 bd 66 ca 61 be 3c cd d0 3b
       0.075105764 -0.056201372 -0.22049865 0.006372122
0003c0 a8 55 6b bc 5e b2 7c bd 55 bf 1c be d1 a7 76 bc
       -0.014363684 -0.06169354 -0.15307362 -0.015054659
0003d0 8c 59 d7 bd 66 62 8c be 2d 84 b7 3c 94 e7 8f be
       -0.105151266 -0.27418822 0.022401894 -0.28106368
0003e0 ec c6 c1 3d 46 70 c3 bd 04 4c 08 3e fb 60 47 3c
       0.094617695 -0.09542899 0.13310248 0.012169118
0003f0 2e 54 0f be 4d 7d b9 bd 3c 62 09 bd 1f 8d 59 be
       -0.13996956 -0.09057102 -0.03354095 -0.2124524

fc1.bias f4 [100]
000000 a5 a4 8e be 06 25 02 3e 8a 06 1e be f4 43 89 3e
       -0.2785999 0.12709436 -0.15432182 0.26809657
000010 40 ae 4f 3e b2 ef 38 be 48 6c 1f 3e 90 aa 5e be
       0.20281315 -0.18060187 0.1556865 -0.21744752
000020 c3 95 79 bd a1 4e 19 be 75 7d f7 bd f5 39 29 be
       -0.06093384 -0.14971401 -0.12084476 -0.16526015
000030 34 3e 48 be 48 f5 2e 3d 55 11 7e 3b 49 f1 2d bd
       -0.19554979 0.042714387 0.0038767655 -0.042466436
000040 2b 01 63 bd 18 19 fe bd 88 f2 92 bd 90 ef 01 be
       -0.055421036 -0.1240713 -0.071751654 -0.12689042
000050 66 b4 5a bd 87 09 03 3e 78 a7 7c 3e 0d 7c 31 be
       -0.053394698 0.12796603 0.2467326 -0.17332478
000060 22 7f 9e bd 7e 0c 24 3e 77 8f 07 3e e0 3e a2 bd
       -0.077390924 0.1602039 0.13238321 -0.07922149
000070 9f 76 58 bd dd 9d 21 be 00 5a d1 bd 24 6b 0e be
       -0.0528475 -0.15782876 -0.10222244 -0.13908058
000080 59 fd 40 3e 03 74 06 be 7a fc 33 3e c7 3a 1e 3e
       0.18846644 -0.13130192 0.17576781 0.1545211
000090 5d 6e 3f be 69 14 e0 bd 5d f3 16 be 2b 3c 7e 3e
       -0.18694444 -0.10941393 -0.14741273 0.2482764
0000a0 ee 8a 23 3d a5 39 16 be 11 1a e9 bb e6 3e 20 be
       0.039927416 -0.14670427 -0.007113703 -0.15648994
0000b0 03 0c 02 3e c0 1e 53 3c c7 b1 9b 3d c5 27 98 3e
       0.12699895 0.012885749 0.07602268 0.29717842
0000c0 d6 80 30 3e 00 3c e3 3d 9c 9b 31 3e 39 3d d4 3d
       0.17236647 0.110954285 0.17344517 0.1036324
0000d0 8d 40 59 3e 0c 96 37 be 82 87 ad bc 7a ed 99 3c
       0.2121603 -0.17928332 -0.02118278 0.018789995
0000e0 43 ba 36 bd 0c df 90 3e 4e fe 8d 3d 7b 17 80 3e
       -0.044611227 0.2829517 0.069332704 0.25017914
0000f0 dc 71 d3 ba 3c e2 b6 bc 0a 6d ad bd 43 e0 64 be
       -0.0016131955 -0.022324674 -0.08468063 -0.22351174
000100 69 c4 4d 3e 4a 3c 03 3e 28 fb 4f 3d 0f f3 89 3d
       0.20094456 0.12815967 0.05077663 0.06735813
000110 c8 0b 44 be 83 3e 04 3e 62 11 5a bd e7 9f 30 3c
       -0.19145119 0.12914471 -0.053239234 0.010780311
000120 03 30 52 3e 72 89 c8 bd 51 dc cc 3d bd 77 8d bd
       0.20526128 -0.097918406 0.100029595 -0.06907604
000130 77 53 fe 3d 8b 47 63 bd 66 bc 3c 3e bd 43 08 be
       0.124182634 -0.05548815 0.18431243 -0.1330709
000140 ba 6d 37 3e 07 70 21 3e 8e 0f a1 3d 98 a3 47 bd
       0.17912951 0.15765391 0.07864295 -0.04874
000150 7e b4 46 3e 4b dc 33 3d 4b e1 3a be b9 f2 5a be
       0.1940479 0.04391126 -0.18250005 -0.21381654
000160 b6 d7 b1 bc a8 29 55 3e 13 ce a1 3d 67 7b c0 3d
       -0.021709304 0.20816672 0.07900634 0.09398537
000170 4d 98 44 3e 46 38 1c 3e 38 9a 5f bd b8 13 51 be
       0.19198723 0.15255842 -0.054590434 -0.20417678
000180 54 5d 5b be c7 19 5e be c2 14 58 3d 01 a2 64 3d
       -0.2142232 -0.21689521 0.05275417 0.05581856

out.weight f4 [6, 100]
000000 cb 7b f2 bd 32 29 4d be e0 71 10 3e 14 f9 a6 3e
       -0.11840018 -0.20035246 0.1410594 0.32611907
000010 6c 45 07 3d cd 95 a3 bd 07 ce 26 3e cb 5b 83 bd
       0.03302519 -0.079875566 0.1628953 -0.064139925
000020 3c b5 cf 3c 19 05 16 3c 73 c5 ef 3d 89 e0 6c 3d
       0.025354974 0.009156489 0.11707582 0.05783132
000030 91 d7 47 3e 84 f2 77 bd 64 7b 64 3d ae 78 34 3e
       0.19515826 -0.060534015 0.055781737 0.1762416
000040 03 52 06 3e f6 a7 88 3c ed c0 19 3d e8 cd b4 3b
       0.13117222 0.016681653 0.037537504 0.00551771
000050 3b 0f d8 3d a3 22 8e be 4f 5f 80 3e 88 48 6e 3d
       0.1054978 -0.277608 0.25072715 0.05817464
000060 84 98 d5 bd a0 65 e5 bc ba a9 e9 bd 4d f3 6b 3d
       -0.10429481 -0.02800256 -0.11409326 0.057605077
000070 92 55 bd 3b 06 83 96 be f0 7b e2 3d 01 6f 8a 3d
       0.005778023 -0.29396838 0.110587955 0.067594536
000080 0e 91 58 bc f9 cc 04 3e 2c 17 08 3e 8e 29 2c 3e
       -0.0132181775 0.12968816 0.1329009 0.16812727
000090 df 50 ba bd 56 ab 0b be e6 9e 7f 3e c6 98 17 3e
       -0.09097456 -0.13639578 0.24962959 0.14804372
0000a0 94 54 88 bd 8b 85 58 3c ef a6 2d 3e 2f b3 a7 bc
       -0.06656757 0.013215433 0.16958211 -0.020471184
0000b0 29 1d 84 3d c3 cc 8d 3b 32 a6 c2 3c c8 3e 80 3d
       0.06450874 0.004327388 0.023760889 0.062619746
0000c0 cb 18 09 be c1 47 14 3e 97 1c 9f bd c2 22 65 3d
       -0.13388364 0.14480497 -0.07769125 0.05594135
0000d0 9c ac e9 bb f3 58 c3 3e 90 5f 40 be 90 fd 17 be
       -0.0071311723 0.381538 -0.18786454 -0.1484282
0000e0 41 72 0d 3b 64 6c dc bb 35 87 0e 3b 67 72 b0 3d
       0.0021582993 -0.0067267884 0.002174807 0.086155705
0000f0 f4 7e a2 3d 58 5d 38 bd 2b 5c 25 3c 29 66 55 3d
       0.07934371 -0.045010895 0.010092775 0.05209938
000100 7e 7b 9b bd 2a 32 87 bb 08 88 93 bd de 7f 2a 3e
       -0.07591914 -0.004125853 -0.0720368 0.1665034
000110 49 a0 12 bd 36 2b e1 3c c3 e8 a1 bd e6 59 8b bd
       -0.03579739 0.027486425 -0.07905724 -0.06804256
000120 7c 3e 2e 3e be 3b 4d 3e b6 d8 ac 3c cb 0e 0b 3d
       0.17016023 0.20042321 0.02109943 0.033949655
000130 e1 d4 94 bd 8a 81 fc bd 59 b3 12 3e d7 71 db bd
       -0.07267166 -0.12329395 0.14326228 -0.107150726
000140 bf f9 a3 bd c2 d8 ea 3c 6b f4 e8 bc b0 e1 0a bd
       -0.0800662 0.028667811 -0.02843686 -0.03390664
000150 fa 80 01 3e de 7a cd 3d f4 9c cf 3d cd 61 74 3d
       0.12646857 0.10033201 0.10137358 0.059663583
000160 ad 26 8d 3c 34 9f 4b bb 81 44 3c bc 7d 6f f6 3c
       0.017230356 -0.0031070234 -0.011490942 0.030082459
000170 51 1e 74 bd 4b d2 a3 bd 7f ad cd 3d 4e 2d 60 bc
       -0.059599224 -0.079990946 0.100428574 -0.0136826765
000180 59 b7 0a 3e 9a 96 4b 3d 52 df fc 3d 1a 37 87 3d
       0.13546504 0.04970417 0.123472825 0.06602307
000190 12 ab 8b 3d 9b 7d d7 3c 90 2e 3c bd 73 46 d0 bd
       0.068197384 0.02630501 -0.045942843 -0.10169687
0001a0 ad ef 5c bd 08 0e 5e be ee 43 bf 3d 2a d8 e9 bd
       -0.05393951 -0.2168504 0.093391284 -0.11418183
0001b0 15 8e 98 bd 43 77 1a be 54 96 4a bc 6a 44 5f be
       -0.07448975 -0.15084557 -0.012364943 -0.21803442
0001c0 cd 30 11 be 65 4d 0e 3d 90 09 31 3d 0e 00 d5 bd
       -0.14178772 0.034741778 0.04322201 -0.10400401
0001d0 af 82 20 3d fa 51 e0 bd 82 4e e0 bc 2a 4b 8e bd
       0.03918713 -0.10953136 -0.027381185 -0.0694793
0001e0 fe 9c 59 be 55 2c bf 3d 86 e1 02 be b2 9e 08 be
       -0.21251294 0.093346275 -0.12781343 -0.13341787
0001f0 f3 fb 64 be 06 69 3a 3d eb e3 44 3e 96 76 b8 bc
       -0.22361736 0.045510314 0.19227569 -0.022517484
000200 cb 9e eb bd 7b e1 68 ba 97 ff 95 3d fb 9a 37 be
       -0.11504897 -0.0008883697 0.073241405 -0.17930214
000210 7e de 21 be 01 bb d1 bd af ce 02 bd 0b a2 d3 3d
       -0.1580753 -0.10240746 -0.03193539 0.103336416
000220 4b 0c 34 bd 7f fa 81 3d a1 7d 9a bb 19 61 20 3c
       -0.043957036 0.063466065 -0.004714683 0.009788775
000230 67 df 17 bd 84 43 8f 3d 5c 5e 70 3d 77 93 87 bd
       -0.037078287 0.069952995 0.058683738 -0.066199236
000240 f7 e9 5c bd f9 d1 d9 3a 72 7c ef bd 7b 49 e1 bb
       -0.053934064 0.0016618363 -0.11693658 -0.0068752146
000250 00 2f 37 bd 38 8e e0 3d 69 a6 a4 3c 32 76 28 be
       -0.044722557 0.10964626 0.020098882 -0.16451338
000260 2a 9e 9e bd 47 37 ea bd 74 d9 40 3d ff 10 11 be
       -0.07745011 -0.114363246 0.04708238 -0.1416664
000270 ba 3c c0 3d d3 0d f4 bd 10 b0 be bc 8d 24 3d be
       0.09386583 -0.11916699 -0.023277313 -0.18470974
000280 19 52 9f 3d 16 97 88 3d b9 da ea 3d 26 b3 16 bd
       0.07779331 0.06669442 0.11467499 -0.036791943
000290 79 6a 8b bd e9 12 ae bd e3 3f 46 be db 60 ce 3d
       -0.068074174 -0.084997006 -0.19360308 0.100770675
0002a0 7f 56 1e 3c d4 60 2a be 62 2b f9 bd 8f 8d a1 bc
       0.009664177 -0.166385 -0.12166478 -0.01972082
0002b0 2b 70 00 bd b9 96 11 3e f9 4d 2c be 8d da fa 3d
       -0.03135697 0.14217652 -0.16826619 0.122487165
0002c0 8a dc 5d be d9 de 28 bb 97 fa df bd a6 f9 e6 3b
       -0.2166616 -0.0025767593 -0.10936468 0.0070488034
0002d0 02 c5 a0 bc 14 7f ef 3c d1 39 01 3a 0a cd 54 bd
       -0.01962519 0.0292354 0.0004929575 -0.051953353
0002e0 86 e3 87 be fb 04 b0 3d 06 e7 8e 3d 51 56 86 3d
       -0.26540774 0.085947 0.06977658 0.06559432
0002f0 b3 a4 e7 3d bd fe 39 bd 7d 98 f8 bc b9 46 37 bc
       0.11310711 -0.045408953 -0.03034615 -0.011186295
000300 a9 0d 48 be be 5a 78 bd e1 be d0 3d 33 8a 54 be
       -0.19536461 -0.060633413 0.10192657 -0.20755844
000310 a0 8a 33 3d 93 28 dd 3d 37 ae 31 bd 99 9c 16 3e
       0.043833375 0.107987545 -0.043379035 0.14708175
000320 ad d9 89 bd 52 33 86 bd 29 a7 a3 bd 8e 11 13 3e
       -0.067309715 -0.06552757 -0.07990868 0.14362165
000330 1c 5b 3a 3e 5a 38 1f 3c 70 9e e0 3c 06 b1 32 be
       0.18198818 0.009718025 0.027419299 -0.17450342
000340 34 6b 70 bd 1e 1b ba 3c 86 5d 08 bd 5b 90 8c be
       -0.058695987 0.022718009 -0.033292316 -0.27453884
000350 21 8a b6 bb a4 73 ce bd 21 83 17 3c 41 b6 a4 3d
       -0.0055706655 -0.100806504 0.009247572 0.08042575
000360 7e 40 83 3d c4 07 5b bb 66 2f b2 3b 87 23 dd 3d
       0.06408785 -0.0033421377 0.0054377792 0.10797792
000370 8a 16 1b 3d 3a 55 e1 3d f9 3a ec 3d f7 28 dc bd
       0.03786329 0.11002584 0.11534686 -0.10750001
000380 6e 1c d6 bd d1 4f 6a bd 67 2e 81 3d ed 1f 61 bd
       -0.10454641 -0.057205025 0.06307679 -0.054962087
000390 e3 75 40 3d 79 f9 59 bd 5a 50 91 bd 8c 86 ca bb
       0.046987426 -0.05321643 -0.07095404 -0.00618059
0003a0 01 22 5c bd 38 e0 64 bc 8b a1 2f 3d 0b c5 b0 bd
       -0.053743366 -0.013969474 0.04287867 -0.08631333
0003b0 a3 01 3f 3d 85 cd f2 bd d1 a8 c2 3d 4a 7b 18 bd
       0.04663242 -0.11855606 0.095048554 -0.037226953
0003c0 24 aa dd bd 58 49 c1 3b ce 6d 03 3e 77 96 82 bd
       -0.108234674 0.005898636 0.12834856 -0.06376355
0003d0 0d 50 55 bd 90 72 3d 3e 38 67 01 3d d2 b3 cd 3d
       -0.052078295 0.18500733 0.031592578 0.10044064
0003e0 55 4f bf 3c 98 a5 9f 3c 9e 59 09 be 40 68 3c 3e
       0.023353258 0.019488141 -0.13413092 0.18399143
0003f0 dd ee 8a 3e 54 33 96 3c 1f 51 e5 3c ec a4 31 3e
       0.27135363 0.018335022 0.027992783 0.17348069

out.bias f4 [6]
000000 98 bd 00 3d f4 93 fc 3b fe 94 3f bd ab e6 8c bc
       0.03143081 0.007708067 -0.04677295 -0.017199835
000010 75 da 72 3d 3e 15 15 3e
       0.059290368 0.14558885
