models/Ant-v2/Random/Dagger_120.pth (torch, 49503 bytes, 4 tensors)

fc1.weight f4 [100, 111]
00000000: ea51 073e 5ffe e7bb 0fa5 5e3e 5778 d33d
00000010: ccdd 04bc 67c0 43bd fcd1 f3bc 3839 f93d
00000020: aa06 ea3c 662f 4e3c 15bf 1e3e f8a6 3a3e
00000030: f766 713d 194b 07bd 3487 93bd 34ac 8d3d
00000040: e69c fa3d 2dff 0d3e 986d 993d ae0f 6c3a
00000050: eaa2 7d3d a367 883d 7943 06be b64e 84bc
00000060: c6b4 973d 420a 1b3c f691 0f3e 279c 1e3b
00000070: e3c6 e5bd 9c54 063e 2fe0 91bd e942 86bd
00000080: 56a7 a1bd e2d9 fcbd ec48 90bd 5bb8 403d
00000090: 205b 4a3d cf4e 833c c0bb eebd 457c cd3d
000000a0: 0b94 043d eb24 e0bd 5357 db3c eff0 863c
000000b0: 4fb3 ddbd f2ec 3a3d 54ec b6bd cd5c 79bd
000000c0: 63f8 f23d e8fd 5a3e a744 a93d 7a40 d2bd
000000d0: ea66 753d 3734 333e b2b4 6ebc e7e1 873c
000000e0: 45d6 f43d 08d9 a4bb 93ad a13d ab3f fcbc
000000f0: 26f0 123d f348 e73d 3b17 1fbe 3a40 d4bd
00000100: fab5 a83d afcf 63bc 98da 06be f541 9c3c
00000110: fc8d 3a3c b0d6 053e ec29 29be 57d0 2cbd
00000120: 7175 38bd b369 53bd 975c 5ebd 0e6f 353d
00000130: 20a4 f6bd accb 40be 3fbc ca3b c5cb 0bbe
00000140: 8fd1 6e3c f7b6 cf3d 41c1 853c a148 013e
00000150: 6bda 73bd b2fa d03a 927c a73d a761 bbbd
00000160: 2198 3dbd 1144 ac3c fad1 69bd f4b7 1dbe
00000170: f6f4 10bd 6b56 69bc 429b e63d d7f5 463c
00000180: 98bd 3dbd 9732 193d 6b72 8c3d 2a09 ebbd
00000190: 3fbb 8e3e af2d 2abe 7b9d 2b3d ee76 97bd
000001a0: 2343 90bd 9bba 653d a225 71be 05c0 66bd
000001b0: 7dfa f7bd ebb3 f13d d207 febc 2adf d6bd
000001c0: 7efa 683d 2cbc afbd d3e3 533d 9914 adbe
000001d0: 6c63 053e 46cc 95bd 319e 253e 5296 68be
000001e0: 110b acbd 7cef f83d 85d2 49be a80e 94bc
000001f0: d165 48be 6bfa 8b3b 6cc7 883d c0b2 d7bd
00000200: 7e02 523d fe6b d53d e802 033d 603d 01be
00000210: 0f29 29bd 0857 4b3c 054a 79bc b077 a93d
00000220: 27f5 eb3d ecbf 993d 3e31 85bd 2347 2dbe
00000230: 4c91 b63d 4627 173c 4ea7 ccb9 2663 3ebd
00000240: efde 19be 67a7 26bd 8202 6c3e 63bd 5d3c
00000250: 6a5f e7bd 8a4a 8fbb 3b99 86bc a962 38bd
00000260: d86e 71bc 074e 45bd 4b86 52be 12b1 19be
00000270: fa4f 96bd 7220 98bd e85a 723d 5b83 3d3d
00000280: 5d2f b73c 2299 dfbb 1430 373e 3ff0 5e3e
00000290: 9b14 4abd 4f1a 1dbe e28a 033d 23bf ce3c
000002a0: 571a e33d 032d 1ebc 5507 31be 9b37 04be
000002b0: 4a56 17be e76f 0d3e f933 05bd b36c 0e3e
000002c0: d612 8abc d2ee fcbd 9783 c0bd 09ed 2dbe
000002d0: 73c5 cabb 43e0 a3bc 6a45 003e 9337 91bd
000002e0: 9b53 773d d7db a1bc d36f 213d 0b28 743c
000002f0: 5724 bb3d 487f fa3b 2bf6 1abe 2b20 283d
00000300: c94f 85bd 8fe9 0a3d 553c e5bd 7d2a fc3d
00000310: 67dc ac3d a3a7 e73d 23cf a43d 6abb edbd
00000320: 933b e6bc ba34 d4bd a42f 26bb 3b90 223e
00000330: a3a7 a43d eb00 fabd cfd3 0e3e dd98 a53a
00000340: 170c 66bd 13ea c9bd e385 70bc e23e 12bc
00000350: f245 603e e21d 363d d291 f7ba 1939 283d
00000360: f71c 443c a1f0 ac3b 5fef 893c c78b 2e3c
00000370: 96ef 153e 478d 363d 587e fc3d 45da cbbd
00000380: 6964 d83c be0f e03d b67f fcbc 84f2 db3d
00000390: fe27 bfbd 5f81 533e e7ce 9c3d a749 66be
000003a0: c4f8 53be 8e0d fbbd 73e0 743d 102e c03d
000003b0: ba0d 90bc ce95 733e 8493 b8bd 6e5a c03d
000003c0: 6aa7 483d 3687 77bc bb89 d43c c301 03bd
000003d0: 5e05 fd3a b839 3a3c 9d72 3e3d b73f f8bd
000003e0: 1347 0f3e b571 9ebd b7c0 1abd 9776 d23d
000003f0: 8b9b 0d3e 041c bf3c 3f1b 713d bf69 4d3e
0.13214841 -0.007079884 0.21742652 0.103256874 -0.008109521 -0.04779091 -0.029763214 0.12169117
0.02856763 0.012584543 0.1550258 0.18227756 0.058936086 -0.033030603 -0.07203522 0.06917611
0.12236957 0.13866873 0.074916065 0.0009005022 0.061922945 0.06660392 -0.13111676 -0.016150814
0.07407527 0.009462895 0.14020523 0.002420196 -0.11219575 0.13118213 -0.07122838 -0.06555731
-0.07893245 -0.12346245 -0.07045159 0.047050815 0.04940331 0.01602879 -0.11656904 0.10033468
0.032367747 -0.109445415 0.026775038 0.016472308 -0.10825216 0.045636125 -0.08931795 -0.060879517
0.11863782 0.2138592 0.082650475 -0.10266204 0.0599126 0.17500387 -0.014569448 0.01658721
0.11954931 -0.005030755 0.07894435 -0.030792078 0.035873555 0.11293211 -0.15536205 -0.10363813
0.08237834 -0.013904496 -0.13169324 0.01907442 0.011386391 0.13070178 -0.16519898 -0.042190876
-0.045033876 -0.051614475 -0.05428752 0.044295363 -0.12043023 -0.18827695 0.0061869915 -0.1365195
0.01457633 0.1014232 0.016327502 0.12625362 -0.05953447 0.0015943854 0.08178057 -0.09149485
-0.04628766 0.02102855 -0.057085015 -0.15402204 -0.035389863 -0.014241795 0.11260082 0.012143574
-0.04632339 0.03740176 0.06857761 -0.11476357 0.27877232 -0.1661899 0.041898232 -0.07395731
-0.07044055 0.056086164 -0.23549512 -0.056335468 -0.12108324 0.11801895 -0.031009588 -0.10491784
0.056879513 -0.08580813 0.051730942 -0.33804777 0.13026208 -0.07314353 0.16173626 -0.22713593
-0.08400548 0.12155053 -0.19709213 -0.018073395 -0.1957009 0.0042717955 0.06678662 -0.10532141
0.051271908 0.104209885 0.031985193 -0.12621069 -0.041298922 0.012410887 -0.015215402 0.08274782
0.115213685 0.07507309 -0.06503533 -0.16921668 0.08914432 0.009225672 -0.00039034564 -0.046481274
-0.15026449 -0.04068699 0.23047832 0.013533923 -0.11297496 -0.0043728994 -0.016430488 -0.045015965
-0.0147359 -0.048170116 -0.20559041 -0.15008953 -0.07339473 -0.074280635 0.059168726 0.04626785
0.022361452 -0.006823675 0.17889434 0.21771334 -0.049336057 -0.15342067 0.03211487 0.025237625
0.11089008 -0.009654286 -0.17287953 -0.12911837 -0.1477901 0.13812219 -0.032520268 0.13908653
-0.016854685 -0.12350239 -0.09400099 -0.16984953 -0.0061880886 -0.020004397 0.1252648 -0.07090678
0.060382467 -0.019758148 0.039413285 0.014902125 0.09137791 0.0076445676 -0.15132968 0.041046303
-0.065093584 0.033914145 -0.11193148 0.123127915 0.08440476 0.11311271 0.08047321 -0.11608012
-0.02810458 -0.10361619 -0.0025357986 0.15875332 0.08039787 -0.12207206 0.13947986 0.0012634058
-0.056163874 -0.09859099 -0.014680359 -0.008926125 0.21901682 0.044462092 -0.0018888062 0.041070078
0.011969796 0.0052777086 0.016837774 0.010653443 0.14642176 0.044568326 0.12328786 -0.09953741
0.026415067 0.109405026 -0.030822616 0.107396156 -0.093338 0.2065482 0.07656651 -0.22489034
-0.20700365 -0.12258445 0.059784364 0.09383786 -0.01758467 0.23787615 -0.090125114 0.09392248
0.048987783 -0.01510792 0.025944581 -0.031984102 0.0019303968 0.0113663 0.046496022 -0.12121528
0.13991956 -0.07736532 -0.037781443 0.102765255 0.13828866 0.023328789 0.058863875 0.2005987

fc1.bias f4 [100]
00000000: c303 543d c989 5e3d f5ae 0e3d df1e f43d
00000010: b13e 6d3d 6a0d d3bc c253 7fbc 66a3 013d
00000020: 5378 7c3c 0071 433d b292 03bd 5c62 693d
00000030: c067 1bbd e955 db3c e784 3a3d 0afc aebc
00000040: 7404 04bc d7c5 893d 2f91 1fbd 07ec ad3d
00000050: d284 3f3d 7743 283e c5c9 f43d 0f08 a9bd
00000060: df26 afbc c085 f83d 15e7 503c 0809 c63d
00000070: c131 e4bc da43 c93d 03a3 c13d 6022 f43d
00000080: 5506 de3d e211 87bb 7ff0 813d 061d 8a3c
00000090: e05d 84bd 4dec a93c 5cb1 9dbd 06d8 0ebd
000000a0: e86c c63d e99d c83d 8d4b 31bd 5b3a 5bbd
000000b0: 115f 96bc b2e4 763b 084d 603c c826 253a
000000c0: ab39 653a 55a7 e33d 2828 adbd 5e7e e83c
000000d0: c767 1f3e 8afb ce3c 3eea fe3d 9340 853d
000000e0: 15fe ee3d 4738 80bc 6f3b af3c 701f 8fbd
000000f0: 6a2b 7cbd 7a94 7bbc a5e1 25bd c076 1ebd
00000100: 3e21 153e 0288 263b 4abb d93b 48cb 76bd
00000110: 4d95 003c f24d 99bc 6d8e af3d 8e37 bd3d
00000120: 7d6a 64bd cc43 0d3d 755d 863c 5e2e 05be
00000130: a03a bcbd f387 5dbd 0cb1 0cbe 3a44 6cbd
00000140: 19b6 3dbd 5977 1abd 5437 86bd 08b5 683d
00000150: 5086 34bb a337 07be 684c abbd 4099 b03d
00000160: 1aff 85bd 08a8 423d 5eee eb3d a694 c03c
00000170: ed8d da3d f6e0 bdbc 847a 8b3c d07e 02bd
00000180: bb5c e7bd a081 c23b 055d d33d d0ce 88bd
0.0517614 0.05433062 0.03483482 0.11919951 0.057921115 -0.025763232 -0.015583934 0.03164997
0.015409547 0.047715187 -0.03212232 0.05697857 -0.03794074 0.026774364 0.0455369 -0.021360416
-0.008057702 0.06727188 -0.038956817 0.08492284 0.046757527 0.16431986 0.11952547 -0.0825349
-0.02138084 0.12134886 0.012750407 0.09669691 -0.027855756 0.09827395 0.0945492 0.11920619
0.108410515 -0.004122005 0.06344699 0.016859543 -0.06463218 0.02074256 -0.07699844 -0.034873985
0.09688741 0.09795744 -0.04328494 -0.05352245 -0.018355878 0.0037672934 0.013690241 0.00063000293
0.000874425 0.111159004 -0.08454925 0.02838057 0.15566932 0.025266428 0.12447022 0.06506457
0.11669556 -0.015651835 0.021390645 -0.06988418 -0.06156484 -0.015355224 -0.040498395 -0.038687468
0.14563462 0.0025410657 0.006644641 -0.060252458 0.007848096 -0.018713925 0.085720874 0.09239112
-0.055765618 0.034488484 0.016401986 -0.13005969 -0.09190869 -0.05408473 -0.13739413 -0.057682253
-0.04631624 -0.037711475 -0.06553522 0.05681327 -0.0027545877 -0.13204817 -0.08364183 0.0862298
-0.065427974 0.04752353 0.11520074 0.023508381 0.106716014 -0.023178559 0.017026193 -0.03185922
-0.11296984 0.0059358627 0.103204764 -0.06680071

out.weight f4 [8, 100]
00000000: 0e3d 0dbe 506e 8d3c c9e6 d73c 5639 59bd
00000010: 4b93 113d a35c 7d3b 8016 c7bd 1316 d13c
00000020: 70d7 bd3c a95f 723d c00d bebd 3cab 553e
00000030: 4928 673d 8558 38bd 6514 fc3d 9713 be3d
00000040: 994d f8bd bad7 4a3e 3a25 2a3d b29f cabd
00000050: 1a43 ecbd 434e 89be e26d 39bd 1546 f4bd
00000060: e691 9e3d daaf e4bd e5c8 71bd 3ab9 c53d
00000070: 555a 86bd d422 ef3d f195 35bd cdf7 803d
00000080: 76d0 9e3d 783a aabd 2a90 6f3e 6760 08bd
00000090: eb88 bebd 0997 1dbd 222d aa3d 87eb 663c
000000a0: 88c0 1d3e da4e e7bc ed49 1bbd 709d 59be
000000b0: b52f 0bbd 6975 2e3d 9910 babd 40ca 243b
000000c0: 3401 223e 129d b23d 6357 553e b9d9 d23c
000000d0: df0d bbbd 7af5 01be ec74 c5bc 7d04 803d
000000e0: 7832 02be 07f1 7f3d a269 af3c 890b 0a3e
000000f0: 900a 6b3d 29a7 03bd 5cef f2bc 5f62 c53d
00000100: e45c 81bd 5d02 01be e601 9bbd 2e2f 263e
00000110: 864b 473d fc9f b8bd b6da 7bbc dcf6 f93d
00000120: 7d13 0a3e 1dfd 2cbe bcee eebd 12e6 333c
00000130: c0e7 983c 8622 453d 5b08 95bd a060 7abb
00000140: 984c 843d b961 c83b 17d6 573d e840 01be
00000150: 49e6 61bd 5e95 0f3d 3dc4 773e 208e a33c
00000160: d8c2 1e3d 11b5 a3bd 3ad0 e73c 22ec d43d
00000170: 7f35 46bc e913 adbd be80 ecbd c5d2 433d
00000180: 79f1 b6bc 4ad2 b13d 6c8e 1bbd a70c 82bd
00000190: bf00 9e3d 7c0f bebd 57cc 7b3d 5bff 39bc
000001a0: e05b 203e eeb9 babd c81d 0cbe f9b4 a4bc
000001b0: c1a1 89bd 38f4 713e 63a4 4a3d 0767 253d
000001c0: fc08 e63d 8335 cfbc 44b1 30bd c2fe 1a3c
000001d0: 7e7e 96bc 8e66 323c abd4 9c3c 10e5 483d
000001e0: bfce ad3d 2b80 2a3e 40f1 e33d d646 863b
000001f0: 0ef2 25bc 9fd3 7bbd 6ebe 673d 02b1 2fbd
00000200: 7008 96bc 0983 dabc 43de 07be 9b8d c1bd
00000210: 5d29 7dbd 9473 e03d 4d32 f5bd 8a81 92bb
00000220: 8d3c acbd c70d 2f3c 8024 9bbd 5b17 6abd
00000230: 8232 71bd 9737 5d3d d12c 27bd 3a06 153c
00000240: 681f 193e 9ace fcbc 4cde 90bd 84e6 6f3d
00000250: 99cb 903b 2a36 32be 70e5 9f3d 77fc 5bbc
00000260: 6720 60bd 76b5 e83b 392a f6bb fcd9 883d
00000270: eb6b acbd 08a5 843d 19fe f93d 5be1 89bd
00000280: 804e 173e c274 0d3d 4044 a8bd c561 30bd
00000290: 2dbe 43be d48b ecbd ab6d fd3d 93e8 ae3c
000002a0: a2cf e93c 863b 35bd 0e81 7dbd 1c0c cb3c
000002b0: 865d 143d c9f1 933d 92f5 82bb c61e bf3d
000002c0: bce6 863d 191f 133d bdbc e23c c804 513d
000002d0: 5617 cc3c 12a4 213c c210 443d 68a3 2dbd
000002e0: dd1b ecbd a5e4 123d c8dd 64bb 9b89 493e
000002f0: 35b3 6e3d 979a 593d 3aee 1dbd 5a49 0abd
00000300: f6c5 4fbe 1a04 86bd 5ffc f0bd ccb8 1cbe
00000310: de19 f5bc 242d 553c bae1 babd 839b a1b9
00000320: b286 1f3b cf63 6f3d 4611 62bc dc03 973d
00000330: cb80 4dbd 357c a93d e802 f0bc 5cb8 23bd
00000340: 875d 84bb 4c60 c33d 621f e7bb 35d5 7dbd
00000350: b4c8 31be 7fb2 9ebd b81b 99bd 11c5 1e3d
00000360: 0f11 fdbd 466e db3c c980 543d 8493 463d
00000370: d3d8 f43d 4c3b 513e 2b2e 2ebe 8318 bbbd
00000380: add0 843d f862 9c3d 5dcf 03ba b0c3 06be
00000390: b0cc 16bd e61e 2cbe c682 823d 295b 87bb
000003a0: 9718 853d 1867 8bbc c39a 8ebb 39aa 4f3d
000003b0: a28c 44bd 3d41 9eba 29fe b0bd 7dbf f8bd
000003c0: a358 fb3d 8f7b 39bd cb5a c83d 0a49 4cbd
000003d0: ede3 693d ac09 07be a98d f03d 97dd d13c
000003e0: 0a59 e5bd 175d f73d 5dd9 85bd 156a fb3c
000003f0: 5140 83bc f0f5 f23c 0762 e93c 7adc c4bd
-0.13792822 0.017264515 0.026355164 -0.053033195 0.03554086 0.0038659952 -0.097210884 0.025523221
0.023174018 0.05917326 -0.09279966 0.20866102 0.056434903 -0.045006294 0.123085774 0.0928108
-0.121241756 0.19808856 0.04153941 -0.09893741 -0.11536236 -0.2681752 -0.045270808 -0.119274296
0.07742672 -0.111663535 -0.05902948 0.0965447 -0.06560198 0.11676565 -0.04433245 0.06297264
0.077546045 -0.08311933 0.23394838 -0.03329506 -0.09303459 -0.038474116 0.0830939 0.01409424
0.15405476 -0.028235842 -0.037912298 -0.21251464 -0.033981044 0.04259244 -0.09085197 0.0025144964
0.15820771 0.08721365 0.20834117 0.025738584 -0.09133505 -0.12691298 -0.024103604 0.06250856
-0.12714565 0.06248572 0.021412674 0.13480963 0.05738312 -0.03214184 -0.029655151 0.096379034
-0.063165456 -0.12598558 -0.075687215 0.16228935 0.04865601 -0.090148896 -0.015371969 0.12205288
0.13483997 -0.1689343 -0.11666629 0.010980146 0.018665195 0.048128627 -0.07276984 -0.0038204566
0.064599216 0.006115165 0.052694406 -0.12622416 -0.055151258 0.035054557 0.24195953 0.019965231
0.038760036 -0.0799352 0.028297532 0.10396601 -0.012097715 -0.08451063 -0.11547993 0.047808427
-0.02233194 0.086826876 -0.03797762 -0.063500695 0.07714986 -0.09280297 0.06147417 -0.011352385
0.15660048 -0.091174945 -0.13683236 -0.020105826 -0.06720305 0.23628318 0.049473178 0.040381458
0.112321824 -0.025294071 -0.043137804 0.009460153 -0.018370863 0.010888709 0.019144377 0.049046576
0.08486699 0.16650455 0.11129999 0.0040978 -0.010128511 -0.061481114 0.056578092 -0.042893417
-0.01831457 -0.02667381 -0.1326838 -0.09450837 -0.061807025 0.10959545 -0.11972485 -0.0044710087
-0.08409987 0.010684437 -0.07575321 -0.05715118 -0.05888606 0.054008093 -0.040814225 0.009095723
0.14953387 -0.030860234 -0.0707365 0.058569446 0.004418802 -0.17403474 0.078074336 -0.0134268915
-0.0547184 0.00710171 -0.0075123576 0.06682202 -0.08419021 0.0647679 0.122066684 -0.06732436
0.14776039 0.034535177 -0.08216143 -0.04306199 -0.19115515 -0.115501076 0.12374433 0.021351134
0.02854139 -0.04424622 -0.061890654 0.024786048 0.036222003 0.07223851 -0.0039965594 0.093320414
0.06586978 0.03591833 0.027677888 0.05102995 0.024913471 0.009865778 0.047867544 -0.042392164
-0.11528752 0.035862584 -0.003492223 0.19681399 0.058276374 0.053125944 -0.03855727 -0.03376136
-0.2029036 -0.06543751 -0.11766886 -0.1530487 -0.029919561 0.013011251 -0.09125085 -0.00030824178
0.002434176 0.058444794 -0.013798064 0.07373783 -0.050171655 0.08275644 -0.02929826 -0.03997074
-0.0040394696 0.095398515 -0.0070533017 -0.06197091 -0.17361718 -0.07748889 -0.0747599 0.038762156
-0.12356769 0.02678598 0.05188063 0.048480526 0.119554184 0.20432776 -0.17009799 -0.091355346
0.06485114 0.07636064 -0.0005028153 -0.13160586 -0.0368163 -0.16808662 0.06372599 -0.00413074
0.06498831 -0.017016932 -0.004351945 0.050699446 -0.04798568 -0.0012073886 -0.08642227 -0.121458985
0.122727655 -0.04528385 0.097829424 -0.049874343 0.057102133 -0.13187283 0.117457695 0.025618358
-0.111986235 0.12078302 -0.065355994 0.030690232 -0.01602188 0.029658288 0.028489126 -0.09612365

out.bias f4 [8]
00000000: 6aba c0bd e1a4 3b3d 3000 da3c 996f 57bc
00000010: 17be 493d 4558 07bd db26 733b d0fc 513b
-0.09410556 0.045811538 0.026611418 -0.013149166 0.04925355 -0.033043165 0.0037102017 0.0032041557
