models/Ant-v2/Random/Dagger_210.pth (torch, 49503 bytes, 4 tensors)

fc1.weight f4 [100, 111]
00000000: dac9 fc3d 7789 933c aee5 633e 6679 ce3d
00000010: 9ca7 943d 587f f33b 7c9a 73bd 4ff4 323e
00000020: 4f44 2a3d 1fba 903b 4701 293e 1559 313e
00000030: 36ea 5a3d ee07 57bc b016 99bd e6c5 753d
00000040: 501d f53d 7f3c 083e e242 803d 4388 cf3a
00000050: 66df 853d 58a0 813d dbc0 09be 99b8 4bbc
00000060: 0316 883d 917a c13b 3029 0f3e 279c 1e3b
00000070: e3c6 e5bd 9c54 063e 2fe0 91bd e942 86bd
00000080: 56a7 a1bd e2d9 fcbd ec48 90bd 5bb8 403d
00000090: 205b 4a3d cf4e 833c c0bb eebd 457c cd3d
000000a0: 0b94 043d eb24 e0bd 5357 db3c eff0 863c
000000b0: 4fb3 ddbd f2ec 3a3d 54ec b6bd cd5c 79bd
000000c0: 63f8 f23d e8fd 5a3e a744 a93d 7a40 d2bd
000000d0: ea66 753d 3734 333e b2b4 6ebc e7e1 873c
000000e0: 45d6 f43d 08d9 a4bb 93ad a13d ab3f fcbc
000000f0: 26f0 123d f348 e73d 3b17 1fbe 3a40 d4bd
00000100: fab5 a83d afcf 63bc 98da 06be f541 9c3c
00000110: fc8d 3a3c b0d6 053e ec29 29be 57d0 2cbd
00000120: 7175 38bd b369 53bd 975c 5ebd 0e6f 353d
00000130: 20a4 f6bd accb 40be 3fbc ca3b c5cb 0bbe
00000140: 8fd1 6e3c f7b6 cf3d 41c1 853c a148 013e
00000150: 6bda 73bd b2fa d03a 927c a73d a761 bbbd
00000160: 2198 3dbd 1144 ac3c fad1 69bd f4b7 1dbe
00000170: f6f4 10bd 6b56 69bc 429b e63d d7f5 463c
00000180: 98bd 3dbd 9732 193d 6b72 8c3d 2a09 ebbd
00000190: 3fbb 8e3e af2d 2abe 7b9d 2b3d ee76 97bd
000001a0: 2343 90bd 9bba 653d a225 71be 05c0 66bd
000001b0: 7dfa f7bd ebb3 f13d d207 febc d651 c7bd
000001c0: 4671 2d3d e2f3 febd a198 343d 840b c1be
000001d0: 3be9 023e df71 9fbd bdaf 0e3e 29e3 67be
000001e0: c051 e4bd 5712 ef3d 6e20 5bbe 8310 5abc
000001f0: 626f 5dbe 4501 9cbb aba2 a13d 69ae f7bd
00000200: 22aa 8d3d 90a2 d33d 92fe 2a3d b075 f0bd
00000210: d42f 1abd a08f 523c 8d59 4fbc 4995 a33d
00000220: cfd3 d93d 779a 833d 3e31 85bd 2347 2dbe
00000230: 4c91 b63d 4627 173c 4ea7 ccb9 2663 3ebd
00000240: efde 19be 67a7 26bd 8202 6c3e 63bd 5d3c
00000250: 6a5f e7bd 8a4a 8fbb 3b99 86bc a962 38bd
00000260: d86e 71bc 074e 45bd 4b86 52be 12b1 19be
00000270: fa4f 96bd 7220 98bd e85a 723d 5b83 3d3d
00000280: 5d2f b73c 2299 dfbb 1430 373e 3ff0 5e3e
00000290: 9b14 4abd 4f1a 1dbe e28a 033d 23bf ce3c
000002a0: 571a e33d 032d 1ebc 5507 31be 9b37 04be
000002b0: 4a56 17be e76f 0d3e f933 05bd b36c 0e3e
000002c0: d612 8abc d2ee fcbd 9783 c0bd 09ed 2dbe
000002d0: 73c5 cabb 43e0 a3bc 6a45 003e 9337 91bd
000002e0: 9b53 773d d7db a1bc d36f 213d 0b28 743c
000002f0: 5724 bb3d 487f fa3b 2bf6 1abe 2b20 283d
00000300: c94f 85bd 8fe9 0a3d 553c e5bd 7d2a fc3d
00000310: 67dc ac3d a3a7 e73d 23cf a43d 6abb edbd
00000320: 933b e6bc ba34 d4bd a42f 26bb 3b90 223e
00000330: a3a7 a43d eb00 fabd cfd3 0e3e dd98 a53a
00000340: 170c 66bd 13ea c9bd e385 70bc e23e 12bc
00000350: f245 603e e21d 363d d291 f7ba 1939 283d
00000360: f71c 443c a1f0 ac3b 5fef 893c c78b 2e3c
00000370: 96ef 153e 478d 363d 12f0 143e 97f6 aabd
00000380: f7e0 6c3c c159 cb3d 9495 b8bd eb9e e23d
00000390: a5a3 71bd 7414 5f3e 11d1 8f3d 5fb4 8ebe
000003a0: fe4e 5ebe 6753 b2bd 0d9a 9c3d f301 ae3d
000003b0: 969b 4dbd 7e6b 5e3e 9b1e a1bd 88f2 f73d
000003c0: a930 083d 9d21 9bbc e473 7d3c 1e5b 8abb
000003d0: 4770 343c 4d57 c83b 580d 413d 4d74 f1bd
000003e0: 5374 e93d b571 9ebd b7c0 1abd 9776 d23d
000003f0: 8b9b 0d3e 041c bf3c 3f1b 713d bf69 4d3e
0.12343188 0.018009884 0.22255585 0.10081749 0.072585315 0.007430952 -0.0594735 0.17476009
0.04156905 0.0044167186 0.16504394 0.17319138 0.053446017 -0.013124449 -0.074750304 0.060003184
0.119684815 0.13304327 0.06262757 0.0015833456 0.065367505 0.06329411 -0.13452475 -0.012434148
0.066448234 0.0059045036 0.13980556 0.002420196 -0.11219575 0.13118213 -0.07122838 -0.06555731
-0.07893245 -0.12346245 -0.07045159 0.047050815 0.04940331 0.01602879 -0.11656904 0.10033468
0.032367747 -0.109445415 0.026775038 0.016472308 -0.10825216 0.045636125 -0.08931795 -0.060879517
0.11863782 0.2138592 0.082650475 -0.10266204 0.0599126 0.17500387 -0.014569448 0.01658721
0.11954931 -0.005030755 0.07894435 -0.030792078 0.035873555 0.11293211 -0.15536205 -0.10363813
0.08237834 -0.013904496 -0.13169324 0.01907442 0.011386391 0.13070178 -0.16519898 -0.042190876
-0.045033876 -0.051614475 -0.05428752 0.044295363 -0.12043023 -0.18827695 0.0061869915 -0.1365195
0.01457633 0.1014232 0.016327502 0.12625362 -0.05953447 0.0015943854 0.08178057 -0.09149485
-0.04628766 0.02102855 -0.057085015 -0.15402204 -0.035389863 -0.014241795 0.11260082 0.012143574
-0.04632339 0.03740176 0.06857761 -0.11476357 0.27877232 -0.1661899 0.041898232 -0.07395731
-0.07044055 0.056086164 -0.23549512 -0.056335468 -0.12108324 0.11801895 -0.031009588 -0.09732406
0.042344354 -0.12448861 0.04409087 -0.37704098 0.12784283 -0.07785391 0.13934226 -0.22645248
-0.11148405 0.1167342 -0.2139909 -0.013309601 -0.2162452 -0.0047608935 0.078923546 -0.12093813
0.06917216 0.10333741 0.041746683 -0.11741197 -0.03764327 0.012851626 -0.012655628 0.07987458
0.106361024 0.06425946 -0.06503533 -0.16921668 0.08914432 0.009225672 -0.00039034564 -0.046481274
-0.15026449 -0.04068699 0.23047832 0.013533923 -0.11297496 -0.0043728994 -0.016430488 -0.045015965
-0.0147359 -0.048170116 -0.20559041 -0.15008953 -0.07339473 -0.074280635 0.059168726 0.04626785
0.022361452 -0.006823675 0.17889434 0.21771334 -0.049336057 -0.15342067 0.03211487 0.025237625
0.11089008 -0.009654286 -0.17287953 -0.12911837 -0.1477901 0.13812219 -0.032520268 0.13908653
-0.016854685 -0.12350239 -0.09400099 -0.16984953 -0.0061880886 -0.020004397 0.1252648 -0.07090678
0.060382467 -0.019758148 0.039413285 0.014902125 0.09137791 0.0076445676 -0.15132968 0.041046303
-0.065093584 0.033914145 -0.11193148 0.123127915 0.08440476 0.11311271 0.08047321 -0.11608012
-0.02810458 -0.10361619 -0.0025357986 0.15875332 0.08039787 -0.12207206 0.13947986 0.0012634058
-0.056163874 -0.09859099 -0.014680359 -0.008926125 0.21901682 0.044462092 -0.0018888062 0.041070078
0.011969796 0.0052777086 0.016837774 0.010653443 0.14642176 0.044568326 0.14544705 -0.083478145
0.014457933 0.099292286 -0.09012905 0.110654674 -0.058993954 0.21785146 0.07022298 -0.27871987
-0.2170982 -0.08707314 0.0764657 0.084964655 -0.050197206 0.21720693 -0.07867166 0.12106806
0.03324953 -0.018936926 0.015469525 -0.004222288 0.011013097 0.0061139227 0.047131866 -0.11789761
0.1139914 -0.07736532 -0.037781443 0.102765255 0.13828866 0.023328789 0.058863875 0.2005987

fc1.bias f4 [100]
00000000: 4a55 1a3d 1348 813d 97c4 493d 1064 ec3d
00000010: 1ebf 623d b37c 8ebc e987 94bc dc64 203d
00000020: f073 723c 5473 3e3d f1b8 38bd b74f 6d3d
00000030: 8c2b dabc ab32 213d 5192 123d 3f7e 563b
00000040: c156 28bc 0e8b ad3d 567f 11bd 79ac bc3d
00000050: 3a82 193d bb98 2a3e 04ac d93d 4d7d 95bd
00000060: 7894 13bd 0e40 003e 7767 2a3d 3475 d03d
00000070: 576e 0dbd bba8 ba3d 49dd cc3d 2629 fa3d
00000080: 5d62 e83d d05b 7fb9 31b3 923d e61a b03c
00000090: bbf3 97bd d782 023d 994e b2bd d604 00bd
000000a0: 4377 ce3d 273e ba3d 11f9 34bd 3ab9 37bd
000000b0: 7f80 50bc 202e 1338 7f06 e13c 1113 e0ba
000000c0: 92e8 d53b eb2b 003e 8707 8ebd 4520 293d
000000d0: 968c 1c3e 457a 813c 13e7 ff3d 3600 a03d
000000e0: 0bed e43d 0f34 303c 69ca b03c 81bc a0bd
000000f0: a5a0 92bd d8bd 8fbb 2e9a 82bd 2553 eabc
00000100: f974 233e f271 64bb 95b1 aa3b 4fa8 63bd
00000110: de78 1c3b f54d 3ebc c4f7 9d3d 4f40 e13d
00000120: 7d2c 73bd f2ab 183d 9ca7 143c 985d 08be
00000130: aa4b a5bd dfc8 e6bc 1813 1ebe 9cf8 95bd
00000140: ca97 16bd 9b74 cabc f6ae 94bd 73df 3e3d
00000150: c1eb ddbb 89f0 09be 201c bebd d055 ce3d
00000160: f9fa 89bd 15e3 733d 31c5 033e 6b9c 003d
00000170: f645 fd3d 5d7f e3bc 52f6 143c 68f1 0fbd
00000180: d16b d6bd 54dd ad3b 10b9 dc3d ce51 98bd
0.037678994 0.06312575 0.04925975 0.11542523 0.055358045 -0.017393446 -0.018131213 0.039158687
0.0147981495 0.046496704 -0.04509825 0.05793735 -0.026632093 0.03935496 0.03578407 0.0032729057
-0.01027459 0.08473788 -0.035521828 0.09212584 0.03747771 0.16659825 0.106285125 -0.0729929
-0.036030263 0.12524435 0.041602578 0.10178605 -0.034529056 0.09114214 0.10003144 0.1221488
0.11346886 -0.00024352898 0.07163084 0.021497201 -0.07419535 0.03186306 -0.087063976 -0.031254612
0.10081341 0.09093886 -0.04418284 -0.04485438 -0.012725948 3.509049e-05 0.027468918 -0.0017095526
0.0065279687 0.12516753 -0.069350295 0.04129054 0.15288004 0.015805373 0.12495246 0.0781254
0.11178025 0.010754599 0.021580892 -0.07848454 -0.07159547 -0.004386645 -0.06377064 -0.0286041
0.1596259 -0.0034857956 0.0052091577 -0.055580433 0.0023875753 -0.011615266 0.07713273 0.10998594
-0.0593686 0.037273355 0.009073164 -0.13316953 -0.080710724 -0.028171955 -0.15436971 -0.07322809
-0.03676585 -0.024713805 -0.07259934 0.046599817 -0.006772489 -0.13470663 -0.09282708 0.10074961
-0.06737322 0.059542734 0.12868191 0.03139917 0.123668596 -0.027770692 0.00909193 -0.035142332
-0.10469783 0.0053059254 0.10777485 -0.07437478

out.weight f4 [8, 100]
00000000: 308d 05be 9070 843c 68fd b33c 7e2d 22bd
00000010: 3b7c 263d 5fa7 d53a e4e1 c2bd abf3 d83c
00000020: 76be 1c3c 8fb2 793d 7cc3 b5bd b251 563e
00000030: 948a 133d fad3 30bd 8c65 0a3e c263 b93d
00000040: 5d47 f3bd a38a 573e fa2f 223d 15b6 e1bd
00000050: 0b6b e2bd 33de 88be 47e7 0dbd 04d9 fbbd
00000060: 1202 993d d08b d8bd 6442 6fbd 6196 c23d
00000070: 3bc9 6ebd ba4a 043e 8edd f4bc a52c 593d
00000080: 2862 993d a2c3 acbd f71f 6d3e d8ce 1fbd
00000090: c710 89bd c666 23bd 4e3a c63d d774 a23b
000000a0: 20d5 193e 43df 07bd 9c58 0abd 8533 58be
000000b0: 8f76 0dbd e31b 273d 085e b3bd b35e 1b3b
000000c0: 5096 1e3e 4eb2 ba3d 85d3 593e 7479 d13c
000000d0: cefd b7bd 2787 0fbe fda0 0dbd 8e5b 873d
000000e0: 10f5 0dbe b709 863d 7a07 7b3c e72a 043e
000000f0: d979 573d 07b7 1cbd 1445 c0bc 1efe b03d
00000100: fc79 72bd dd6d f1bd 179e 8bbd b250 263e
00000110: e886 423d 05f4 d9bd f70a 86bc 728c 003e
00000120: e595 023e 0dec 2bbe da6c e0bd e3db 1b3c
00000130: ea08 8b3c 87bc 5c3d d3bf c2bd cf85 dcba
00000140: 7f25 8c3d 0941 8eba f217 4d3d b1b6 01be
00000150: 66ab 57bd 74fe f13c a397 7b3e 7f66 8e3c
00000160: d7ae a63c f368 b4bd e818 d43c ea04 d23d
00000170: 4a17 8ebc 8c43 acbd 78df 00be 65b0 4f3d
00000180: 6132 c1bc 587a c53d 9467 1fbd 7a41 77bd
00000190: b81b a33d 9267 babd b21d 5c3d 914c 59bc
000001a0: 6df1 0c3e ec47 bcbd bf7e 04be 90c4 2ebc
000001b0: 2d7d 76bd beba 703e b97e 4b3d 4cf5 143d
000001c0: 496d e03d 72f2 ffbc 2fb1 69bd 3837 743c
000001d0: 72a1 45bc fda5 f3bb df4a 0b3d 1eb4 8f3d
000001e0: d1d6 a43d f81d 2d3e 0df7 e73d e736 aebb
000001f0: 9461 c5bc d55a 83bd ed15 313d d628 55bd
00000200: 5fc9 fcbc f3be 8a3a c3c8 1abe 25f4 b7bd
00000210: 24b1 6abd 8612 ce3d b653 ebbd 6533 e73b
00000220: a845 83bd c1ca 853c bbc5 86bd 2807 73bd
00000230: b931 6abd 5fe9 0d3d a230 0cbc aef1 843c
00000240: 65df 1c3e 1f96 05bd e76a cebd 4c94 4c3d
00000250: dccb c03c fbb3 3cbe d3b9 9d3d 3008 22bc
00000260: 8a70 71bd 4ce0 b53b f9d7 2ebc be65 7f3d
00000270: fdde a1bd d1fa 483d 66bc 153e f382 81bd
00000280: 2785 1c3e 6470 163d b124 aabd 0122 dfbc
00000290: 0159 41be 2021 fabd c7d0 c93d 752d b83c
000002a0: 7b3a 2c3d a55d 38bd 67f4 5abd b481 e83c
000002b0: 9cf9 253d 57d0 9c3d 641b 023c 6f40 d43d
000002c0: 4068 3b3d 335e 1e3d ff2e 773d f36e 283d
000002d0: 5a96 bd3c bb91 fa3a 1935 6f3d 33cf 3dbd
000002e0: e14b ecbd 66c0 3a3d b841 96bb ac72 463e
000002f0: d329 683d 762b 603d 920e 2cbd bf34 27bd
00000300: 7590 3cbe 4117 7cbd ced7 edbd f9f7 13be
00000310: 9f11 fcbc e283 d43b 9871 c1bd d6fa 38bc
00000320: ebf0 19bb 5445 843d 571c f8bc 36f9 8b3d
00000330: a9b1 71bd f709 af3d cbf8 fcbc 897b 2ebd
00000340: a3ea e33b 7e2e be3d bed1 32bb d600 6dbd
00000350: 263a 26be a533 bebd bcb5 91bd 06ab 2f3d
00000360: 820b f3bd 8483 d33c b1fe 633d 1ceb 343d
00000370: 5f75 e73d 9f45 463e d937 29be 94c3 b0bd
00000380: f505 863d 4505 af3d a01c 22ba 011e 02be
00000390: 7b4e 1bbd 9ea9 25be 0435 8b3d 8678 dfb9
000003a0: 9a95 813d b44f 78bc d551 1cbd a324 073d
000003b0: 9b6a e0bc 1cf2 a5bb 66fc 95bd bf3b f3bd
000003c0: 9557 fd3d 66fe 24bd fcac c93d 5acb 71bd
000003d0: a02d 813d 52f0 04be 0be0 de3d 7d8a 883c
000003e0: e54b c2bd b9af f33d ae0d 43bd 4388 d33c
000003f0: 5d38 8cbc 6052 b93c de8e 083d 4685 c3bd
-0.1304214 0.016166955 0.02197142 -0.039594166 0.04064582 0.0016300491 -0.095157415 0.026483377
0.009566894 0.060961302 -0.08875176 0.20929602 0.03602083 -0.043170907 0.135153 0.090522304
-0.11878846 0.2104898 0.039596535 -0.110210575 -0.11055573 -0.26732025 -0.03464439 -0.12297252
0.07471098 -0.10573542 -0.058412924 0.09501339 -0.058297377 0.12919131 -0.029890802 0.053021092
0.07489425 -0.084357515 0.23156725 -0.03901562 -0.06692653 -0.039892934 0.096790895 0.004957776
0.15022707 -0.033171903 -0.03377591 -0.21113403 -0.034536894 0.04079808 -0.087581694 0.0023707568
0.15487027 0.0911604 0.21272095 0.025570609 -0.08983956 -0.140164 -0.03457736 0.066092595
-0.13863015 0.06544822 0.015321607 0.12906991 0.052606437 -0.038260486 -0.023470439 0.08642219
-0.059198365 -0.11788533 -0.068172626 0.1624172 0.047491938 -0.10642246 -0.01636265 0.12553576
0.12752493 -0.16789265 -0.10958262 0.009512874 0.016972024 0.05389073 -0.09509244 -0.0016824546
0.06843089 -0.0010853122 0.050071664 -0.12667347 -0.052653693 0.029540278 0.24569564 0.017382858
0.020347042 -0.0880908 0.025890782 0.102548435 -0.01734509 -0.08411321 -0.12585247 0.050705332
-0.023583593 0.09642476 -0.03891714 -0.060365178 0.07964271 -0.09101786 0.053739257 -0.013262884
0.13763972 -0.091934055 -0.12938975 -0.010666981 -0.06017797 0.23508736 0.0496814 0.036366746
0.109583445 -0.031243537 -0.05705374 0.014905743 -0.012062417 -0.007435559 0.03400695 0.070167765
0.080487855 0.16905963 0.11326418 -0.0053166035 -0.02409438 -0.06413809 0.0432338 -0.052040897
-0.03085774 0.0010585472 -0.15115647 -0.08982114 -0.05729784 0.10062127 -0.11490576 0.0070556873
-0.0640977 0.016332032 -0.06580683 -0.059332997 -0.057176325 0.03464639 -0.008556517 0.016228523
0.15319593 -0.03261387 -0.10078984 0.049946114 0.023534708 -0.18428032 0.07701459 -0.009889647
-0.058945216 0.00555042 -0.010671609 0.06235289 -0.0790386 0.049067322 0.1462265 -0.06323805
0.15285169 0.036728278 -0.083077796 -0.027237894 -0.18881609 -0.12213349 0.09854274 0.022482613
0.04204796 -0.04501118 -0.053455736 0.02838216 0.04052125 0.07656925 0.007941101 0.10363852
0.045753717 0.038664054 0.060347553 0.041121434 0.023142982 0.0019116917 0.058400247 -0.04634018
-0.1153791 0.04559364 -0.004585471 0.19379681 0.05668051 0.054728948 -0.042006083 -0.040821787
-0.18414481 -0.061545614 -0.11613427 -0.14450063 -0.030770121 0.006485448 -0.094454944 -0.011290273
-0.0023489546 0.06458536 -0.030286951 0.068346426 -0.05900732 0.085468225 -0.030880352 -0.04259828
0.006955461 0.092862114 -0.002728566 -0.057862125 -0.1623312 -0.09287194 -0.07114741 0.04288771
-0.11867429 0.025819547 0.055662815 0.04416953 0.11301684 0.19362496 -0.1652521 -0.086310536
0.06544105 0.08545927 -0.0006184075 -0.12706758 -0.03791664 -0.16177985 0.06797221 -0.00042623671
0.06327362 -0.015155721 -0.03816398 0.032993924 -0.027394583 -0.005064262 -0.07323532 -0.1187663
0.123702206 -0.040281676 0.09847447 -0.05903182 0.063075304 -0.129823 0.108825766 0.016667599
-0.09487132 0.11898751 -0.047620468 0.02582181 -0.01711672 0.022622287 0.033339374 -0.09546904

out.bias f4 [8]
00000000: f5f9 b3bd 9d0b 283d 7c9f 003d 481c b3bc
00000010: aa5b 533d 2f12 18bd d208 3abb 4f1b 703b
-0.0878791 0.0410267 0.031402096 -0.021864071 0.05160109 -0.037126716 -0.0028386605 0.003663737
