models/Ant-v2/Random/Dagger_400.pth (torch, 49503 bytes, 4 tensors)

fc1.weight f4 [100, 111]
0.12390239 0.058393296 0.20318383 0.107459776 0.19309032 0.058697194 -0.099466264 0.23735695
0.06666221 -0.0131828785 0.18381497 0.15515454 0.03778664 0.028372863 -0.10020561 0.07094286
0.07789222 0.065207355 0.043909498 -0.006334606 0.058427706 0.06697093 -0.12733725 -0.013999021
0.06339125 0.013811902 0.1341268 0.002420196 -0.11219575 0.13118213 -0.07122838 -0.06555731
-0.07893245 -0.12346245 -0.07045159 0.047050815 0.04940331 0.01602879 -0.11656904 0.10033468
0.032367747 -0.109445415 0.026775038 0.016472308 -0.10825216 0.045636125 -0.08931795 -0.060879517
0.11863782 0.2138592 0.082650475 -0.10266204 0.0599126 0.17500387 -0.014569448 0.01658721
0.11954931 -0.005030755 0.07894435 -0.030792078 0.035873555 0.11293211 -0.15536205 -0.10363813
0.08237834 -0.013904496 -0.13169324 0.01907442 0.011386391 0.13070178 -0.16519898 -0.042190876
-0.045033876 -0.051614475 -0.05428752 0.044295363 -0.12043023 -0.18827695 0.0061869915 -0.1365195
0.01457633 0.1014232 0.016327502 0.12625362 -0.05953447 0.0015943854 0.08178057 -0.09149485
-0.04628766 0.02102855 -0.057085015 -0.15402204 -0.035389863 -0.014241795 0.11260082 0.012143574
-0.04632339 0.03740176 0.06857761 -0.11476357 0.27877232 -0.1661899 0.041898232 -0.07395731
-0.07044055 0.056086164 -0.23549512 -0.056335468 -0.12108324 0.11801895 -0.031009588 -0.087793946
0.030610278 -0.17334053 0.068150066 -0.4348207 0.113268405 -0.08214596 0.08324948 -0.2022188
-0.14008538 0.12525001 -0.21131665 -0.029637363 -0.22784176 -0.009681429 0.1205485 -0.10280984
0.10247076 0.06511898 0.040955484 -0.1186673 -0.0053731883 0.011344728 -0.018535335 0.057379775
0.08808105 0.060459267 -0.06503533 -0.16921668 0.08914432 0.009225672 -0.00039034564 -0.046481274
-0.15026449 -0.04068699 0.23047832 0.013533923 -0.11297496 -0.0043728994 -0.016430488 -0.045015965
-0.0147359 -0.048170116 -0.20559041 -0.15008953 -0.07339473 -0.074280635 0.059168726 0.04626785
0.022361452 -0.006823675 0.17889434 0.21771334 -0.049336057 -0.15342067 0.03211487 0.025237625
0.11089008 -0.009654286 -0.17287953 -0.12911837 -0.1477901 0.13812219 -0.032520268 0.13908653
-0.016854685 -0.12350239 -0.09400099 -0.16984953 -0.0061880886 -0.020004397 0.1252648 -0.07090678
0.060382467 -0.019758148 0.039413285 0.014902125 0.09137791 0.0076445676 -0.15132968 0.041046303
-0.065093584 0.033914145 -0.11193148 0.123127915 0.08440476 0.11311271 0.08047321 -0.11608012
-0.02810458 -0.10361619 -0.0025357986 0.15875332 0.08039787 -0.12207206 0.13947986 0.0012634058
-0.056163874 -0.09859099 -0.014680359 -0.008926125 0.21901682 0.044462092 -0.0018888062 0.041070078
0.011969796 0.0052777086 0.016837774 0.010653443 0.14642176 0.044568326 0.17100763 -0.05409117
-0.012440784 0.09692603 -0.1314492 0.11114018 -0.027682077 0.19747184 0.083746746 -0.323865
-0.21835254 -0.06199466 0.0911692 0.08685088 -0.08271815 0.17902479 -0.05708718 0.14263453
0.035149157 -0.03431212 0.008789145 -0.0131632695 0.015232517 -0.0010309218 0.04462296 -0.110515855
0.09538654 -0.07736532 -0.037781443 0.102765255 0.13828866 0.023328789 0.058863875 0.2005987
00000000: 89c0 fd3d cf2d 6f3d 6c0f 503e df13 dc3d
00000010: 78b9 453e 786c 703d f8b4 cbbd b30d 733e
00000020: 3286 883d 00fd 57bc fe39 3c3e d5e0 1e3e
00000030: 2ac6 1a3d 356e e83c 9938 cdbd 7d4a 913d
00000040: f585 9f3d 6f8b 853d 72da 333d 8792 cfbb
00000050: e451 6f3d 0e28 893d b264 02be 265c 65bc
00000060: 46d3 813d 514b 623c 8958 093e 279c 1e3b
00000070: e3c6 e5bd 9c54 063e 2fe0 91bd e942 86bd
00000080: 56a7 a1bd e2d9 fcbd ec48 90bd 5bb8 403d
00000090: 205b 4a3d cf4e 833c c0bb eebd 457c cd3d
000000a0: 0b94 043d eb24 e0bd 5357 db3c eff0 863c
000000b0: 4fb3 ddbd f2ec 3a3d 54ec b6bd cd5c 79bd
000000c0: 63f8 f23d e8fd 5a3e a744 a93d 7a40 d2bd
000000d0: ea66 753d 3734 333e b2b4 6ebc e7e1 873c
000000e0: 45d6 f43d 08d9 a4bb 93ad a13d ab3f fcbc
000000f0: 26f0 123d f348 e73d 3b17 1fbe 3a40 d4bd
00000100: fab5 a83d afcf 63bc 98da 06be f541 9c3c
00000110: fc8d 3a3c b0d6 053e ec29 29be 57d0 2cbd
00000120: 7175 38bd b369 53bd 975c 5ebd 0e6f 353d
00000130: 20a4 f6bd accb 40be 3fbc ca3b c5cb 0bbe
00000140: 8fd1 6e3c f7b6 cf3d 41c1 853c a148 013e
00000150: 6bda 73bd b2fa d03a 927c a73d a761 bbbd
00000160: 2198 3dbd 1144 ac3c fad1 69bd f4b7 1dbe
00000170: f6f4 10bd 6b56 69bc 429b e63d d7f5 463c
00000180: 98bd 3dbd 9732 193d 6b72 8c3d 2a09 ebbd
00000190: 3fbb 8e3e af2d 2abe 7b9d 2b3d ee76 97bd
000001a0: 2343 90bd 9bba 653d a225 71be 05c0 66bd
000001b0: 7dfa f7bd ebb3 f13d d207 febc 50cd b3bd
000001c0: 68c2 fa3c 2e80 31be 4392 8b3d d2a0 debe
000001d0: 44f9 e73d 243c a8bd b47e aa3d 7212 4fbe
000001e0: 8b72 0fbe 8a41 003e 6463 58be 0eca f2bc
000001f0: 5a4f 69be db9e 1ebc 22e2 f63d f78d d2bd
00000200: 31dc d13d 1a5d 853d f0c0 273d d707 f3bd
00000210: 9211 b0bb 3ddf 393c 6ad7 97bc 0e07 6b3d
00000220: d663 b43d 23a4 773d 3e31 85bd 2347 2dbe
00000230: 4c91 b63d 4627 173c 4ea7 ccb9 2663 3ebd
00000240: efde 19be 67a7 26bd 8202 6c3e 63bd 5d3c
00000250: 6a5f e7bd 8a4a 8fbb 3b99 86bc a962 38bd
00000260: d86e 71bc 074e 45bd 4b86 52be 12b1 19be
00000270: fa4f 96bd 7220 98bd e85a 723d 5b83 3d3d
00000280: 5d2f b73c 2299 dfbb 1430 373e 3ff0 5e3e
00000290: 9b14 4abd 4f1a 1dbe e28a 033d 23bf ce3c
000002a0: 571a e33d 032d 1ebc 5507 31be 9b37 04be
000002b0: 4a56 17be e76f 0d3e f933 05bd b36c 0e3e
000002c0: d612 8abc d2ee fcbd 9783 c0bd 09ed 2dbe
000002d0: 73c5 cabb 43e0 a3bc 6a45 003e 9337 91bd
000002e0: 9b53 773d d7db a1bc d36f 213d 0b28 743c
000002f0: 5724 bb3d 487f fa3b 2bf6 1abe 2b20 283d
00000300: c94f 85bd 8fe9 0a3d 553c e5bd 7d2a fc3d
00000310: 67dc ac3d a3a7 e73d 23cf a43d 6abb edbd
00000320: 933b e6bc ba34 d4bd a42f 26bb 3b90 223e
00000330: a3a7 a43d eb00 fabd cfd3 0e3e dd98 a53a
00000340: 170c 66bd 13ea c9bd e385 70bc e23e 12bc
00000350: f245 603e e21d 363d d291 f7ba 1939 283d
00000360: f71c 443c a1f0 ac3b 5fef 893c c78b 2e3c
00000370: 96ef 153e 478d 363d a01c 2f3e b48e 5dbd
00000380: 6ed4 4bbc 2881 c63d 9e9a 06be 769d e33d
00000390: 86c5 e2bc 0f36 4a3e 6a83 ab3d a2d1 a5be
000003a0: cf97 5fbe 1dee 7dbd ebb6 ba3d e0de b13d
000003b0: 2268 a9bd 4652 373e 3fd4 69bd c90e 123e
000003c0: 90f8 0f3d de8a 0cbd 5900 103c c1aa 57bc
000003d0: cf91 793c ff1f 87ba 91c6 363d 2356 e2bd
000003e0: 055a c33d b571 9ebd b7c0 1abd 9776 d23d
000003f0: 8b9b 0d3e 041c bf3c 3f1b 713d bf69 4d3e

fc1.bias f4 [100]
0.015552772 0.053368475 0.048157293 0.11309635 0.0587 -0.027992224 -0.018063642 0.028126787
0.021501776 0.05399812 -0.05546707 0.051622726 -0.03788183 0.05029382 0.02487253 0.04084786
-0.021448025 0.10810114 -0.022484906 0.071581006 0.016452262 0.16514137 0.07429887 -0.07500208
-0.04163516 0.13803102 0.075158015 0.099145636 -0.044016216 0.072080776 0.13424078 0.11849031
0.10930625 -0.007865077 0.081970036 0.014576602 -0.10564163 0.039265946 -0.09920877 -0.038412914
0.10639313 0.09218783 -0.04464542 -0.05401612 -0.009775257 -0.016509391 0.040987447 0.0026266617
0.010353032 0.13229612 -0.05547402 0.06680799 0.14577302 0.009047663 0.111882895 0.08819609
0.10285589 0.027335804 0.019995995 -0.106231965 -0.085445285 -0.0067501883 -0.087813154 -0.012108605
0.16582912 -0.012594179 0.0043415087 -0.057578146 -0.0027337389 -0.014958656 0.06616655 0.14082268
-0.05907362 0.040566478 0.00042773664 -0.13735567 -0.055437095 0.0029267725 -0.146649 -0.08704859
-0.016001334 -0.032153655 -0.09553546 0.01391623 -0.007373266 -0.1439284 -0.10137493 0.10403646
-0.06661465 0.07636682 0.14873673 0.03418919 0.14005512 -0.037805527 0.0014220134 -0.051800434
-0.083602175 -0.00082001043 0.1182479 -0.098148786
00000000: 0ed1 7e3c e798 5a3d 9540 453d 0f9f e73d
00000010: 696f 703d f34f e5bc 34fa 93bc 266a e63c
00000020: 7e24 b03c 222d 5d3d 7031 63bd 5a72 533d
00000030: fa29 1bbd e500 4e3d 7ac1 cb3c 1650 273d
00000040: c5b3 afbc 2164 dd3d 4432 b8bc 1099 923d
00000050: e5c6 863c d21a 293e 022a 983d b19a 99bd
00000060: a189 2abd 0158 0d3e 72ec 993d de0c cb3d
00000070: 594a 34bd 169f 933d 6a76 093e 0cab f23d
00000080: f5db df3d 86dc 00bc e8df a73d b3d2 6e3c
00000090: a45a d8bd 54d5 203d f82d cbbd dc56 1dbd
000000a0: a4e4 d93d f9cc bc3d 1ede 36bd 0240 5dbd
000000b0: 6628 20bc b43e 87bc 74e2 273d 1224 2c3b
000000c0: c39f 293c a278 073e ba38 63bd a1d2 883d
000000d0: 8645 153e a63c 143c dc22 e53d 27a0 b43d
000000e0: 1ca6 d23d 56ef df3c a4ce a33c 2590 d9bd
000000f0: f0fd aebd af30 ddbb 62d7 b3bd 2c63 46bc
00000100: 1ccf 293e d157 4ebc 3743 8e3b 10d7 6bbd
00000110: 8728 33bb 2715 75bc 5482 873d d233 103e
00000120: 2ef7 71bd 0929 263d d741 e039 f7a6 0cbe
00000130: 0212 63bd 18cf 3f3b 282b 16be 8846 b2bd
00000140: 3b15 83bc 8db3 03bd 18a8 c3bd e600 643c
00000150: 709b f1bb f761 13be a99d cfbd 1111 d53d
00000160: 436d 88bd 3566 9c3d 714e 183e f709 0c3d
00000170: 9c6a 0f3e f8d9 1abd da62 ba3a b12c 54bd
00000180: 9e37 abbd f8f5 56ba f42b f23d 3b02 c9bd

out.weight f4 [8, 100]
-0.11063278 0.012207391 0.034496382 -0.028393203 0.04208426 -0.0076439977 -0.09640518 0.028974025
-0.010119153 0.06261737 -0.08923052 0.2060287 0.003907104 -0.033292465 0.13895823 0.086119406
-0.120747164 0.21235105 0.03117713 -0.11367466 -0.10135911 -0.2614625 -0.026472632 -0.13103217
0.07352846 -0.09524356 -0.059126448 0.09651107 -0.038285043 0.13450369 -0.016255131 0.043652736
0.06987234 -0.082294255 0.23016596 -0.051543042 -0.039383404 -0.03600013 0.11005868 -0.0040196134
0.14443214 -0.04589366 -0.024848007 -0.20075493 -0.033523034 0.03344998 -0.07997977 0.00469667
0.14976276 0.0980774 0.24656104 0.02892586 -0.082484454 -0.1529233 -0.05436282 0.07740131
-0.14414108 0.06899285 0.009062308 0.12378614 0.048579447 -0.046923146 -0.028588532 0.08115387
-0.05200039 -0.107100576 -0.053695448 0.15977477 0.049007375 -0.12572943 -0.019467214 0.12579177
0.13251281 -0.15727912 -0.11207742 0.0057791146 0.016676007 0.021842325 -0.14449109 -0.0044814567
0.07903192 -0.0154022835 0.040567573 -0.12428199 -0.058097005 0.020444235 0.24531607 0.021863049
-0.0038722344 -0.09710443 0.02553324 0.09353983 -0.014199795 -0.08623442 -0.14208591 0.047511224
-0.032860547 0.1024304 -0.038847003 -0.05527151 0.09417709 -0.0866075 0.037683036 -0.0145776635
0.12459137 -0.0951039 -0.119648695 -0.015061739 -0.05256076 0.23024376 0.051463205 0.03572031
0.09540883 -0.03625103 -0.07395732 0.006095622 -0.014965978 -0.02881186 0.062309556 0.0817396
0.07217699 0.18293482 0.10851014 -0.010811816 -0.0063443827 -0.059748556 0.045116473 -0.06457437
-0.050074443 0.01579291 -0.18446094 -0.08354662 -0.053605504 0.09382262 -0.10804359 0.017496657
-0.06335421 0.025933016 -0.0458963 -0.068729706 -0.06412542 0.032051016 0.008854757 0.023200918
0.15806246 -0.019238934 -0.12538464 0.026628908 0.038758364 -0.19090302 0.07332253 -0.008055501
-0.06319838 0.0085199885 -0.011630703 0.053114515 -0.07933976 0.04792034 0.15198685 -0.060421064
0.14720729 0.043958392 -0.07350383 -0.024638545 -0.1661217 -0.118051246 0.057613343 0.0147776855
0.03827567 -0.038809553 -0.06159401 0.027581448 0.056903973 0.074459784 0.019428238 0.10536665
0.027972003 0.048035156 0.11242933 0.033805914 0.020998074 -0.0063544293 0.06111947 -0.049584776
-0.121234305 0.05843249 -0.010806318 0.18670757 0.04297769 0.04887554 -0.051876977 -0.036838807
-0.16105783 -0.06011919 -0.11205008 -0.1518491 -0.033131573 0.005273079 -0.08196346 -0.01602783
0.013826393 0.064522505 -0.046640985 0.07899438 -0.040423963 0.09992915 -0.027891947 -0.058004078
0.0050730924 0.07880567 -0.0033562707 -0.053523935 -0.15969267 -0.088100396 -0.04108668 0.03795008
-0.122244105 0.0011863683 0.043708466 0.028429868 0.09844881 0.17969921 -0.15133636 -0.08411193
0.062369682 0.084391706 -0.0019957654 -0.124248005 -0.020209678 -0.17183842 0.07053486 -0.0030526859
0.04767753 -0.018205766 -0.040721625 0.018403444 0.016980913 -0.0061811605 -0.048597228 -0.12173305
0.10641968 -0.003843274 0.08991403 -0.054975748 0.057324994 -0.13980483 0.077257164 -0.0032127935
-0.09117034 0.11422188 -0.006112551 0.028577168 -0.013921013 0.01615213 0.037269443 -0.10787739
00000000: 7093 e2bd 8201 483c 144c 0d3d dd98 e8bc
00000010: 8c60 2c3d 807a fabb 1470 c5bd ef5a ed3c
00000020: ceca 25bc 893d 803d 7ebe b6bd 30f9 523e
00000030: 2a07 803b ae5d 08bd 114b 0e3e 5f5f b03d
00000040: 4a4a f7bd 8e72 593e 2e67 ff3c 43ce e8bd
00000050: 5d95 cfbd 6ade 85be 22dd d8bc 4c2d 06be
00000060: 1796 963d 0e0f c3bd 932e 72bd 99a7 c53d
00000070: c7d0 1cbd 56bb 093e 7b29 85bc 36cd 323d
00000080: 3b19 8f3d e489 a8bd a0b0 6b3e cc1e 53bd
00000090: 7e50 21bd df74 13bd 7266 e13d f6b6 83bb
000000a0: 05e6 133e fefa 3bbd 0c8e cbbc b392 4dbe
000000b0: 734f 09bd d902 093d 6fcc a3bd 86e6 993b
000000c0: 695b 193e cedc c83d 7f7a 7c3e edf5 ec3c
000000d0: 9ced a8bd ed97 1cbe 8cab 5ebd 9484 9e3d
000000e0: b899 13be 204c 8d3d 137a 143c 9683 fd3d
000000f0: 3efb 463d 7c32 40bd 7f32 eabc 0034 a63d
00000100: 5cfe 54bd 8c57 dbbd c2ef 5bbd ff9b 233e
00000110: f5bb 483d 37bf 00be b579 9fbc 8fcf 003e
00000120: 70b1 073e c70d 21be d988 e5bd ba5e bd3b
00000130: 1f9c 883c adee b23c 79f5 13be 2fd9 92bb
00000140: 7ddb a13d dc59 7cbc 2f2a 263d 8e87 febd
00000150: 20f7 6dbd ab7a a73c 2334 7b3e 231a b33c
00000160: 50c5 7dbb b0de c6bd 162b d13c cf91 bf3d
00000170: 42a6 68bc ac9b b0bd f87e 11be 219b 423d
00000180: c898 06bd 08c7 d13d 091e 1fbd 6164 62bd
00000190: ebdf c03d 465f b1bd 8759 1a3d 27d7 6ebc
000001a0: c329 ff3d d5c5 c2bd 600a f5bd 83c5 76bc
000001b0: f449 57bd 05c5 6b3e 15cb 523d 764f 123d
000001c0: b465 c33d f67b 14bd ef76 97bd c9bd c73b
000001d0: dd33 75bc da06 ecbc 4e38 7f3d 1767 a73d
000001e0: 88d1 933d 4453 3b3e 903a de3d 0b24 31bc
000001f0: 8ae4 cfbb e7ba 74bd 0dcc 383d 913f 84bd
00000200: dc1a 4dbd 2260 813c 54e3 3cbe 7e1a abbd
00000210: 7291 5bbd 1326 c03d f545 ddbd 2655 8f3c
00000220: dabf 81bd 7a71 d43c c2fd 3bbd 29c2 8cbd
00000230: 3054 83bd ed47 033d 8b13 113c da0f be3c
00000240: 20db 213e f89a 9dbc d564 00be de24 da3c
00000250: 17c1 1e3d 157c 43be 1f2a 963d 38fb 03bc
00000260: 276e 81bd 6c97 0b3c b48e 3ebc 9b8e 593d
00000270: e27c a2bd 1e48 443d 71a2 1b3e 147c 77bd
00000280: 82bd 163e b70d 343d 2d89 96bd c6d6 c9bc
00000290: cf1b 2abe dac4 f1bd f8fb 6b3d 1b1e 723c
000002a0: f3c6 1c3d c4f6 1ebd 004a 7cbd 7df2 e13c
000002b0: 2414 693d 5f7e 983d f827 9f3c 78ca d73d
000002c0: 8b25 e53c 83c0 443d 5941 e63d 1278 0a3d
000002d0: 2704 ac3c d138 d0bb 6958 7a3d 6819 4bbd
000002e0: b149 f8bd e856 6f3d fc0c 31bc 4530 3f3e
000002f0: 6009 303d b831 483d f47c 54bd 4ae4 16bd
00000300: 58ec 24be 8a3f 76bd 837a e5bd 557e 1bbe
00000310: f9b4 07bd cbc9 ac3b 75dc a7bd cc4c 83bc
00000320: 1888 623c 6024 843d 9e0a 3fbd cec7 a13d
00000330: 9993 25bd a7a7 cc3d a77d e4bc af95 6dbd
00000340: 2f3c a63b de64 a13d e1f4 5bbb ea3b 5bbd
00000350: 7a86 23be fb6d b4bd 824a 28bd 8b71 1b3d
00000360: 1e5b fabd ea7f 9b3a a607 333d c1e5 e83c
00000370: 889f c93d 1203 383e ebf7 1abe e042 acbd
00000380: 5a77 7f3d 8fd5 ac3d 63cb 02bb bd75 febd
00000390: c48e a5bc 69f6 2fbe 9574 903d 920f 48bb
000003a0: 8449 433d 4224 95bc b8cb 26bd d2c2 963c
000003b0: 8e1b 8b3c 558b cabb e30d 47bd 2d4f f9bd
000003c0: 90f2 d93d 70df 7bbb d924 b83d 402e 61bd
000003d0: 9dcd 6a3d ff28 0fbe 0139 9e3d bb8d 52bb
000003e0: 84b7 babd 29ed e93d cb4b c8bb aa1a ea3c
000003f0: f614 64bc 7951 843c d8a7 183d d2ee dcbd

out.bias f4 [8]
-0.07481615 0.035636164 0.039452456 -0.0303159 0.058605943 -0.04229327 -0.019338906 -0.0032631725
00000000: 3639 99bd 3af7 113d e698 213d 0d59 f8bc
00000010: c90c 703d b53b 2dbd a06c 9ebc f3da 55bb
