models/InvertedDoublePendulum-v2/LossPredict/Dagger_925.pth (torch, 6751 bytes, 3 tensors)

fc1.weight f4 [100, 11]
00000000: 5ff7 46bf 8c5b 28bf 4f16 013f bde6 ce3e
00000010: 90fc 4b3f 75c9 673e 0e80 d23b 02de 04bf
00000020: be01 133e 959e de3d b691 07be 0d65 be3f
00000030: 62db 19bd 8f1b e53e dd84 96be 1d8e 38bf
00000040: 81dc 6d3d 54f1 31be 87ea 003b 5d32 5c3e
00000050: 9628 9abd 92f9 553d 1a69 ffbe 21be 113f
00000060: 3b31 4040 ff1a b53e a47a 75be 5d95 893e
00000070: 6d07 4a3f 439a 233f 8620 063e 13d1 6d3e
00000080: 43ba 0cbd e4da 033f 9002 3bbe 0e7c b2bf
00000090: 740a 34be 85c9 24bf 899d 26be bba9 bdbe
000000a0: 3195 90be 47c3 c43a ca90 473e d0e4 013e
000000b0: 3a15 fe3c 6ae8 253d 6b80 913c d795 92bd
000000c0: ddeb 7ebd e765 9abd e467 8dbd 7f02 58bc
000000d0: de24 95bc 4213 1a3c b8ad fb3d 7379 983f
000000e0: 4f09 85bd 30e3 94bf 43ef f0be 09c9 5bbf
000000f0: 0794 0bbd 5c2b 76be 6989 b5be 24d4 423e
00000100: cf04 a8bd 68bb 3cbb 415b ee3e e0e2 3f3f
00000110: d924 b3bf 514f 9c3f ac25 043f 218c 19be
00000120: b271 98be b646 163e 6f6a b0be 6a02 df3d
00000130: 3a37 df3b 1637 64bf df68 c2be c70e 1e3f
00000140: 9d86 383e f966 113f 7450 813e 879e aa3d
00000150: 3c3a d1be ca29 1b3e 6260 013d 8abc 573d
00000160: 957b 8f3e ac24 b1be 944a 933e 5e59 eabd
00000170: 3e38 96bd bf0b f63d cacd db3b abeb 983c
00000180: 90e8 2fbe cc80 2e3c 43b3 203d 355a b13f
00000190: 5401 c2be 47d0 1b3d 5cef ddbe 3f83 1dbf
000001a0: fb36 c73d e50b 59be 1cd4 8abd e7eb 61be
000001b0: cdd6 eb3d 4cf0 a03c 0be4 3dbf edd1 15bf
000001c0: 3ea6 743f 84b8 023d 1455 cb3e 4189 cb3e
000001d0: 1e1e b83c 7ad5 49be 37a5 7fbe 0fdc f43d
000001e0: e2f9 dabd 577e 293e 853e a03e ddb3 0540
000001f0: af44 e0be 5d05 03bf ed33 2ebe 7953 833e
00000200: af23 1d3f c856 083e 3c3f 9d3d 1314 d83d
00000210: 8177 d33f affe 323e ca5a 183f 5140 683e
00000220: f5ae f63d f9cf 1b3f 36c6 ae3e 5804 dabd
00000230: 3fc8 0bbd a2d6 8c3d eb19 1dbe b6a4 a63f
00000240: 7f2a 133e 4fd4 313f 8847 0dbf 2eb4 3cbf
00000250: 41fc bbbd 66fa 00be 067a 173e 99b1 1bbd
00000260: 92a7 ba3c c564 f4bd 42ae 68bf 1a91 85be
00000270: b135 f23e 7f86 653e cbfe 543f 52cb c03e
00000280: 08cc 093e aa0c f8be e991 493c 08c0 ebbd
00000290: a0a7 eb3d 279b 873e 7793 45be 4109 fbbd
000002a0: c78c 82be 2d49 09bd 2832 2e3d af53 2e3d
000002b0: 8dd9 61bc a583 3e3c 0704 9abd c392 0d3e
000002c0: dfe7 273f a4fa b6be 392c 503c f5a4 43be
000002d0: 054b c6be c136 fe3d c22b 0a3d cdab a4bc
000002e0: 0e3d 39be 53d7 9bbd 9f5e 73b9 0637 a33f
000002f0: 5cfc 34bd 9712 883e ac41 d9be 7c1b 17bf
00000300: 6d69 f53d f1de b2bc 6178 5ebd 5b10 72bd
00000310: 2cee 943c 63a2 30bd f2d3 dfbd e7f6 25be
00000320: 5e82 4640 2269 b03c 4624 e23c b07e 853d
00000330: 2cd6 3b3f f606 813e 2dc8 c4be 337a 44bd
00000340: 328d f53d dc05 b63f 7fe2 3a3f c2e4 59bf
00000350: ffd5 43be 3636 2ebf 084d 6ebe 2351 45be
00000360: 1596 5abe 86b9 973d bf81 09be 5446 c63d
00000370: c7ac 89bd 7e92 ef3d f129 643d a506 02be
00000380: e4a4 10be 14ea da3d 5c26 cf3c 33a8 2bbc
00000390: f715 1cbc 9f92 b93b c89c 583d 00d2 943e
000003a0: dbb4 b83e 3789 03c0 a6ee 883f 5e00 923f
000003b0: ed81 e5be 1aa8 07bf e2b8 1b3f 72ba f2be
000003c0: 0022 9d3d 7337 ec3c 9f0a d33e 1fbe debe
000003d0: 2e22 893e 143f 0e3e f50f fa3d 1e68 a73e
000003e0: 18b8 86bf 89ac 9a3e 63ad c43e 12d9 493d
000003f0: 67cb 3e3d 2f87 bfbe ec68 853e 271c 44bf
-0.7772121 -0.6576469 0.50424665 0.40410414 0.79682255 0.22635444 0.0064239567 -0.5190126
0.14356133 0.10870091 -0.13239178 1.4874588 -0.037562735 0.44747588 -0.29398242 -0.7209185
0.058071617 -0.17377216 0.001967104 0.21503587 -0.075272724 0.052239962 -0.49884874 0.5693074
3.0030048 0.3537216 -0.23972565 0.26871768 0.7891758 0.6390726 0.13098344 0.23224287
-0.03435732 0.51505876 -0.18262696 -1.3944108 -0.17582113 -0.64369994 -0.16271032 -0.37043557
-0.28238824 0.001501181 0.19488826 0.12684941 0.031015981 0.04050485 0.01776143 -0.07157486
-0.062236656 -0.075389676 -0.06904581 -0.013184189 -0.018206056 0.0094040055 0.122889936 1.1912063
-0.06495916 -1.1631832 -0.47057542 -0.8585363 -0.034076717 -0.24039978 -0.35456398 0.19026238
-0.08204042 -0.0028798226 0.46553996 0.7495556 -1.399562 1.2211705 0.5161998 -0.14994861
-0.29774243 0.14675412 -0.34456202 0.10889132 0.0068120034 -0.89146554 -0.37970635 0.617413
0.18020101 0.5679775 0.25256693 0.08331018 -0.40864742 0.1515266 0.03158606 0.05267004
0.28023973 -0.3459829 0.28767836 -0.11442827 -0.07334946 0.12013959 0.0067078816 0.018667063
-0.1717856 0.010650825 0.039233457 1.3855654 -0.37891638 0.038040426 -0.4334668 -0.6152839
0.097272836 -0.21195944 -0.06778738 -0.22062646 0.115155794 0.019645832 -0.7417609 -0.58523446
0.95566165 0.03191425 0.39713347 0.39753154 0.022475298 -0.19710341 -0.24965368 0.11956035
-0.106921926 0.16552101 0.312977 2.089103 -0.438024 -0.5118006 -0.17011996 0.25649622
0.61382574 0.13314354 0.076780766 0.10550704 1.6520845 0.17479967 0.59513533 0.22680785
0.12045089 0.60864216 0.34135598 -0.1064536 -0.034126516 0.068768755 -0.15341918 1.3019016
0.1437168 0.6946458 -0.55187273 -0.7371243 -0.09178973 -0.1259552 0.14792642 -0.038011167
0.022784982 -0.11933283 -0.90890896 -0.26087266 0.47306588 0.22414587 0.83201283 0.3765512
0.13456738 -0.48447162 0.012302854 -0.115112364 0.11506581 0.2648556 -0.19294535 -0.122576244
-0.2549803 -0.03351705 0.0425283 0.042560276 -0.013784778 0.011628066 -0.075202994 0.13825516
0.6558818 -0.357381 0.012705856 -0.19105895 -0.3872911 0.12412787 0.033733137 -0.020101452
-0.18089697 -0.07609429 -0.00023209535 1.2751167 -0.04418598 0.26576683 -0.42432916 -0.5902631
0.11982999 -0.021834822 -0.05431402 -0.05909763 0.018179975 -0.043123614 -0.10929097 -0.16207467
3.101707 0.021534506 0.027605187 0.06518304 0.73373675 0.25200623 -0.38433972 -0.0479681
0.119898215 1.4220538 0.73001856 -0.8511468 -0.19124602 -0.6805147 -0.23271573 -0.19269232
-0.21346314 0.07408433 -0.134284 0.09681383 -0.06722408 0.11697863 0.05570406 -0.12697847
-0.14125401 0.10689178 0.025286846 -0.010477114 -0.009526721 0.0056632305 0.052883893 0.29066467
0.36075482 -2.05525 1.069783 1.1406362 -0.44825688 -0.5299088 0.60828984 -0.4740787
0.076725006 0.028835034 0.4121904 -0.43504426 0.2678389 0.1389125 0.12210075 0.32696623
-1.0524931 0.3020976 0.38413534 0.04927928 0.0465807 -0.37407824 0.26056612 -0.7660546

fc1.bias f4 [100]
00000000: 899f d43e b13e d9be d61a af3e 11ee cc3d
00000010: 3f71 45be bbdc d6be 915f ac3f 06d8 b73e
00000020: 1e4d 6bbe 6448 c1be c070 0fbd 05ca 8fbe
00000030: 83cd b73d f036 e93b ec25 8a3e 4073 cfbe
00000040: dcee d6be 0d5d 17bf 7466 93be a568 ffbe
00000050: 9955 80be bd6c 853f 0b14 513e 5d53 15bf
00000060: d8b3 96be 28f2 d0be b426 a03e b159 e0be
00000070: e74c fcbb a56f 133e acd6 723e e9a5 4f3d
00000080: 7b6f f8bd e0b0 2dbe c3cc c2be fcb4 3a3f
00000090: 9eee ea3e 6436 a4bd 4384 d8be b804 99bd
000000a0: d24d fdbe 299e f53d 0253 c1be 85ed 433e
000000b0: 2fb1 363e 243e 0dbf cb20 9e3e adf2 913e
000000c0: 5bad e33e 3187 af3e 81a3 6f3f 2b47 4fbe
000000d0: 8a7a 353e a727 96be 3836 2ebd 1e8a 9c3d
000000e0: 7919 0abf 76cd df3e bde5 6ebe 8bf5 313e
000000f0: 0eac d43d 8b86 00bf e731 283d 5ce7 19be
00000100: 9aad 9d3e feae cbbe ff46 cdbc 8d9f 8e3e
00000110: f98f b7be 1888 c2be fcdd 8abe 5a95 ac3e
00000120: c4b0 86be 48cc b7bd 562c 78be 9752 59be
00000130: 5408 d83d 4662 a8be 957e 513c fd48 ccbe
00000140: a52a ce3e 4742 bdbe a6db ac3e 31b1 813e
00000150: 705c aebe 7dec a9be 7083 b4be 9c0e 6cbe
00000160: 8350 c4bd 1356 14bd c1b8 2bbe 0648 773d
00000170: 0bec 04be df89 b3be bd0b 29be 0852 b9be
00000180: d315 50bf 0a09 c33e cf79 dcbe 109d 59be
0.41527966 -0.42430642 0.34200162 0.10006345 -0.19281481 -0.4196528 1.3466665 0.35907
-0.22978637 -0.37750542 -0.035019636 -0.28083816 0.08974745 0.0071171448 0.26982057 -0.40517616
-0.4197911 -0.5912636 -0.28789103 -0.49884525 -0.25065306 1.0423809 0.20417802 -0.5833033
-0.29434085 -0.4080975 0.31279528 -0.4381843 -0.007699597 0.14398058 0.23714703 0.050695334
-0.12130638 -0.16962004 -0.38046846 0.7293241 0.45885175 -0.08018187 -0.42288408 -0.07471603
-0.49473435 0.11993057 -0.37758642 0.19133575 0.17841028 -0.55172944 0.30884394 0.2850546
0.44468197 0.3428283 0.9360886 -0.20241992 0.17722526 -0.29327127 -0.042532176 0.07643531
-0.5394512 0.43711442 -0.23329826 0.17378823 0.10384379 -0.50205296 0.041063216 -0.15029663
0.3079651 -0.39781946 -0.025058268 0.27856103 -0.3585203 -0.37994456 -0.27122486 0.33707696
-0.26306736 -0.089745104 -0.24235663 -0.21222912 0.105484635 -0.32887477 0.012786527 -0.39899436
0.4026691 -0.36964628 0.33761328 0.253305 -0.340549 -0.3318824 -0.3525653 -0.23052448
-0.09585669 -0.0362149 -0.16769697 0.06037142 -0.12980668 -0.35066125 -0.16508384 -0.36195397
-0.812833 0.38092834 -0.43061683 -0.21251321

out.weight f4 [1, 100]
00000000: 5e17 e53e 9e16 1bbe e5a8 adbf 5b50 0bc0
00000010: e1ae 0e3e 8ed9 00bf fb2c bbbf 798a d13e
00000020: ce79 adbd 669c fcbd d167 e5bd c8be 30bf
00000030: 035f 063f 966e 1cbe b75d 1a3e f75d 1ebd
00000040: 4eb7 a6be dd8f 9bbd 3631 09bf a629 1e3e
00000050: edb2 2e3d dd51 9c3f dfa3 1f3f f6d5 e7be
00000060: 3b38 9cbe 867e af3d 41c1 30bf 5ab4 5ebf
00000070: 25eb 33bf e9b2 4c3f 7fc2 88be 89ef 6abf
00000080: 49c4 693e 3c06 12be e3b4 3abf 47de 8fbf
00000090: 47d8 213d b1a5 3fbd b6b3 e9be b682 863e
000000a0: b90e 783e e9fd cfbe 2fc8 17be cdeb b7bf
000000b0: 5f23 953e ed42 afbe e594 2e3e dc20 0b3f
000000c0: ace0 a63e 9d23 36bf 9a93 84bf 7a81 c93d
000000d0: 1e5f 1b3f fc46 773e 70b8 183e 1cd2 bcbf
000000e0: 3da8 76bc af33 013f 2862 2b3e d6bf cebe
000000f0: c993 cabd 7c50 a3be 4e58 0f3e d848 db3a
00000100: 05d3 853d e191 bdbe a037 03be 6434 b43e
00000110: caee 29be 0116 2dbd 3431 963e cc69 d8be
00000120: cccb 12be b89e 6c3e ebaa adbc 63af f0be
00000130: a8e2 813d f322 2fbe 73e9 f2be fbaa 56be
00000140: c351 b8bf f88f 28bf 6537 d73e 6506 b93e
00000150: 168f 3abf a7c9 d1be c473 c0be 9c27 3fbf
00000160: be5a ccbf ab40 0cbf 670f 99be 89a9 2e3f
00000170: 7c77 c2bd 3ec8 90be a6ab d4be 8327 393e
00000180: 3d3e 263b 2652 e13e 4884 bcbd c0be 8cbe
0.4474439 -0.15145347 -1.3567168 -2.1767795 0.13933899 -0.5033196 -1.4623102 0.4092596
-0.08470498 -0.12334518 -0.11201442 -0.6904111 0.52488726 -0.1527656 0.15074812 -0.03866383
-0.32561725 -0.07595799 -0.53590715 0.15445575 0.042651106 1.2212483 0.6235942 -0.45280427
-0.3051165 0.08569054 -0.6904488 -0.86993945 -0.7028068 0.79960495 -0.2671089 -0.9177175
0.22828783 -0.1426019 -0.7293226 -1.1239709 0.0395129 -0.046788875 -0.4564492 0.262716
0.24224366 -0.40623406 -0.14822458 -1.4368836 0.29128549 -0.34230748 0.17048986 0.54347014
0.32593286 -0.7114809 -1.0357544 0.09839149 0.6069201 0.24148172 0.14914107 -1.475162
-0.01505476 0.5046949 0.16736662 -0.40380734 -0.09891469 -0.31897342 0.1399853 0.0016730083
0.065343894 -0.3702536 -0.12814188 0.3519622 -0.16594997 -0.042257313 0.29334414 -0.42268217
-0.14335555 0.23107421 -0.021199664 -0.4700881 0.063420594 -0.17103176 -0.47443733 -0.20963661
-1.4399952 -0.6584468 0.4203445 0.3613769 -0.7287458 -0.4097416 -0.37588322 -0.74669814
-1.5965192 -0.54786175 -0.29894564 0.6822744 -0.09495446 -0.28277773 -0.41537207 0.18081479
0.0025366687 0.44007987 -0.09204918 -0.2748928
