models2/InvertedDoublePendulum-v2/LossPER/Dagger_335.pth (torch, 6751 bytes, 3 tensors)

fc1.weight f4 [100, 11]
-0.08588184 -0.15049617 -0.008238283 0.12645063 -0.034774683 0.22147545 -0.1392023 0.006588283
-0.088565834 -0.02511762 0.090152375 0.08697886 -0.084258646 -0.024268983 0.03377738 -0.1696781
-0.12567629 0.04766728 0.10999579 -0.19582127 -0.08900698 -0.073812865 -0.13277179 -0.13150968
-0.21220608 0.17212458 0.23402591 0.088761345 0.010850761 0.013790728 0.0327513 -0.062210936
0.021519093 0.07526091 -0.0027235674 0.16693674 -0.037187945 -0.05414743 -0.03479028 0.054577183
0.20812254 0.0499296 0.09793796 -0.19482398 0.039150793 -0.050566375 -0.021827128 0.048335515
0.15143187 0.031051746 0.19329093 -0.04292599 0.07951523 0.0029433367 -0.24961285 -0.019713905
0.16862038 0.1160485 -0.09220635 -0.036599535 -0.10986652 0.054429892 0.018358443 -0.030689035
0.008168244 -0.1760902 -0.02967536 -0.05346832 0.38409054 0.08052659 0.059646845 -0.073477805
-0.10221119 0.2726466 0.21872286 0.084196456 -0.0030575653 0.033559576 0.23129565 0.22385968
0.28902093 -0.0054409704 0.0658353 0.16970119 0.17600846 0.01366654 0.005578308 0.15978132
0.056282017 -0.03945603 -0.18213373 -0.110021755 -0.2854173 0.07308541 0.13882752 -0.004465983
-0.11891519 -0.10608456 -0.03210896 -0.08177306 0.15631282 -0.10454734 -0.070047855 -0.39357567
0.06925873 0.007822328 0.025643824 -0.0126993125 -0.008113347 -0.12171879 0.059544835 0.07906006
-0.06554615 -0.11055669 -0.017722579 0.38427413 -0.028673843 -0.21464877 -0.074794784 0.0015652592
0.12580374 -0.09396941 0.21054786 -0.09011757 -0.04812986 -0.093459144 -0.010460646 -0.036257558
-0.10137635 0.037731923 -0.15600309 -0.18890816 -0.04016315 0.08541286 0.08688141 -0.07144974
-0.035397388 0.13498247 0.051641326 0.07225714 -0.20866115 -0.11234307 0.27564913 -0.17499726
-0.083240345 -0.07642327 0.17491136 0.14730573 -0.12346473 -0.13653922 -0.14714372 -0.104674615
0.08741223 -0.015159586 0.15045701 -0.119459964 0.18231507 0.0118553 0.21193433 0.16783133
0.06893081 0.08376374 -0.021723298 0.119539194 0.06474491 0.064324595 -0.11060255 -0.048033852
0.015365738 0.08597878 -0.09615074 0.1043463 -0.04831702 0.08281584 -0.031977758 -0.0041763494
0.1280878 -0.19934668 0.1966692 0.021299796 0.05901422 0.09830855 -0.19688173 0.094812036
-0.051116418 0.06545283 -0.02739275 0.21340881 0.15837997 0.08375728 0.2633107 0.087687165
0.07194723 -0.13246468 0.04136962 -0.020739347 -0.010083793 0.11035575 0.076427534 0.00077026314
0.13195817 -0.123213015 -0.08527166 0.06127801 -0.10396455 0.2512266 -0.051618565 0.055023383
-0.05781102 -0.13305424 0.13690452 -0.22531477 0.062926665 -0.11692414 -0.119400546 -0.06842831
-0.08924072 -0.13348387 -0.22449122 -0.043843493 -0.14675583 0.13736126 0.062194593 0.01098625
-0.26580998 -0.1664573 0.008303198 0.0155934235 -0.13358651 -0.16718581 0.054428607 -0.14809793
0.012839219 -0.14152539 -0.24868861 0.05677548 0.038924985 0.08483089 0.012464193 -0.049522158
-0.057145584 -0.058224857 0.103368536 -0.1362728 -0.07399875 0.0386336 -0.1666977 0.17214426
0.14274634 -0.18741341 -0.037994597 0.013126263 -0.001610039 0.09710893 0.07278033 0.06912781
00000000: d1e2 afbd ab1b 1abe ddf9 06bc 467c 013e
00000010: e66f 0ebd 76ca 623e 0c8b 0ebe 86e2 d73b
00000020: 0162 b5bd 78c3 cdbc cfa1 b83d f921 b23d
00000030: cc8f acbd bfcf c6bc 265a 0a3d 19c0 2dbe
00000040: 49b1 00be c43e 433d 7945 e13d 5f85 48be
00000050: 4b49 b6bd 332b 97bd 54f5 07be 79aa 06be
00000060: 8d4c 59be 6d41 303e 7da4 6f3e 82c8 b53d
00000070: 64c7 313c 81f2 613c 3a26 063d e5d0 7ebd
00000080: cf48 b03c 6422 9a3d e17d 32bb 77f1 2a3e
00000090: 6352 18bd b2c9 5dbd 4180 0ebd 538c 5f3d
000000a0: 131e 553e fb82 4c3d b293 c83d f07f 47be
000000b0: 955c 203d b01e 4fbd cece b2bc 76fb 453d
000000c0: f510 1b3e 3b60 fe3c 0fee 453e 2ad3 2fbd
000000d0: e2d8 a23d ffe4 403b 839a 7fbe 0e7f a1bc
000000e0: d2aa 2c3e d6aa ed3d afd6 bcbd 65e9 15bd
000000f0: b301 e1bd e1f1 5e3d 7264 963c 9267 fbbc
00000100: 19d4 053c fd50 34be be19 f3bc 9901 5bbd
00000110: 84a7 c43e 20eb a43d 4050 743d 887b 96bd
00000120: 1a54 d1bd 5698 8b3e e3f8 5f3e 316f ac3d
00000130: 6f61 48bb c475 093d c4d8 6c3e 793b 653e
00000140: 8dfa 933e 2b4a b2bb a8d4 863d 26c6 2d3e
00000150: 903b 343e a0e9 5f3c 3dca b63b b79d 233e
00000160: f987 663d a59c 21bd 4481 3abe 1653 e1bd
00000170: 3722 92be cead 953d cd28 0e3e 6157 92bb
00000180: cf89 f3bd dd42 d9bd af84 03bd a278 a7bd
00000190: 7810 203e ea1c d6bd 4075 8fbd c082 c9be
000001a0: 85d7 8d3d 3929 003c ff12 d23c c710 50bc
000001b0: d8ed 04bc b347 f9bd 49e5 733d 3eea a13d
000001c0: 0f3d 86bd 8c6b e2bd f12e 91bc 94bf c43e
000001d0: 68e5 eabc e3cc 5bbe 022e 99bd 6229 cd3a
000001e0: b2d2 003e 0973 c0bd dc99 573e 8f8f b8bd
000001f0: d123 45bd 8267 bfbd 2163 2bbc ce82 14bd
00000200: 679e cfbd ca8c 1a3d 46bf 1fbe 2471 41be
00000210: 1d82 24bd f0ec ae3d e1ee b13d 3e54 92bd
00000220: dafc 10bd d838 0a3e db85 533d 8dfb 933d
00000230: 45ab 55be 2014 e6bd e221 8d3e 7b32 33be
00000240: ea79 aabd ce83 9cbd f71b 333e 50d7 163e
00000250: 14db fcbd f0d0 0bbe d8ac 16be a55f d6bd
00000260: 2f05 b33d ea5f 78bc 6711 1a3e 6da7 f4bd
00000270: cdb0 3a3e bb3c 423c 5005 593e fadb 2b3e
00000280: 992b 8d3d 538c ab3d 0ff5 b1bc f7d0 f43d
00000290: fb98 843d 9dbc 833d 9783 e2bd 25bf 44bd
000002a0: 94c0 7b3c a515 b03d aeea c4bd 83b3 d53d
000002b0: 11e8 45bd 5a9b a93d 1cfb 02bd c2d9 88bb
000002c0: 7329 033e 8921 4cbe a763 493e e97c ae3c
000002d0: e5b8 713d fe55 c93d 5d9b 49be d02c c23d
000002e0: 735f 51bd 220c 863d c366 e0bc d787 5a3e
000002f0: 5c2e 223e f088 ab3d a9d0 863e 5495 b33d
00000300: 1259 933d d2a4 07be 3173 293d 90e5 a9bc
00000310: 7e36 25bc 3202 e23d 0a86 9c3d 7ceb 493a
00000320: 0b20 073e 1b57 fcbd e8a2 aebd a7fe 7a3d
00000330: 5eeb d4bd c6a0 803e fd6d 53bd 3360 613d
00000340: 40cb 6cbd 5f3f 08be b330 0c3e eab8 66be
00000350: b2df 803d ec75 efbd 4688 f4bd 2424 8cbd
00000360: d7c3 b6bd ffaf 08be 07e1 65be 3c95 33bd
00000370: 2947 16be 6ea8 0c3e c2bf 7e3d acff 333c
00000380: 3f18 88be c873 2abe 230a 083c 8f7b 7f3c
00000390: e7ca 08be c232 2bbe 88f0 5e3d fca6 17be
000003a0: 965b 523c 08ec 10be 3aa8 7ebe 688d 683d
000003b0: ce6f 1f3d d1bb ad3d 9d36 4c3c bfd7 4abd
000003c0: 7d11 6abd 307d 6ebd e2b2 d33d 198b 0bbe
000003d0: a88c 97bd 443e 1e3d cdb2 2abe 9646 303e
000003e0: 192c 123e 4de9 3fbe 39a0 1bbd 8a0f 573c
000003f0: f207 d3ba 0ce1 c63d db0d 953d e292 8d3d

fc1.bias f4 [100]
0.10078574 0.049135078 0.2182186 0.18090577 0.25568908 -0.28254342 -0.047823112 -0.19621953
0.21025243 -0.033388834 -0.11634652 -0.24103479 -0.15415415 0.3412769 -0.06520316 -0.21728373
-0.31430492 -0.24778348 -0.07093724 0.17639154 0.044051725 -0.32803825 -0.17269616 -0.28355592
-0.13118732 0.24004279 0.19119823 -0.28936136 0.13140903 0.015951412 0.17840345 -0.015346718
-0.116925016 -0.010551529 -0.1288971 0.024459982 -0.21516682 -0.13107108 -0.080636285 -0.06743583
-0.20414723 0.24087162 0.047180578 -0.09144553 -0.15440115 -0.15937561 -0.102557965 0.18617812
0.13252813 0.1358233 -0.2396024 0.16276512 -0.10445451 0.15612184 -0.13977732 -0.22877525
-0.24236107 -0.08680582 -0.05804983 0.14382344 0.050193734 0.05420315 0.11502083 -0.22547092
-0.063541554 0.0008602853 0.21494994 -0.29888603 -0.25459364 -0.038352106 0.08921545 -0.03941932
0.061464984 0.1169427 -0.27306914 -0.0034077864 0.0016001341 -0.017166978 0.03174577 -0.06632604
0.27571124 -0.07870476 -0.025916038 0.25835264 -0.24314302 0.23948197 -0.26754388 -0.18596485
-0.12241612 -0.3140111 -0.15891163 -0.34602916 -0.108286634 -0.28609353 0.08630194 -0.117804326
0.21393883 -0.22552407 -0.14759171 -0.012882434
00000000: c168 ce3d dd41 493d b274 5f3e 5d3f 393e
00000010: aee9 823e 88a9 90be 2be2 43bd c6ed 48be
00000020: 6a4c 573e bbc2 08bd 1647 eebd d3d1 76be
00000030: 96da 1dbe d9bb ae3e 3c89 85bd a07f 5ebe
00000040: 93ec a0be f4ba 7dbe 8b47 91bd fc9f 343e
00000050: 956f 343d a1f4 a7be 43d7 30be 3e2e 91be
00000060: f855 06be c7cd 753e 78c9 433e 2c27 94be
00000070: 1790 063e 89ac 823c 65af 363e cd70 7bbc
00000080: 6276 efbd 52e0 2cbc 9afd 03be 4d60 c83c
00000090: b154 5cbe 7f37 06be a324 a5bd cc1b 8abd
000000a0: f90b 51be 0da7 763e 6c40 413d cb47 bbbd
000000b0: 561b 1ebe 5c33 23be e909 d2bd 7aa5 3e3e
000000c0: 74b5 073e 4315 0b3e 555a 75be e6ab 263e
000000d0: 3fec d5bd 67de 1f3e c921 0fbe 0f44 6abe
000000e0: 802d 78be 40c7 b1bd a9c5 6dbd 7446 133e
000000f0: f297 4d3d 1f04 5e3d 0a90 eb3d d9e1 66be
00000100: 1322 82bd c584 613a d61b 5c3e 9707 99be
00000110: 195a 82be 1917 1dbd 97b6 b63d 2776 21bd
00000120: b5c2 7b3d a87f ef3d b8cf 8bbe 2b55 5fbb
00000130: 97bb d13a c3a1 8cbc da07 023d f2d5 87bd
00000140: 062a 8d3e f62f a1bd df4d d4bc cc46 843e
00000150: 7cfa 78be c33a 753e 83fb 88be 926d 3ebe
00000160: 4db5 fabd 10c6 a0be bbb9 22be bc2a b1be
00000170: 62c5 ddbd da7a 92be 12bf b03d 6543 f1bd
00000180: c812 5b3e c8ef 66be 4822 17be d810 53bc

out.weight f4 [1, 100]
-0.12865849 -0.05723581 0.18807523 -0.091559805 0.026818994 -0.015948234 -0.08821583 -0.19227766
0.035034012 0.008008025 -0.16818874 -0.043125093 -0.036305733 0.058652766 -0.0015396794 -0.11430578
-0.09299149 -0.057059683 -0.13776112 -0.009010561 -0.042332925 0.039230615 -0.08611817 -0.11330253
0.100835495 -0.08016196 0.18487686 -0.038294822 0.03925448 -0.13116372 -0.002361979 0.05600219
0.05259072 -0.17540786 -0.06866532 -0.14759311 -0.11929041 -0.35704857 -0.0560563 -0.037043642
-0.09629443 -0.23577799 0.050973106 0.0083468035 -0.06548313 -0.013241523 0.15003249 -0.062683865
-0.051689304 -0.114711344 0.012597944 0.119826935 -0.13593647 0.0016692925 -0.0047803503 -0.20394441
0.2461004 -0.002626166 -0.10304696 0.1332157 -0.0011262093 -0.07389178 -0.1533994 -0.118867144
0.025986297 -0.091682024 -0.08853974 0.2821369 -0.033553462 0.021248417 -0.15087353 -0.06404482
-0.007650353 0.020184403 -0.022880657 0.05033593 0.15997456 -0.034802783 -0.065648936 -0.17676498
0.056982074 -0.08411941 -0.14470853 0.2735145 -0.052011844 0.045123965 -0.3270999 0.050365493
-0.112184264 -0.04782112 -0.038730305 0.13573232 -0.20424293 -0.034972265 -0.10161213 -0.070462
0.04482415 0.061873406 -0.071640186 -0.16504309
00000000: 0dbf 03be 1970 6abd cb96 403e b583 bbbd
00000010: 82b3 db3c dfa5 82bc 80aa b4bd 6fe4 44be
00000020: d37f 0f3d 1734 033c ab39 2cbe f0a3 30bd
00000030: 52b5 14bd e23d 703d 11cf c9ba 2619 eabd
00000040: 5372 bebd 6ab7 69bd 4011 0dbe 08a1 13bc
00000050: 4a65 2dbd 48b0 203d b95e b0bd 280b e8bd
00000060: d782 ce3d f42b a4bd 5c50 3d3e 08db 1cbd
00000070: 4ec9 203d c84f 06be 6fcb 1abb 8d62 653d
00000080: 5e69 573d 1e9e 33be 67a0 8cbd a622 17be
00000090: 884e f4bd 12cf b6be 4a9b 65bd 13bb 17bd
000000a0: 0436 c5bd c96f 71be 2dc9 503d 08c1 083c
000000b0: 051c 86bd f9f2 58bc 1ea2 193e 6660 80bd
000000c0: 2ab8 53bd c8ed eabd 9b67 4e3c d367 f53d
000000d0: ee32 0bbe 29cc da3a 7ca4 9cbb ced6 50be
000000e0: be01 7c3e c11b 2cbb 490a d3bd b269 083e
000000f0: 509d 93ba 9354 97bd bb14 1dbe 9e70 f3bd
00000100: 37e1 d43c c9c3 bbbd 5354 b5bd 3f74 903e
00000110: 5b6f 09bd 2911 ae3c 977e 1abe ee29 83bd
00000120: d0af fabb c359 a53c 3770 bbbc 0c2d 4e3d
00000130: 5fd0 233e 5d8d 0ebd f372 86bd e101 35be
00000140: 0966 693d cc46 acbd 792e 14be 180a 8c3e
00000150: 5f0a 55bd e8d3 383d a379 a7be 0c4c 4e3d
00000160: ddc0 e5bd 14e0 43bd aba3 1ebd 6afd 0a3e
00000170: 0f25 51be 143f 0fbd 051a d0bd 624e 90bd
00000180: 8799 373d f86e 7d3d 17b8 92bd 0e01 29be
