models2/HalfCheetah-v2/MaxDisSample/Dagger_305.pth (torch, 11167 bytes, 4 tensors)

fc1.weight f4 [100, 17]
00000000: 95f6 5abd 1fea 2c3e bdcb efbd 92a8 a53c
00000010: e693 733e 89dc 853d 794e c9bc 1773 d83d
00000020: f071 f03c 7132 843d 3b44 a6bd 8fb0 ec3c
00000030: 912a b13c adfa 103d bfd1 f73c 67d5 093c
00000040: b1ea 053e 5ab6 d8bd 86dc e23d f7da 933a
00000050: 48e6 6fbd 5dcd 9c3c cd8e 883d db91 903d
00000060: b294 e63c 26fe dd3d 7d60 103d da7d aa3c
00000070: e7af 95bc eb7e 47ba 7a34 423d c564 373e
00000080: e981 06be 543f 783d 8b86 8abc e020 1abd
00000090: 0648 e23d cbed b53d 75cd 94bd 1bc3 d4bd
000000a0: 1c89 883d 0a62 85bd adf4 373e 9ebb 2fbd
000000b0: a9cc e73d 98f9 3fbe 1deb 2a3c 55ca 86bd
000000c0: 27a8 123d 6632 473d d97d f2b5 19c9 c2bc
000000d0: 1a81 59be 5988 ea3d dc5a 24be dd0c 853d
000000e0: 34f1 0b3d 7ceb 883d b00c 62bd 3963 7abb
000000f0: 26c0 5b3e d72a 1ebe 0ea0 2ebe aee2 4e3d
00000100: 023f e1bc c85e 2fbe d2cb 68bd 3c0d 28be
00000110: 8bfa 9a3e 02cd 77bc f42a b4bd f0f7 97bd
00000120: 90bc 65bc a0f1 a6bd 7a1d 40bd d38e a93d
00000130: d718 cfbd 8779 553e b583 90bd 8acb c63b
00000140: c387 21be 3826 4dbd 823d 333d 1037 a43b
00000150: 3207 34be 0f09 643d 3cc9 97bd eb67 e5bd
00000160: bab7 94bd 6f68 a53c 3e00 7b3d fb5e f5bd
00000170: e3ad 4b3d d2dc 50be 6fa8 4fbe 6cef 1cbd
00000180: 2949 8abd 5ea2 33bd 657c 9e3d 2659 1cbe
00000190: 7da2 953d 47b1 5f3d 1aa5 5c3e 1e3e 37be
000001a0: fef9 ad3d cb7d 81bd 2900 c73c 8ee8 b3bd
000001b0: 42ad 4dbd 2b55 e5bd b8c8 363e 4004 c43e
000001c0: 21ce 03bd bb73 163e e43b eb3c 378e d1bd
000001d0: cebe 00be 9c05 35be aec6 8abd 8da8 513d
000001e0: 25bb 163d 65de 213e 6997 9dbd eac6 de3b
000001f0: b9a6 693e 3d16 ab3c 251e 9e3d ee1b 45be
00000200: 9f40 0f3e d3fb 32be ccc4 d53c cdb5 bb3c
00000210: ad51 493d 208d 4bbc 62d8 933c ec7d e2bd
00000220: 4bb3 2a3b 494c 623d 5a13 a8bd 54c3 1abd
00000230: 0b49 9f3d 508c 363e e4b9 c63c 35e3 6abc
00000240: 8105 e13d d426 0b3e 3bbf 543d d55c 05be
00000250: 4074 733c 889b 8abd 0e13 203d 6758 b8bb
00000260: 93f2 ba3d bbf0 053c b5b7 1bbe 4238 70bd
00000270: c8bd 073e 99dc da3d abc0 563d 8482 47bd
00000280: 5faf 43bd e2ce fd3c f77d 823d efc5 813d
00000290: f8b3 03be 8f1d 993d c67c 8d3d 2f84 37be
000002a0: 3191 103d b978 803d 7af7 b03b b054 14bd
000002b0: 83fe 423b b2f4 ac3d 3af8 cb3d a527 943c
000002c0: b1eb a2bd fac9 103e 5e15 363c a0b8 0abe
000002d0: a5fd b4bd 912e 133e f36f dbbd 316f a5bc
000002e0: d3fe 143e 4103 043e ef34 0cbd 9bdc cd3d
000002f0: 3837 713e c37c 383d 98f6 103d fc21 0c3d
00000300: 92dc aa3d 99ab 543e 09f4 b6bb 8ae0 bc3d
00000310: 9cce 7cbd 60f9 fdbd a418 bd3c 675b 933d
00000320: b15a 313e febe c339 45e6 12be abc7 603e
00000330: b725 93bd faae 0bbe 6788 893d 3e41 ff3b
00000340: 1962 bc3c 4fbb 553d af10 f7bd cfb1 86bd
00000350: b6c7 a9bd 81c6 173e 1ff5 983d d7e0 283d
00000360: 9246 d5ba 04a4 203e 17bb 5bbd 23ed d2bc
00000370: c6f9 1fbe 707a 6fbd fe1f 19bb f3cb afbd
00000380: 5c94 373e 5bad 2b3e 8682 46be bbc6 66be
00000390: f1c9 673c fc17 fbbd 3dc8 043e ee2f c2bd
000003a0: adef c83d f454 ea3c 7a0f 4abc cb87 933b
000003b0: 8863 5a3d 9758 6abd e802 82be 173c acbc
000003c0: 605b cd3c a50f b2bd 9889 cbbd 1626 32bd
000003d0: b39c cbbd 4c68 76be 328c 4d3d aced 71be
000003e0: b070 de3d 8818 43bd 4d21 c63d 8981 773d
000003f0: 1794 26be c66f 86bd f4c6 babc c55f 49be
-0.053457815 0.16886185 -0.11708782 0.020221982 0.23786888 0.06536204 -0.024573551 0.10568827
0.029351205 0.064549334 -0.08118483 0.028892783 0.021626743 0.035395313 0.030251382 0.0084126955
0.13077809 -0.10581656 0.11077218 0.0011280467 -0.058569223 0.019140894 0.06667862 0.0705907
0.028147075 0.108394906 0.03524827 0.020811964 -0.018272353 -0.000761016 0.047413327 0.17909534
-0.13135494 0.06060727 -0.016909858 -0.03762901 0.11048894 0.08883246 -0.0726575 -0.10388776
0.066667765 -0.0651284 0.1796443 -0.042903535 0.11318333 -0.18747556 0.010432032 -0.065815605
0.035804894 0.048632048 -1.8067032e-06 -0.023777531 -0.21240655 0.114517875 -0.16050285 0.06496594
0.034165576 0.0668554 -0.05518788 -0.0038206114 0.21460018 -0.1544603 -0.17053244 0.050509147
-0.027495865 -0.17126 -0.056835003 -0.16411299 0.30269274 -0.015124561 -0.08797255 -0.07420337
-0.014022008 -0.08151555 -0.04690311 0.08279195 -0.1011216 0.2084714 -0.07056371 0.006066744
-0.15774445 -0.050085276 0.04375983 0.005011447 -0.1758087 0.0556727 -0.07411429 -0.112014614
-0.072616056 0.0201914 0.061279528 -0.11981007 0.04972638 -0.20396736 -0.20279096 -0.038314268
-0.067522354 -0.043856017 0.0773857 -0.15268382 0.07306383 0.054612424 0.21547356 -0.1789479
0.08494948 -0.06322821 0.024292069 -0.08784591 -0.05021406 -0.11197885 0.17850006 0.38284492
-0.032179 0.14692585 0.028715082 -0.102322035 -0.12572786 -0.17677921 -0.067761764 0.051186133
0.03679957 0.15807493 -0.07694895 0.0067986147 0.22817506 0.020884627 0.07720593 -0.19248936
0.13989495 -0.17478876 0.026094817 0.022913838 0.049150158 -0.012423784 0.018047515 -0.11059174
0.0026046808 0.055248532 -0.08206816 -0.037783936 0.07777604 0.17826962 0.024258561 -0.014336397
0.10987378 0.1358903 0.051940184 -0.13023694 0.014859259 -0.067679465 0.039080672 -0.0056257728
0.091282986 0.00817507 -0.15206797 -0.0586474 0.1325599 0.10686607 0.052429836 -0.048708454
-0.04777467 0.030982438 0.06371682 0.06336581 -0.12861621 0.07476341 0.06908564 -0.17921518
0.035294715 0.06273026 0.0054005953 -0.036213577 0.0029753752 0.084451094 0.09959455 0.01808531
-0.07955111 0.14139548 0.011113493 -0.13546991 -0.08837441 0.14373232 -0.10714712 -0.020194622
0.14550333 0.12891866 -0.03423017 0.10051843 0.2355622 0.045040857 0.03539142 0.034212098
0.08342852 0.20768584 -0.0055832905 0.09222515 -0.061720476 -0.1240108 0.023083039 0.07195168
0.17319752 0.000373356 -0.14345653 0.21951167 -0.07184928 -0.13640967 0.0671547 0.00778976
0.022995995 0.052180585 -0.12063729 -0.06576883 -0.08290045 0.14821817 0.07468628 0.04123005
-0.0016271642 0.15687567 -0.05364522 -0.025747841 -0.15622625 -0.058466375 -0.0023365016 -0.08583822
0.17927688 0.16765349 -0.19385728 -0.22536747 0.014147268 -0.12260434 0.1296701 -0.09481798
0.098113395 0.028604962 -0.012332791 0.004502272 0.053317577 -0.057213392 -0.25392842 -0.021024747
0.025067985 -0.0869439 -0.09938353 -0.043493353 -0.099419974 -0.24063224 0.05018253 -0.23625821
0.10861337 -0.047630817 0.0967432 0.06042627 -0.1626743 -0.06564288 -0.022799946 -0.1966544

fc1.bias f4 [100]
00000000: bbdb 89be ec71 383e 3549 36be 55f6 8e3e
00000010: 8723 873e 4b87 41be 809e 343e 71de 73be
00000020: 86c1 8cbd 7cb2 1abe a427 c8bd affb 43be
00000030: 3bf6 51be 1922 ae3c 49c1 1e3d 2a1e 69bd
00000040: 780c e7ba 297f 05be 5742 ccbd 9a55 15be
00000050: b732 64bd 1812 123e 0c7f 883e 4416 39be
00000060: 0c59 b3bd 8acf 4a3e 6ed4 163e 5e7d 85bd
00000070: ae47 23bd 2fcc 1fbe ef2d ffbd eaf1 2abe
00000080: caa7 283e ba2b 0cbe 82a3 373e 98cc 1e3e
00000090: 4864 3abe 65eb 03be c562 28be 53c7 743e
000000a0: f917 033d 5eb6 0ebe adee 8d3b 7422 2bbe
000000b0: 7b61 193e 654f bf3a 468b 803d 07bb 963e
000000c0: 8cc9 363e a807 9b3d 915b 5e3e fac9 b63d
000000d0: caba 723e 3d5e 3dbe 9473 34bc 548b acbb
000000e0: bdc7 76bd 8ca4 9a3e d9e8 ed3d 30c0 843e
000000f0: 3511 a03c bd10 c6bc 4035 99bd 35c9 39be
00000100: 3677 3f3e 120a f93d b4c3 683d 2201 9b3d
00000110: 80a8 32be c200 063e b3c7 3dbd 6b2c 153c
00000120: 4946 8f3e 68ba 03be d8fd da3d 9ee5 81bd
00000130: 898a 003e cc51 0ebd f62b 333e a770 05be
00000140: a208 4f3e d0b0 1d3e de35 bf3d 23b0 05bd
00000150: 56c4 563e e383 193d ce8d 23be 249d 43be
00000160: cb90 113c 03f8 5a3e e348 8d3d 7f50 b73d
00000170: a595 373e 957a 213e 94b9 5ebd 1297 4bbe
00000180: 9fc5 6bbe 1c39 4dbe 26af d63d 00d8 653d
-0.26925454 0.18012208 -0.17801364 0.2792231 0.26394293 -0.18899266 0.17638588 -0.23815323
-0.06872849 -0.15107149 -0.09773186 -0.19138978 -0.20504086 0.021256493 0.03875855 -0.056913532
-0.0017627617 -0.13036789 -0.09973591 -0.14583436 -0.055712428 0.14264715 0.2665943 -0.180749
-0.08757219 0.19805732 0.14729473 -0.065180525 -0.03986328 -0.15605234 -0.12459933 -0.16693845
0.16470256 -0.13688555 0.17933467 0.15507734 -0.18202317 -0.12882765 -0.16443928 0.23904161
0.032005284 -0.13936755 0.004331431 -0.16712362 0.14978592 0.0014595805 0.06276564 0.29439566
0.17850322 0.0756982 0.21714617 0.08925243 0.23704067 -0.1849298 -0.011013884 -0.0052656326
-0.06024908 0.30203664 0.11616678 0.25927877 0.019539455 -0.024177903 -0.0748086 -0.1814316
0.18697819 0.12160124 0.056827262 0.075685754 -0.1744709 0.13086227 -0.046333026 0.009104828
0.2798331 -0.12864077 0.10692948 -0.06342624 0.12552847 -0.034745976 0.17497239 -0.13031255
0.20218137 0.1539948 0.09336446 -0.03263868 0.20973334 0.037479293 -0.15972063 -0.19102913
0.008884619 0.21383671 0.06898668 0.089509 0.17928179 0.15769418 -0.0543762 -0.19881848
-0.23024605 -0.20041317 0.10482626 0.056114197

out.weight f4 [6, 100]
00000000: c558 bbbd 5003 3fbe 849a 093e 5520 963e
00000010: c354 8c3d d8ca 2abd f839 393e 9a2f 94bd
00000020: 5bc6 9c3c 0add 253c b582 df3d da63 de3d
00000030: 9ac6 583e 221f 6dbd 69fe dd3d eb06 293e
00000040: f895 013e c0a0 783c 0134 153d 7cea 8c3c
00000050: 1e11 ca3d bd27 90be 2025 943e 00a9 a13d
00000060: 2bf6 d1bd b924 faba db71 77bd 1ff4 7d3d
00000070: 97e3 cabb f9ad 91be 5977 f03d 5125 df3d
00000080: f895 593a 29cc 063e abc3 203e 00eb 2a3e
00000090: b90f a3bd 7569 e7bd 55bb 733e eb60 123e
000000a0: de2b 50bd e495 b33c 69c2 1f3e 2365 b8bc
000000b0: b574 b83d efe2 013c 9345 b43c 0939 873d
000000c0: be78 f7bd ef9c 1f3e a06f 32bd 5858 703d
000000d0: 26fd 9bbc 9eee bc3e 3eb4 40be aceb 16be
000000e0: e7e7 213c d9e8 093d 10bd 373d b6e5 a73d
000000f0: f970 ae3d 01d2 0ebd 5957 1b3d e567 6b3d
00000100: 3a40 7ebd 37dd fc39 c51c 92bd 9e14 693e
00000110: 609b ccbc dbc1 023d 9aad 8fbd 7db6 4fbd
00000120: 9ddf 5a3e 3d48 353e dabf 9b3d 2024 603d
00000130: 9e2a a9bd faec 95bd 6df7 123e 3e87 50bd
00000140: 7393 56bd 48a8 da3c f511 3ebc f937 73bc
00000150: 984c 233e cd34 d13d 2e20 d63d 08b3 8e3d
00000160: 3a16 0a3d f0ca ca3c f1e5 913b bcc6 123d
00000170: 5098 71bd c895 7cbd 1aa2 ec3d 24b4 fdbb
00000180: 5ffe 043e 7fb2 4f3d f77a 043e b748 aa3d
00000190: 0741 6b3d 0542 2b3c 988f dabc 9c51 c1bd
000001a0: e2e1 16bd cf66 61be a0ed d43d 7943 dbbd
000001b0: 2b0a 7abd 3c79 1bbe 045c 473c d5bf 70be
000001c0: 6e6e 12be e8f6 293d 6db5 2a3d 0247 cfbd
000001d0: bab4 13bc 2102 c2bd 7acc adbc 76f2 5cbd
000001e0: c4c7 53be c954 7c3d 73b2 0dbe 3d3b 17be
000001f0: f1e2 54be 4d48 4b3d e928 363e 59a2 a2bc
00000200: b8a2 f9bd d8b6 373c 82da b33d 04bf 3fbe
00000210: 64ad 2cbe 7af2 cebd bf81 8dbd 7942 df3d
00000220: 2d19 2dbd cf58 963d 47ee debb b2f7 d83c
00000230: a018 01bd 8e0b 9f3d 3757 5b3d 0b6f 75bd
00000240: 49ac 8abd 13a0 a9bb d9a0 cfbd f683 063c
00000250: 0d90 27bd 9c6e b53d 2233 ef3b fe81 1dbe
00000260: be9c 9abd a5f0 dcbd e99d f63c f4db 0cbe
00000270: 26b8 c83d f159 11be dbbd 33bd 45c4 3dbe
00000280: 105f b03d a9c6 823d 6238 023e c3d5 30bd
00000290: a084 82bd 37a8 e1bd d14c 38be 84fd 623d
000002a0: 1109 6d3c 5af4 25be c5ad 0cbe d382 c2bc
000002b0: 0272 5bbd 59cc 193e fcac 32be de1b e93d
000002c0: 83d8 56be 1be5 afbc 9798 bbbd 214b 46bb
000002d0: 826e 04bd 893d 2c3d 0d9d 8abc 2d75 38bd
000002e0: aea6 8fbe 6f6b c23d a170 8b3d 4ac3 913d
000002f0: 0b1c d33d b2ec 9dbd 8b34 0cbd e3b9 f9bc
00000300: 21e3 39be 3b85 91bd 3911 cd3d 9abb 4fbe
00000310: 1bec 543d a3b5 e83d a849 57bd 1093 183e
00000320: da9e 88bd e6f9 bbbd 8728 52bd e241 313e
00000330: c56f 923e 39e8 0f3d 3d1a 3c3d d7d5 27be
00000340: 5f7b 48bd 1fa0 b43c 52c1 11bc 0bf9 81be
00000350: 32f7 2fbc 500d b1bd 8f99 123d a2e1 953d
00000360: 1aa1 f73d 9a4f 39bc 0cc5 073c ddab 473e
00000370: e1e5 223d fe5d 013e 7471 de3d eae6 a3bd
00000380: c511 b7bd 989a 12bd 7d44 263d 03d2 96bd
00000390: a0e8 b43d ee47 06bd 8665 5dbd 8938 69bb
000003a0: f57f b2bc ea5c 6fbc 6eff 1f3d 2668 a9bd
000003b0: 4de7 803d 99d0 a5bd 0836 c43d 37ef f0bc
000003c0: 16f9 b4bd a934 7d3c af0c 543e 75aa 6ebd
000003d0: 1c2a 91bd 2dab 383e e484 133d c117 f73d
000003e0: a85b 133d f29f 9fbc f1a4 33be 956c 503e
000003f0: eb8c b13e 3bf3 7e3c 23a4 533d c121 393e
-0.09147791 -0.18653607 0.1343785 0.29321542 0.068521045 -0.041697353 0.1808852 -0.07235642
0.019137552 0.010123501 0.10913602 0.10858889 0.2116951 -0.05789102 0.108395405 0.16506545
0.12654865 0.015175045 0.036426548 0.017201655 0.09866546 -0.28155318 0.28934574 0.07893562
-0.10252031 -0.001908443 -0.060411315 0.06200039 -0.0061916816 -0.28453043 0.11741514 0.108957894
0.000830024 0.13163818 0.15699641 0.16691208 -0.07961983 -0.11299411 0.2380193 0.14294784
-0.050823085 0.02192206 0.15601505 -0.022509163 0.09006635 0.00792764 0.022005832 0.066026755
-0.120835766 0.15587209 -0.043563485 0.058678 -0.019041609 0.369008 -0.18818757 -0.14738339
0.00988195 0.033669326 0.04485804 0.08198111 0.085176416 -0.034868244 0.037925098 0.05747213
-0.06207297 0.00048230003 -0.071343936 0.22761771 -0.024976432 0.031923156 -0.07015534 -0.050711144
0.21374364 0.17703338 0.07604952 0.05472195 -0.08260082 -0.0732059 0.14352198 -0.050910227
-0.052386712 0.02669157 -0.011600961 -0.014844888 0.15947187 0.10215149 0.104553565 0.06967741
0.033712603 0.024754971 0.00445246 0.03583406 -0.058983147 -0.06166628 0.11554356 -0.0077424217
0.1298766 0.050707337 0.12937532 0.083146505 0.05743506 0.010452752 -0.026679799 -0.09439394
-0.036836512 -0.22011875 0.10396886 -0.10706229 -0.061044853 -0.15182966 0.012167934 -0.23510678
-0.14299938 0.041495234 0.041676927 -0.101209655 -0.009015257 -0.09473062 -0.021215666 -0.053942166
-0.20681673 0.061604295 -0.13837604 -0.14768691 -0.20789696 0.0496295 0.17789043 -0.019852804
-0.12189239 0.011213027 0.087819114 -0.1872521 -0.16863018 -0.101048425 -0.06909513 0.109013505
-0.042260338 0.07341158 -0.006803307 0.026485298 -0.031517625 0.07765876 0.05354997 -0.059920352
-0.06771142 -0.005176553 -0.10138101 0.008210173 -0.040908862 0.08858988 0.0072997967 -0.1538162
-0.075494274 -0.10788087 0.030104594 -0.1375578 0.098007485 -0.14194466 -0.043882232 -0.18531902
0.08611882 0.06385548 0.12716821 -0.04317261 -0.063729525 -0.110184126 -0.17998053 0.055417553
0.014467494 -0.16206494 -0.13738163 -0.023744022 -0.053575523 0.15019359 -0.17448801 0.11382268
-0.2098103 -0.02147155 -0.091599636 -0.0030257183 -0.03233195 0.042050872 -0.01692059 -0.045033623
-0.28056854 0.094931476 0.06808592 0.071173266 0.10308083 -0.07711162 -0.034229796 -0.030484146
-0.18153049 -0.0710549 0.100130506 -0.20286408 0.05198298 0.113627695 -0.05256048 0.1489985
-0.066709235 -0.09178524 -0.05130818 0.17310289 0.28600898 0.035133574 0.04592346 -0.16390167
-0.04894578 0.022049008 -0.008896189 -0.25385317 -0.010740088 -0.08645117 0.035790976 0.07318427
0.120912746 -0.011310482 0.008286726 0.19499154 0.03977001 0.12633511 0.10861483 -0.08003028
-0.08938936 -0.035791963 0.04059266 -0.07364275 0.08833432 -0.03278344 -0.0540519 -0.0035586676
-0.02178953 -0.014609555 0.039061956 -0.08271818 0.06294117 -0.080964275 0.09580618 -0.029410942
-0.08836572 0.01545445 0.20707963 -0.05826803 -0.0708811 0.18034048 0.036015406 0.120650776
0.035976082 -0.019485448 -0.17543389 0.20353921 0.34677824 0.01556092 0.051670205 0.18079282

out.bias f4 [6]
00000000: 47b3 2a3d 4703 753c f6fe 36bd 61dd 2dbc
00000010: 0e0c 843d e9d4 183e
0.04167488 0.014954395 -0.044676743 -0.010611863 0.06447612 0.14924969
