models2/InvertedDoublePendulum-v2/DisSample/Dagger_570.pth (torch, 6751 bytes, 3 tensors)

fc1.weight f4 [100, 11]
-0.039439417 -0.1555584 0.04226134 -0.17687525 -0.32876012 0.062387284 -0.061666872 -0.0100205885
-0.20562132 -0.02511762 0.090152375 0.09176807 0.41026005 0.63666165 0.19918938 -0.022613032
0.0451056 0.23503529 0.34551892 -0.3647741 -0.08900698 -0.073812865 -0.38787138 -0.49041754
-0.32125998 0.21846622 0.31825453 -0.18474144 -0.008802752 -0.023693703 0.04057683 -0.062210936
0.021519093 -0.16134748 0.20604777 1.108205 0.09463816 0.054523755 -0.07911519 0.4236113
0.3974072 0.17278627 0.09793796 -0.19482398 -0.4817935 -0.34992635 0.21524495 -0.08116319
-0.011370482 0.1476155 0.07263842 -0.024306513 0.20578107 0.0029433367 -0.24961285 -0.02207881
0.15770982 0.13091396 -0.11193788 -0.05381142 -0.08686881 0.03099376 0.045450773 -0.030689035
0.008168244 -0.1760902 -0.3983039 0.18406516 1.4224617 0.1852204 0.14637557 -0.20012006
0.3943774 0.4082682 0.34157124 0.084196456 -0.0030575653 0.33013204 0.20809539 0.71970916
0.28963906 -0.032456666 -1.32471905e-05 0.3436615 0.2551421 -0.15542683 0.005578308 0.15978132
0.015460096 -0.07329962 -0.23271674 -0.11999571 -0.29225206 0.05087951 0.112270296 0.029984659
0.0540326 -0.10608456 -0.03210896 -0.093754776 0.16509192 -0.11129381 -0.07964516 -0.40312445
0.059610497 0.016963664 0.01779077 -0.0126993125 -0.008113347 -0.12171879 0.09521191 -0.12985444
-0.4944439 -0.35750976 -0.356693 0.5467519 -0.06487047 -0.5133638 -0.074794784 0.0015652592
0.12580374 -0.0017533306 0.12794371 -0.05949548 -0.24811132 -0.29142302 0.071295634 -0.08249072
-0.11731349 0.16030571 -0.15600309 -0.18890816 0.0228109 0.15310782 -0.046062082 -0.37756592
-0.36013448 0.10163896 0.030596707 0.11626616 -0.03733971 -0.11234307 0.27564913 -0.32582045
-0.3465349 -0.22310571 0.23687969 0.26950297 -0.30191615 -0.18510714 -0.146203 -0.08876303
0.08741223 -0.015159586 0.31630343 -0.1919094 0.097353615 -0.28156018 -0.11557808 0.22581872
0.035837352 0.042144053 -0.021723298 0.119539194 0.06474491 -0.24576855 -0.66653156 1.5863646
0.1697891 0.23639803 0.09213577 0.042956334 0.22362572 -0.2265636 -0.031977758 -0.0041763494
0.29781988 -0.21106903 0.37605706 -0.08722471 -0.052311715 -0.20486227 0.03421377 0.06600649
-0.16817182 0.06545283 -0.02739275 0.17441721 0.2557778 0.29659852 0.21440561 0.029431673
-0.041960534 -0.0007486658 0.0033766734 -0.18853542 -0.010083793 0.11035575 -0.11123031 0.1183586
0.23529242 -0.19571027 -0.16602136 -0.34841612 0.1973085 0.18428564 -0.051590275 0.055023383
-0.05781102 -0.27049005 -0.035651024 -0.17440295 0.27685845 0.20233843 -0.3026815 -0.12929496
0.011330478 0.03594928 -0.22449122 -0.043843493 0.00017480052 0.18746956 0.21332543 0.10938275
-0.18018022 -0.08433688 -0.05092241 0.054456323 0.03857405 -0.16718581 0.054428607 -0.20405757
0.0044606514 -0.1596997 -0.32245246 -0.0360387 0.051173553 0.07177932 0.010886967 -0.049522158
-0.057145584 -0.058224857 0.40946457 -0.3284244 -0.023451658 -0.20508544 -0.38704166 0.28568795
0.006722676 -0.09231937 -0.037994597 0.013126263 -0.001610039 0.16926037 0.31004706 0.11833908
00000000: 3a8b 21bd b44a 1fbe 3a1a 2d3d c91e 35be
00000010: 3f53 a8be cf89 7f3d 6796 7cbd 652d 24bc
00000020: 658e 52be 78c3 cdbc cfa1 b83d e6f0 bb3d
00000030: 9b0d d23e 42fc 223f 4df8 4b3e f73e b9bc
00000040: a6c0 383d 17ad 703e dbe7 b03e acc3 babe
00000050: 4b49 b6bd 332b 97bd 1497 c6be 0218 fbbe
00000060: 307c a4be 9cb5 5f3e 42f2 a23e dc2c 3dbe
00000070: 6b39 10bc 4c19 c2bc e433 263d e5d0 7ebd
00000080: cf48 b03c 4638 25be 30fe 523e a9d9 8d3f
00000090: a7d1 c13d 4d54 5f3d 2507 a2bd 95e3 d83e
000000a0: f578 cb3e e2ee 303e b293 c83d f07f 47be
000000b0: a3ad f6be 8c29 b3be 2c69 5c3e e338 a6bd
000000c0: 424b 3abc 8528 173e 74c3 943d 741e c7bc
000000d0: 46b8 523e ffe4 403b 839a 7fbe 9fde b4bc
000000e0: af7e 213e 4f0e 063e b03f e5bd 5d69 5cbd
000000f0: 46e8 b1bd a0e6 fd3c 972a 3a3d 9267 fbbc
00000100: 19d4 053c fd50 34be 7dee cbbe 947b 3c3e
00000110: 3a13 b63f 6baa 3d3e 7ae3 153e 46ec 4cbe
00000120: d6eb c93e 8808 d13e 6de2 ae3e 316f ac3d
00000130: 6f61 48bb 1107 a93e f516 553e dc3e 383f
00000140: 924b 943e 48f1 04bd 4040 5eb7 66f4 af3e
00000150: fca1 823e 3628 1fbe 3dca b63b b79d 233e
00000160: 584c 7d3c 1c1e 96bd 4c4d 6ebe 50c0 f5bd
00000170: 10a2 95be 0867 503d f8ed e53d 63a2 f53c
00000180: 4a51 5d3d dd42 d9bd af84 03bd 8102 c0bd
00000190: db0d 293e 02ee e3bd 001d a3bd 5466 cebe
000001a0: 232a 743d 62f7 8a3c f3bd 913c c710 50bc
000001b0: d8ed 04bc b347 f9bd 76fe c23d 90f8 04be
000001c0: c027 fdbe 850b b7be 77a0 b6be eff7 0b3f
000001d0: cfda 84bd cf6b 03bf 022e 99bd 6229 cd3a
000001e0: b2d2 003e 03d0 e5ba ad03 033e 88b1 73bd
000001f0: e510 7ebe 6635 95be 7203 923d e5f0 a8bd
00000200: 0e42 f0bd 2e27 243e 46bf 1fbe 2471 41be
00000210: eddd ba3c 4cc8 1c3e 98ab 3cbd 5250 c1be
00000220: 8c63 b8be 1628 d03d f2a5 fa3c f41c ee3d
00000230: 86f1 18bd 2014 e6bd e221 8d3e f0d1 a6be
00000240: 066d b1be d375 64be 9790 723e 4bfc 893e
00000250: c194 9abe ba8c 3dbe 3db6 15be 64c9 b5bd
00000260: 2f05 b33d ea5f 78bc 86f2 a13e e683 44be
00000270: 5561 c73d a828 90be 33b4 ecbd 063d 673e
00000280: 30ca 123d 3e9f 2c3d 0ff5 b1bc f7d0 f43d
00000290: fb98 843d c0aa 7bbe d0a1 2abf ff0d cb3f
000002a0: 32dd 2d3e 5312 723e aeb1 bc3d fbf2 2f3d
000002b0: 24fe 643e 4a00 68be 1cfb 02bd c2d9 88bb
000002c0: d97b 983e 7b22 58be 8d8a c03e dea2 b2bd
000002d0: cf44 56bd 6ac7 51be bd23 0c3d 692e 873d
000002e0: 3c35 2cbe 220c 863d c366 e0bc 6d9a 323e
000002f0: 4ff5 823e c3db 973e 258d 5b3e b11a f13c
00000300: cfde 2bbd 1d42 44ba 2e4b 5d3b 6e0f 41be
00000310: 7e36 25bc 3202 e23d b7cc e3bd fe65 f23d
00000320: 7ff0 703e 4668 48be 8101 2abe 9963 b2be
00000330: 3d0b 4a3e 60b5 3c3e 5350 53bd 3360 613d
00000340: 40cb 6cbd ac7d 8abe cf06 12bd b096 32be
00000350: 64c0 8d3e ce31 4f3e 12f9 9abe e665 04be
00000360: 78a3 393c 8d3f 133d 07e1 65be 3c95 33bd
00000370: a84a 3739 05f8 3f3e fb71 5a3e 1004 e03d
00000380: 2a81 38be d0b8 acbd 0494 50bd 980d 5f3d
00000390: d3ff 1d3d c232 2bbe 88f0 5e3d 78f4 50be
000003a0: a82a 923b 5188 23be 7d18 a5be 519d 13bd
000003b0: 5c9b 513d 0901 933d 405f 323c bfd7 4abd
000003c0: 7d11 6abd 307d 6ebd 57a5 d13e 3e27 a8be
000003d0: b11d c0bc eb01 52be 532a c6be b145 923e
000003e0: e549 dc3b f011 bdbd 39a0 1bbd 8a0f 573c
000003f0: f207 d3ba 9752 2d3e 7dbe 9e3e c25b f23d

fc1.bias f4 [100]
-0.21146284 0.21412623 0.2595176 0.2987719 0.117116235 -0.30193284 0.04474915 -0.20730203
0.19061203 -0.04247817 -0.36264843 -0.44266647 -0.46112356 0.40037724 -0.35274693 -0.06847845
-0.4148912 -0.29496968 -0.12360355 0.36760646 0.1252605 -0.3955494 -0.4194261 -0.3976009
-0.20167188 0.2558412 0.1977908 -0.3177214 -0.02798146 -0.07164321 0.22411013 -0.046840012
-0.17698917 0.11819732 0.09529541 -0.17015804 -0.5307848 -0.35646322 -0.06818128 -0.015966445
-0.10085684 0.18764496 -0.098451324 -0.19844967 -0.04857227 -0.27807 0.11713361 0.03240572
0.15460902 0.047344267 -0.54024315 0.19350727 -0.4419371 0.0056121964 -0.30763718 -0.36753866
-0.26433522 -0.07637205 -0.25190872 0.35286957 0.13176654 0.28910798 0.12301046 -0.40886548
0.05860394 -0.19748142 0.020227438 -0.21797648 -0.416164 -0.09349439 0.015913237 -0.19002445
-0.16625112 0.03525506 -0.27960208 -0.12539777 0.24448152 0.010874557 -0.27698416 -0.06632604
0.2623529 -0.05600728 -0.17851925 0.27291265 -0.58417684 0.37310356 -0.42832705 -0.12436733
-0.30625707 -0.3660812 -0.23940575 -0.3976047 -0.064336196 -0.5007466 0.1113205 0.13144742
0.23597462 -0.46423584 -0.39994052 -0.12051309
00000000: b789 58be e843 5b3e 7edf 843e a1f8 983e
00000010: a3da ef3d f196 9abe e24a 373d fc46 54be
00000020: cd2f 433e 97fd 2dbd 0ead b9be 2ea5 e2be
00000030: 6318 ecbe 3ffe cc3e 3f9b b4be 6e3e 8cbd
00000040: 9f6c d4be 4406 97be dc23 fdbd ea36 bc3e
00000050: 4a44 003e 7385 cabe 05bf d6be 5892 cbbe
00000060: 1383 4ebe 9efd 823e ac89 4a3e 61ac a2be
00000070: 6039 e5bc adb9 92bd 207d 653e 50db 3fbd
00000080: a63c 35be 7011 f23d 3d2a c33d e93d 2ebe
00000090: 83e1 07bf 5982 b6be a0a2 8bbd 10cc 82bc
000000a0: 088e cebd 0026 403e d9a0 c9bd 6436 4bbe
000000b0: b7f3 46bd 315f 8ebe bfe3 ef3d dcbb 043d
000000c0: d451 1e3e 10ec 413d 604d 0abf c526 463e
000000d0: 9445 e2be 84e6 b73b 9f82 9dbe 072e bcbe
000000e0: f256 87be f368 9cbd 2efa 80be 52ab b43e
000000f0: cfed 063e f605 943e e8ec fb3d d156 d1be
00000100: af0a 703d 9238 4abe 03b4 a53c 3a35 5fbe
00000110: 7313 d5be fd79 bfbd 7a5c 823c c595 42be
00000120: bc3d 2abe 9c67 103d 0128 8fbe 4668 00be
00000130: 5d59 7a3e 332b 323c ded0 8dbe f2d5 87bd
00000140: 1f53 863e e467 65bd c0cd 36be 35bb 8b3e
00000150: 9d8c 15bf 6e07 bf3e af4d dbbe 4cb4 febd
00000160: bacd 9cbe ff6e bbbe c826 75be d892 cbbe
00000170: b2c2 83bd ee30 00bf 01fc e33d 279a 063e
00000180: 55a3 713e 52b0 edbe 01c5 ccbe 91cf f6bd

out.weight f4 [1, 100]
-0.09796888 -0.12282171 0.15665679 -0.34898192 -0.028349262 -0.0063760327 -0.24223766 -0.25877568
-0.038548008 -0.00031983037 -0.39220214 -0.104229964 -0.035229433 0.059204176 -0.03497611 -0.23007593
-0.014908312 -0.016446283 -0.09656246 0.06403073 0.004947056 0.021394972 -0.1852262 -0.18408753
-0.10510866 -0.35608956 0.108392976 -0.108990945 -0.032396536 -0.084004335 -0.032718994 -0.009941048
-0.13082217 0.036327574 -0.22883047 -0.5416715 -0.30976498 -0.053435583 -0.010740523 0.009984043
-0.2606649 -0.023874363 -0.11608429 -0.5010532 -0.08432737 0.09043602 0.09027564 -0.019448146
-0.09553432 -0.43397927 -0.044237062 0.050808836 -0.115149625 0.050229043 -0.07443792 -0.34325257
0.0801207 -0.023087427 0.0012592676 0.2751249 0.024010943 -0.26913178 -0.149347 -0.1520244
0.041429807 -0.10977322 -0.15531865 0.121847704 -0.06495439 0.0070920987 -0.03667885 -0.17381234
-0.10852661 0.043012034 -0.031248244 0.1839656 0.17834742 -0.00097361364 -0.26934525 -0.17676498
0.057388738 -0.23549138 -0.27322182 0.16280568 -0.35007077 0.040117975 -0.41837806 0.18033342
-0.5428564 -0.10467636 -0.05078135 0.081204556 -0.14398919 -0.11212382 -0.024835497 -0.2968144
0.0010546172 -0.056746364 -0.6168152 -0.19812258
00000000: e8a3 c8bd f389 fbbd a36a 203e c2ad b2be
00000010: b63c e8bc 0aee d0bb 260d 78be 3f7e 84be
00000020: 84e4 1dbd e8ae a7b9 b8ce c8be 8576 d5bd
00000030: bd4c 10bd 1480 723d 1c43 0fbd 0699 6bbe
00000040: fe41 74bc 5bba 86bc 8ac2 c5bd 8b22 833d
00000050: ea1a a23b 8244 af3c f0ab 3dbe 7181 3cbe
00000060: 3643 d7bd 5f51 b6be 23fd dd3d a536 dfbd
00000070: 3bb2 04bd 770a acbd 5a04 06bd c7df 22bc
00000080: 3ff6 05be 39cc 143d 8952 6abe fcaa 0abf
00000090: 8499 9ebe 45df 5abd 05f9 2fbc 1d94 233c
000000a0: df75 85be 2b94 c3bc 9abd edbd 0645 00bf
000000b0: d4b3 acbd 8536 b93d 6fe2 b83d b851 9fbc
000000c0: 7fa7 c3bd 8832 debe ec31 35bd ed1c 503d
000000d0: 91d3 ebbd f8bc 4d3d e872 98bd cdbe afbe
000000e0: 5216 a43d d821 bdbc 020e a53a 2cdd 8c3e
000000f0: 99b2 c43c a4cb 89be 6cee 18be 49ac 1bbe
00000100: 4db2 293d c8d0 e0bd da0b 1fbe 4a8b f93d
00000110: cf06 85bd d664 e83b 903c 16bd ddfb 31be
00000120: 3343 debd 632d 303d 51fc ffbc 7a61 3c3e
00000130: b5a0 363e 1b3a 7fba 9fe7 89be e101 35be
00000140: 7410 6b3d a724 71be bbe3 8bbe 88b6 263e
00000150: 7a3c b3be bf52 243d a635 d6be 53a9 383e
00000160: a3f8 0abf 8f60 d6bd 1b00 50bd 934e a63d
00000170: e771 13be 2ca1 e5bd d073 cbbc 0ff8 97be
00000180: 153b 8a3a e06e 68bd 9ae7 1dbf a5e0 4abe
