models2/InvertedDoublePendulum-v2/DisSample/Dagger_615.pth (torch, 6751 bytes, 3 tensors)

fc1.weight f4 [100, 11]
00000000: fa8a 21bd a74a 1fbe 391a 2d3d 0c1f 35be
00000010: 5d53 a8be 1288 7f3d 4f95 7cbd 1f30 24bc
00000020: 658e 52be 78c3 cdbc cfa1 b83d db7d bd3d
00000030: afdd f03e 37ed 1e3f fd01 593e ce8c 35bc
00000040: 0347 f33a 785e 893e a8d3 a53e acc3 babe
00000050: 4b49 b6bd 332b 97bd 401d cebe 4e91 0bbf
00000060: 02f1 95be 0cac 623e ba9b a53e df0b 3abe
00000070: c30c 3ebc 286b 1fbd fa35 263d e5d0 7ebd
00000080: cf48 b03c d8e5 2bbe e39b 893e a373 883f
00000090: 6c0a db3d 2841 843d ea1c 8ebd 386a dc3e
000000a0: 651d d13e 7bed 303e b293 c83d f07f 47be
000000b0: 7eda fcbe da99 b2be 39ac 6a3e 1521 bfbd
000000c0: 31a8 c3bc 0f13 353e b1f8 1a3d 5eb8 f23b
000000d0: 03b7 523e ffe4 403b 839a 7fbe 698b b7bc
000000e0: a7b4 213e eeed 053e fff3 e4bd 21b6 5bbd
000000f0: 7e18 b3bd 874b 003d bbea 383d 9267 fbbc
00000100: 19d4 053c fd50 34be fc66 ccbe 1744 4d3e
00000110: b49c b53f c0e8 5e3e 702d 353e 78bd 1ebe
00000120: 1f0a b93e 81f4 e53e 89e1 ae3e 316f ac3d
00000130: 6f61 48bb 8809 b23e b686 823e ea3a 2e3f
00000140: dafe 943e d3f5 06bd 8142 b03c 5bbf b03e
00000150: 0372 883e 3628 1fbe 3dca b63b b79d 233e
00000160: ab0e 943d 98ae 32bd f687 82be a9a3 0ebe
00000170: 2fa1 a0be 0d65 b53d fe8a cc3d 04ec 2e3d
00000180: f74c 5d3d dd42 d9bd af84 03bd 8102 c0bd
00000190: db0d 293e 02ee e3bd 001d a3bd 5466 cebe
000001a0: 232a 743d 62f7 8a3c f3bd 913c c710 50bc
000001b0: d8ed 04bc b347 f9bd d043 223e 189b f3bd
000001c0: 77fc 04bf 59d6 f0be f56c f4be 0ccd 203f
000001d0: 3e9d 0abe daf5 ddbe 022e 99bd 6229 cd3a
000001e0: b2d2 003e 2242 e5ba 6a03 033e dfb0 73bd
000001f0: 4c11 7ebe 9535 95be ff03 923d 66f1 a8bd
00000200: 8b41 f0bd 6825 243e 46bf 1fbe 2471 41be
00000210: cfdd ba3c 4cc8 1c3e 98ab 3cbd 5250 c1be
00000220: 8c63 b8be 1628 d03d eaa5 fa3c f41c ee3d
00000230: 79f1 18bd 2014 e6bd e221 8d3e e57d abbe
00000240: 8249 c5be 2fb4 51be fe96 733e f779 8b3e
00000250: 1166 99be 0fb3 3ebe 3d78 21be cec8 b5bd
00000260: 2f05 b33d ea5f 78bc aab2 a43e 5d0e 45be
00000270: 6dc6 c73d 05bf 8fbe a5fe eabd c4ba 683e
00000280: 444d 0f3d 8b44 2f3d 0ff5 b1bc f7d0 f43d
00000290: fb98 843d 6271 9cbe c32c 1bbf e9cc d23f
000002a0: 0f4f 343e 5905 783e 24ad d33c 7eba c93d
000002b0: fb84 3e3e 4a00 68be 1cfb 02bd c2d9 88bb
000002c0: dbb7 9d3e 3a6e 51be 2735 be3e 206c cbbd
000002d0: 6430 85bd 3ec8 33be a718 4e3c ab1b b83d
000002e0: 3c35 2cbe 220c 863d c366 e0bc 13e1 4d3e
000002f0: 0cae 863e 0c5d 933e d194 543e 537e b33c
00000300: bc97 17bc a085 a4bc 65ef 993c 6e0f 41be
00000310: 7e36 25bc 3202 e23d 8fee d0bb 70d2 373e
00000320: 65fe 373e 7661 82be f97c 6abe f57c 97be
00000330: c46b 303e 80db 5c3e 5350 53bd 3360 613d
00000340: 40cb 6cbd 13a1 8ebe f182 8ebd 1071 21be
00000350: 6544 8e3e 2a0d 523e aba8 9abe c240 04be
00000360: 8912 38b9 f040 133d 07e1 65be 3c95 33bd
00000370: 15d9 ab3b 3dab 373e edab 5b3e 2248 d63d
00000380: 245a 3dbe 4e30 b0bd da00 49bd 2fc3 5a3d
00000390: 3f00 1e3d c232 2bbe 88f0 5e3d 78f4 50be
000003a0: fb29 923b 5088 23be 8618 a5be b79d 13bd
000003b0: 8f9b 513d f100 933d 5160 323c bfd7 4abd
000003c0: 7d11 6abd 307d 6ebd 57a5 d13e 3e27 a8be
000003d0: b11d c0bc eb01 52be 532a c6be b145 923e
000003e0: e549 dc3b f011 bdbd 39a0 1bbd 8a0f 573c
000003f0: f207 d3ba 9f52 2d3e 7cbe 9e3e af5c f23d
-0.03943918 -0.15555821 0.042261336 -0.17687625 -0.328761 0.062385626 -0.06166583 -0.010021239
-0.20562132 -0.02511762 0.090152375 0.09252521 0.4704413 0.6208071 0.21192165 -0.011080934
0.0018560592 0.26829886 0.32388043 -0.3647741 -0.08900698 -0.073812865 -0.4025669 -0.5451859
-0.29285437 0.22135943 0.32345372 -0.18168591 -0.011599722 -0.03892055 0.04057882 -0.062210936
0.021519093 -0.16786897 0.26876745 1.066029 0.10695347 0.0645774 -0.06939109 0.43049788
0.4084274 0.17278092 0.09793796 -0.19482398 -0.49385446 -0.34883004 0.2291726 -0.09332482
-0.02388391 0.17683052 0.037834827 0.007407232 0.20577626 0.0029433367 -0.24961285 -0.022405343
0.1579157 0.13079044 -0.11179351 -0.05364049 -0.08744906 0.03132203 0.04514573 -0.030689035
0.008168244 -0.1760902 -0.3992232 0.20045505 1.4188447 0.21768475 0.17693114 -0.15501964
0.36140534 0.44913104 0.34156445 0.084196456 -0.0030575653 0.34772897 0.254934 0.68058646
0.29100686 -0.03294928 0.021516087 0.34520993 0.26649484 -0.15542683 0.005578308 0.15978132
0.0722936 -0.043623537 -0.25494355 -0.13929619 -0.31372973 0.088571645 0.09987448 0.04270555
0.054028478 -0.10608456 -0.03210896 -0.093754776 0.16509192 -0.11129381 -0.07964516 -0.40312445
0.059610497 0.016963664 0.01779077 -0.0126993125 -0.008113347 -0.12171879 0.15846181 -0.11894816
-0.5194773 -0.47038534 -0.47739378 0.62812877 -0.13536546 -0.43351632 -0.074794784 0.0015652592
0.12580374 -0.0017491023 0.12794271 -0.05949485 -0.24811286 -0.29142442 0.071296684 -0.08249168
-0.11731251 0.16029894 -0.15600309 -0.18890816 0.022810845 0.15310782 -0.046062082 -0.37756592
-0.36013448 0.10163896 0.030596692 0.11626616 -0.03733966 -0.11234307 0.27564913 -0.33494487
-0.38532645 -0.20478891 0.23788068 0.2724149 -0.29960683 -0.18622993 -0.15768524 -0.08876191
0.08741223 -0.015159586 0.3216756 -0.1924376 0.097546436 -0.28075424 -0.11474351 0.22727495
0.034985796 0.042789977 -0.021723298 0.119539194 0.06474491 -0.30555254 -0.60615176 1.6468784
0.17608283 0.2422079 0.025839396 0.09850024 0.18605416 -0.2265636 -0.031977758 -0.0041763494
0.30804333 -0.20452204 0.37149927 -0.099327326 -0.065033704 -0.17556855 0.01257912 0.08989652
-0.16817182 0.06545283 -0.02739275 0.2010539 0.26304662 0.28781927 0.20759894 0.021910822
-0.009252485 -0.020083249 0.01879091 -0.18853542 -0.010083793 0.11035575 -0.0063760947 0.1795137
0.17968138 -0.25464982 -0.22899236 -0.29587522 0.1722861 0.21568108 -0.051590275 0.055023383
-0.05781102 -0.27857265 -0.06958569 -0.15765786 0.27786556 0.20512834 -0.30206808 -0.12915328
-0.00017554512 0.0359506 -0.22449122 -0.043843493 0.005244384 0.17936416 0.21452303 0.10462977
-0.18491417 -0.086029634 -0.049073078 0.053408798 0.038574453 -0.16718581 0.054428607 -0.20405757
0.004460571 -0.15969968 -0.32245272 -0.03603908 0.051173743 0.07177914 0.010887221 -0.049522158
-0.057145584 -0.058224857 0.40946457 -0.3284244 -0.023451658 -0.20508544 -0.38704166 0.28568795
0.006722676 -0.09231937 -0.037994597 0.013126263 -0.001610039 0.16926049 0.31004703 0.11834084

fc1.bias f4 [100]
00000000: fe89 58be b77d 693e 5f19 853e deaf a03e
00000010: e635 d53d 0a83 9abe d013 a03d 8681 4fbe
00000020: 645d 343e 97fd 2dbd ad07 eebe 5ca5 e2be
00000030: 6318 ecbe b17c cc3e 2433 b4be 7357 80bd
00000040: 1b3a dabe a518 9abe 13e0 32be bbc5 bb3e
00000050: 10e3 f63d 7b85 cabe 05bf d6be 6d92 cbbe
00000060: 4cbe 4fbe 1917 823e 93a9 4a3e bf3d f0be
00000070: 768f 2cbd 9b58 30bd 91bc 6b3e 1e3e 42bd
00000080: d33c 35be 93db e23d 53bc d73d 1b1e 9ebe
00000090: 9c8c 07bf 5982 b6be 330d 0cbe 9f17 bbbc
000000a0: 8075 cabd 0553 433e 7d92 b3bd 03d7 40be
000000b0: 3cf2 2bbd 315f 8ebe ef90 ef3d 225d 103d
000000c0: 83be fc3d 909c 0d3d 354e 0abf dbf1 443e
000000d0: 8afe e2be 55e7 b73b e982 9dbe 2b54 c7be
000000e0: 50f1 92be 51f2 dabd c764 82be 7049 b53e
000000f0: 8a9b f53d 24d9 9a3e 14b8 ef3d f3be d4be
00000100: 4dd8 633d a238 4abe 41ac a53c 7cd3 73be
00000110: 8c73 d5be eb17 c3bd 699d 473c 5296 42be
00000120: dc3c 44be 9c67 103d 0128 8fbe 9e8d 09be
00000130: 7d14 7b3e 4a18 e63b ff50 90be f2d5 87bd
00000140: 36b1 853e a2c3 02bd c0cd 36be 6c8c 8e3e
00000150: 3f41 14bf cdce bd3e af4d dbbe 72a7 4fbe
00000160: 226e b9be 7b15 bcbe 64ec 73be c992 cbbe
00000170: a456 61bd 2131 00bf dd90 e33d 6af9 f83d
00000180: 7b16 6b3e d9b9 e1be b060 e7be 43cd fabd
-0.2114639 0.22801863 0.2599592 0.31384176 0.10410671 -0.301781 0.07816279 -0.20264253
0.1761375 -0.04247817 -0.4649023 -0.44266784 -0.46112356 0.39938882 -0.35195267 -0.062666796
-0.42622456 -0.30096927 -0.1746829 0.36674294 0.120550275 -0.39554963 -0.4194261 -0.39760152
-0.20287436 0.25408247 0.1979125 -0.4692211 -0.042129003 -0.04305325 0.23021151 -0.04742252
-0.17698984 0.11077037 0.10533967 -0.30882344 -0.5294893 -0.35646322 -0.1367691 -0.022838412
-0.098856926 0.19074638 -0.08768175 -0.1883202 -0.04197906 -0.27807 0.11697566 0.03524507
0.12341025 0.034573138 -0.54025584 0.19232886 -0.44334823 0.0056122937 -0.3076394 -0.38931403
-0.28699732 -0.106907494 -0.25467512 0.3540759 0.11992557 0.3024379 0.11705032 -0.41551933
0.055626202 -0.19748166 0.020223739 -0.23811144 -0.41689718 -0.09526046 0.012183526 -0.19002655
-0.19163841 0.03525506 -0.27960208 -0.13432929 0.24519534 0.0070219385 -0.28186795 -0.06632604
0.26111764 -0.03192485 -0.17851925 0.27841508 -0.5791206 0.3707184 -0.42832705 -0.20278719
-0.36216837 -0.36735138 -0.23820645 -0.39760426 -0.055014268 -0.50074965 0.11111615 0.12156947
0.22957794 -0.44087103 -0.45190954 -0.12246182

out.weight f4 [1, 100]
00000000: caa3 c8bd a961 f8bd d244 243e 4d0d b5be
00000010: 9dbc cabc 98c4 fabb 068f 72be d92a 68be
00000020: 3b90 0fbd e8ae a7b9 dc30 afbe b073 d5bd
00000030: ca4c 10bd 9275 8a3d d870 0fbd ebaf 53be
00000040: c966 c03b 4dec fc39 2d60 12bd 5409 803d
00000050: caca 64bb fb44 af3c f0ab 3dbe 5a81 3cbe
00000060: 5d83 9abd 7594 babe e343 ec3d 6061 f5bd
00000070: c5aa d1bc de74 23bd 6833 f93c 1eea ac39
00000080: 3ff6 05be b3dc 083c 7817 6ebe 1334 01bf
00000090: 9270 9fbe 39df 5abd f8d9 583c 9c16 493b
000000a0: a1dd 8dbe e3cb b2bc 691e c5bd d5c3 06bf
000000b0: e8df b6bd 8536 b93d cf9c b43d 69a9 0abd
000000c0: 2135 96bd f644 edbe d226 35bd 1117 703d
000000d0: 1672 ebbd 93c2 4d3d ca71 98bd 1b95 b7be
000000e0: c41f b63d 1b08 253b c49d 9dbc 4fb8 8b3e
000000f0: c78b b53c 8588 8cbe 20c2 20be 8f70 0abe
00000100: 6ae0 343d c8d0 e0bd 2e09 1fbe aa71 f33d
00000110: 376d 84bd 81f7 0a3c 3366 60bd cbfa 31be
00000120: 0471 3abd 632d 303d 51fc ffbc 9597 473e
00000130: e384 333e 96f0 64bb 9da7 89be e101 35be
00000140: f6c9 713d fa5f 69be bbe3 8bbe 16b6 323e
00000150: 7f0f b5be 585c 303d a635 d6be ac92 1e3e
00000160: fb25 10bf 9735 d6bd 86c8 51bd b24e a63d
00000170: 24bb 00be 0ca1 e5bd a04a 81bc a639 a4be
00000180: 8469 a4bb 5e00 d1bd b9f6 17bf 1d77 58be
-0.09796865 -0.12128002 0.16041878 -0.3536171 -0.024748141 -0.0076528303 -0.23687372 -0.22672595
-0.03504966 -0.00031983037 -0.34216964 -0.10422456 -0.03522948 0.06760706 -0.035019726 -0.20672576
0.005871628 0.00048241243 -0.03573625 0.06251779 -0.003491091 0.021395197 -0.1852262 -0.18408719
-0.07544587 -0.3644139 0.11536386 -0.119814634 -0.025594125 -0.039906375 0.03042002 0.00032980827
-0.13082217 0.0083534 -0.2325114 -0.50470084 -0.31140572 -0.053435538 0.013235562 0.0030683642
-0.27708152 -0.021825736 -0.09624941 -0.52642566 -0.089294255 0.09043602 0.08818971 -0.03385297
-0.07334352 -0.46341676 -0.044226475 0.058615748 -0.114963695 0.05023439 -0.074435785 -0.35855946
0.088927776 0.0025181833 -0.019240268 0.27289054 0.022161378 -0.27447906 -0.15699053 -0.135195
0.04415933 -0.10977322 -0.15530846 0.11886914 -0.064661436 0.008481861 -0.054784965 -0.17380826
-0.045517936 0.043012034 -0.031248244 0.19491418 0.17531161 -0.003493344 -0.2688569 -0.17676498
0.059030496 -0.22790518 -0.27322182 0.17452273 -0.35363385 0.043056816 -0.41837806 0.15485638
-0.56307954 -0.1045944 -0.051216625 0.08120479 -0.12571388 -0.11212358 -0.015782654 -0.32075232
-0.0050174613 -0.10205148 -0.59360844 -0.21139188
