models/MountainCarContinuous-v0/DisSample/Dagger_85.pth (torch, 3167 bytes, 3 tensors)

fc1.weight f4 [100, 2]
00000000: 1b83 943e a9f7 303f fc49 94be 100a 49bf
00000010: 80ba d6be e135 56bf dc9c 37be ca61 f53d
00000020: c310 a03d cc90 9abd fb0e 06be af21 5abd
00000030: ec2f 863d 9381 19bd 4399 5fbb 4c0a c2bd
00000040: 021d 5dbe 6d6e 523d ed67 913d 50fc 083e
00000050: 2230 d83c e4de 16bf edb0 8b3e 782c 943f
00000060: e0ad 173b 6468 a43d f653 bcbe 52dd 5dbf
00000070: ec25 c73e 83f4 813f 95ab 67bd 1ce7 40bd
00000080: e77f 95be 0c11 63bf 2118 82be 7302 78bf
00000090: 24fc f8bd bad5 54bf adf8 423e 2291 0cbf
000000a0: 6ae7 41bf 3cc9 89bf fd08 e2bd a893 3d3e
000000b0: e825 b93d 336c 2ebd e8ba 363e d921 433f
000000c0: 076f 1b3e 9ada 313e 6397 b3be 5cd5 41bf
000000d0: 705a 8d3e 0b45 5f3f b2f3 c6bd 5ab6 213d
000000e0: b25d fb3c 5898 a23d ec6d 023c 5394 3a3e
000000f0: cc72 98bd 7d53 643c 9e8c c23e d067 513f
00000100: 9025 993e 67e7 5b3f de18 b93d 5769 d03d
00000110: 92c8 8dba 7aa2 3fbd 3fe6 963e 2b64 7b3f
00000120: 0cf9 bd3c 12ad efbd 7084 b23d 5bac c13d
00000130: 4bab 85be 56b0 78bf 2739 ddbd fd3f 72bf
00000140: 3a46 393d 7195 c73c c711 0c3e 976d cc3c
00000150: 6137 0a3f 3ad2 923f c9ae 893e a1b0 683f
00000160: 85af b0bd 3fa4 00bd 2e86 c13c d9d6 383d
00000170: fba4 ed3e 2a34 5c3f 3435 bc3c 805a 42bf
00000180: bbb6 893d 2356 a23d d8c5 563e 41a4 8a3f
00000190: 518b 8ebe be26 56bf 1958 323e cbcf 5b3d
000001a0: c313 163e 67ff 563f 4876 a33e 1c86 843f
000001b0: 822b 9c3e 22fb fe3e dede 82be be01 72bf
000001c0: dfe1 13be 9fdc 1bbd c318 993d 9579 0d3d
000001d0: d3f4 80be 1745 58bf 1500 083f 33aa 8f3f
000001e0: 1541 423f 32a1 6d3f 5d92 143e 7a57 7c3f
000001f0: e018 0f3e 4b72 a03d a65b 9d3e 534d 133f
00000200: 8b9d 5ebd 51d3 2cbd 6d72 e23d 13e8 12be
00000210: 2f63 bdbe b203 83bf 5b90 6bbd 03b4 a63b
00000220: ee5e 46bb 0bfa 263d e30a 2b3e 1c03 833f
00000230: b3a1 70be 4df0 163d 28bb cd3c dd1b d6bd
00000240: 26ae 613e 2e98 7c3f e548 9b3e 6511 853f
00000250: 06f3 b73e 1ff9 823f 6701 c0ba 204c e63c
00000260: a129 87be c714 63bf 8d5e 04be d98c 573f
00000270: 0c33 9b3e 2bef 5c3f 6743 0c3e 2c10 813a
00000280: 5f95 ae3d d761 133d 11b7 62be 164a 6bbf
00000290: 7545 873e 1870 6d3f 432b 5abd 24f0 253e
000002a0: af28 ab3e 454e 553f 7097 60be 5082 6fbf
000002b0: fd18 8a3e aae9 803f 459f ba3d 3aa2 dfbe
000002c0: cabd 703d 25ee 74bd 026e be3c 3369 81bc
000002d0: 085e 963e 398f 8d3f eee9 743e a5c7 773f
000002e0: bbfd 6ebe 60a6 52bf f706 00bd d04e 2ebd
000002f0: 4c17 c9bb ad47 61be c771 653d 1fc3 70bb
00000300: b877 21be 7699 3b3d 59e3 433e f241 7f3f
00000310: 4f27 c03e 833c 763f c7b6 363d dc82 34be
0.29006276 0.691279 -0.28962696 -0.7853098 -0.41939163 -0.8367596 -0.17930931 0.119815424
0.07815697 -0.07547149 -0.13091652 -0.05325478 0.06552109 -0.037477087 -0.003411845 -0.0947462
-0.21593097 0.05137484 0.070999004 0.133775 0.026390139 -0.58933854 0.2728342 1.1576071
0.002314441 0.080277234 -0.36782807 -0.86665833 0.3889612 1.0152744 -0.056560118 -0.047095403
-0.29199144 -0.88697886 -0.25409034 -0.9687874 -0.12157467 -0.8313862 0.19040175 -0.54908955
-0.75743735 -1.0764537 -0.11036871 0.18513358 0.09040433 -0.042583656 0.17844737 0.7622352
0.15179072 0.17368546 -0.35076436 -0.75716186 0.2760806 0.87214726 -0.0971445 0.039480545
0.030684326 0.079392135 0.007960778 0.18220644 -0.07443771 0.013935921 0.37997907 0.8179903
0.2991147 0.85899967 0.09037946 0.10176342 -0.0010817221 -0.04678581 0.2947254 0.9819972
0.023190044 -0.117029324 0.08716667 0.09456702 -0.2610725 -0.9714407 -0.108019166 -0.9462889
0.04523299 0.024363251 0.13678657 0.0249546 0.5399075 1.1470406 0.26891163 0.90894514
-0.08627228 -0.031406637 0.023623552 0.04512677 0.46414933 0.86017096 0.022974588 -0.7591934
0.06724306 0.079265855 0.20973909 1.0831376 -0.27840665 -0.83652866 0.17416419 0.053664964
0.14655976 0.83983463 0.3192618 1.0353427 0.30501944 0.49800974 -0.2556066 -0.9453391
-0.14441632 -0.038052198 0.07475426 0.034539778 -0.25186786 -0.8448042 0.53125125 1.1223816
0.7588056 0.9282409 0.14508958 0.9857098 0.13974333 0.078343 0.30733985 0.5753986
-0.054349463 -0.042193715 0.11056981 -0.14346342 -0.36989734 -1.0235503 -0.057510715 0.005087377
-0.0030268985 0.040765803 0.16703372 1.0235324 -0.23499183 0.036850262 0.025113657 -0.10454533
0.22039089 0.9866971 0.30329052 1.0395933 0.359276 1.0232276 -0.0014648855 0.028112471
-0.26398948 -0.8870358 -0.12926693 0.8419929 0.30312383 0.8630244 0.13697587 0.0009846739
0.08524584 0.03598198 -0.22140147 -0.9190992 0.2642018 0.92749166 -0.053263914 0.16204888
0.33429477 0.83322555 -0.21932769 -0.93558216 0.2697219 1.0071309 0.091124095 -0.43678457
0.058774747 -0.059797425 0.023245815 -0.015797233 0.29368615 1.1059333 0.23917362 0.9678901
-0.23338978 -0.8228512 -0.031256642 -0.04255563 -0.0061368104 -0.21999998 0.05601671 -0.0036737395
-0.15768325 0.04580065 0.19129695 0.9971 0.3752999 0.96186084 0.044607904 -0.17628044

fc1.bias f4 [100]
00000000: 51e9 483e 0dea 6c3e eaa4 033f 2192 27bf
00000010: 98cd 17be fe7f ebbe 95b4 8ebe 22aa 77be
00000020: 652f 98be 4bcc f7bd ffc8 0d3f 62c8 3f3e
00000030: 3d51 b7be 8448 0f3f 5bd1 833e 02c4 50bd
00000040: 8575 0a3f bf28 b13c 3e42 093d e4f9 443e
00000050: dfe2 803c b3f4 19bf f2d6 e0be b6aa e93d
00000060: 0f09 8fbe 1436 f13e 48c2 9e3e 08d3 9fbe
00000070: ee3e 04bf 1e53 30bf ed60 13bf ddcd 833e
00000080: d402 223f 560e 31bd e4c9 47be 6c11 313f
00000090: 4c59 0abf b834 9fbd 340b 2c3e 2cb5 0d3f
000000a0: dce3 12bf 1e59 d9be 1312 063f 9040 823e
000000b0: fc6f d7be 08b3 02bf 0f78 2b3f 488e 003e
000000c0: 6265 e5be ad0a 423e 2dbd 9d3e d002 e1bd
000000d0: 705e cf3d d040 843e 9123 513e be55 c93e
000000e0: 30ef 27be c031 dcbd e6fe 863e 86fd b33e
000000f0: b394 023f 7eb5 153f 3b31 06bf 8e74 433e
00000100: f762 05bf f0f4 f3be 4e41 003f 867a 24bf
00000110: 5624 b3be 1e03 f13d 2dc6 2abf 0318 bdbe
00000120: 7c68 673e b3db 493e 9e1f 783e baa4 5cbe
00000130: a29f e63e 6aa3 c03e 9de4 163f 481a cabd
00000140: 2fe4 2fbf f16e 013f 2edc e93e 3efe c9be
00000150: 823f 243f 27ab 473e b690 0f3f 3721 e43e
00000160: b547 86be cad5 e3be ccdc 1f3f 0aad 1c3f
00000170: 46d3 3e3e c808 18bf 104a 413b b8cf edbe
00000180: 4b14 e6be a0ad 073e 518d 0a3f 0c9e 21bf
0.19620253 0.23136158 0.51423514 -0.6545735 -0.14824522 -0.45996088 -0.27872148 -0.24185994
-0.2972366 -0.12099513 0.5538482 0.18728784 -0.35804167 0.55970025 0.25745663 -0.050968178
0.5408557 0.021625875 0.03351044 0.1923595 0.01573318 -0.60139006 -0.4391399 0.11409514
-0.279366 0.4711157 0.310076 -0.31215692 -0.51658523 -0.68876827 -0.5756977 0.25743
0.63285565 -0.043226562 -0.19510609 0.6916721 -0.54042506 -0.07773727 0.16801149 0.5535457
-0.57378936 -0.42450804 0.5237133 0.25439882 -0.42077625 -0.5105443 0.6698007 0.12554276
-0.4480391 0.18949385 0.30808392 -0.109868646 0.101254344 0.25830698 0.20423724 0.3932323
-0.16399837 -0.107516766 0.26366347 0.3515436 0.51008147 0.5848006 -0.5241887 0.19087431
-0.52104133 -0.4764781 0.5009965 -0.64249456 -0.3498866 0.11768173 -0.6670864 -0.36932382
0.22598451 0.19712715 0.24230811 -0.21547213 0.45043665 0.37624675 0.58942586 -0.09868294
-0.68707556 0.5055991 0.45675796 -0.39451784 0.64159405 0.19498883 0.56080186 0.4455659
-0.26226583 -0.44499046 0.62446284 0.61201537 0.18635282 -0.593884 0.0029493608 -0.4644754
-0.44937357 0.13249826 0.5412188 -0.63131785

out.weight f4 [1, 100]
00000000: 0cd2 af3d 7d47 47be e6f3 febd b2b6 7d3d
00000010: 8425 393d fb1d 16bd f5bd 2ebd b7f0 6bbd
00000020: 0b59 b9bd cd60 123d ab4d a43a 4d83 b83d
00000030: 7486 2fbc 9620 23be 315e 103f ea42 c53b
00000040: e353 eabc c32b 41be 080a 24be 2a97 9f3d
00000050: a598 bcbe 8363 d0bd 68ef 383d e1c3 be3d
00000060: 7bf9 b03c fdd8 4abe 0101 323e 9ee5 0a3d
00000070: 87a9 8bbd 0b5b 8bbd c433 a8bd eedd 873e
00000080: 022c 4f3e 2c86 833c d330 16be b16b 1b3e
00000090: a2f3 22bd 151d ea3b a026 d2bd fcc6 25bd
000000a0: 9f6e e63d 6dee ec3d 4874 9c3d 2c86 683e
000000b0: 9cd8 983d 9bdf 48be 509e db3d a9c8 1abd
000000c0: f8ab 0abe 7f70 f13d c485 33be cddb c8bd
000000d0: 0944 9e3e c417 473e f088 413f d615 00bd
000000e0: 664a 26be 9b50 85bd 488f cbbd c411 993e
000000f0: e497 ef3d 7c9f df3d 03ca 933d b430 013f
00000100: 474c 0f3d 2d36 fe3d c8bc d7bd 64e3 0cbd
00000110: 3cb9 b43d 30f5 793e 129b 623e 6b23 1dbd
00000120: 3826 c13d c416 ca3d 4c1d 423e 2ac8 1b3e
00000130: c5ec 0fbe 2dcd a23d f007 e83e 888e 593e
00000140: 5c7b 3fbd 9a4e 94bd f2a8 253e 3da4 793e
00000150: 8150 683e 900f debd 3f7c 813e e6bc 513c
00000160: 68c6 84bd af29 79bb c78a 623e 35d9 0e3e
00000170: accc 9bbd 53c4 5a3d 9336 8ebb f099 5dbd
00000180: daa0 a73c 54d7 9a3e e67f af3d 3b9e 12bd
0.08584985 -0.19460864 -0.12448864 0.06194181 0.045201793 -0.036649685 -0.042661626 -0.05760261
-0.09050187 0.035736848 0.0012535354 0.09009419 -0.0107132085 -0.159304 0.56393725 0.0060199397
-0.028604453 -0.1886435 -0.16019452 0.07792504 -0.3683521 -0.1017523 0.04515019 0.09314705
0.021603337 -0.19809337 0.17383195 0.033910386 -0.06819444 -0.068044744 -0.082129985 0.26536506
0.20231631 0.01605519 -0.14667062 0.151778 -0.039783128 0.00714458 -0.102612734 -0.04047297
0.11251568 0.115689136 0.076393664 0.22707433 0.0746319 -0.19616549 0.10723555 -0.03778902
-0.13542163 0.11789035 -0.17531496 -0.09807549 0.30911282 0.1944266 0.75599575 -0.031270824
-0.16239318 -0.06509515 -0.09939438 0.29896367 0.11698893 0.10919091 0.07216265 0.5046494
0.034984853 0.12412677 -0.10534054 -0.034396544 0.08824393 0.24409938 0.22129467 -0.038363855
0.09431118 0.098676234 0.18956488 0.15213075 -0.14055164 0.079492904 0.45318556 0.21245778
-0.046748504 -0.072415546 0.16177729 0.24379058 0.2268696 -0.10842812 0.25290105 0.012801385
-0.064831555 -0.003801923 0.22123252 0.13950045 -0.076073974 0.053409886 -0.004340002 -0.054101884
0.020462442 0.30242407 0.085693166 -0.03579543
