models/Pendulum-v0/DisWeightSample/Dagger_730.pth (torch, 3551 bytes, 3 tensors)

fc1.weight f4 [100, 3]
0.7216293 0.99442774 0.37887198 0.10797296 0.0060956157 -0.03034729 -0.84849036 -1.2473853
-0.37646696 -0.07009073 -0.011331282 0.0013831389 -0.74900794 -1.0374452 -0.22406228 0.2581607
1.8676994 0.021553058 -0.21295469 0.0427619 0.15825316 -0.0191282 0.52679867 0.068035364
0.6041358 1.4095769 -0.07441462 0.48447183 0.6309585 0.21449073 0.12769614 0.045641623
-0.049524233 0.14203346 0.121971406 0.02999391 -0.14836131 -0.111988574 -0.034164254 0.15291087
-0.07408268 -0.032806825 1.0500867 0.99425143 -0.26035586 0.07846687 -0.09829477 -0.03886759
-0.044237707 -0.28407982 -0.03892053 -0.10984103 -0.11053695 0.0026091728 0.41263798 1.4665635
-0.10028639 -0.09765262 0.16658096 0.033852424 -1.0344617 -1.5870478 -0.22960933 -0.8464457
-1.5764512 -0.46275273 -0.0043581347 -0.10803664 -0.02259356 0.4336602 -1.7676506 0.005223412
-0.15343814 -0.012647134 0.0016359211 0.5112342 0.8224828 -0.17756328 0.74710125 0.9246964
0.36704037 0.0814119 0.036760163 0.0066546053 -0.059956476 0.16523035 0.019826422 -0.016269127
0.059086364 0.041378822 -0.14615847 0.4186157 0.07558976 -0.09250181 -0.0681875 -0.005723977
-0.07676738 0.3257268 0.05683911 -0.8514561 -1.4928708 -0.4513516 -0.4737598 2.2043538
-0.017280908 -0.25350562 -0.18081848 0.07629417 -0.74718875 -1.2124485 -0.26163217 0.016487379
-0.036104266 0.017813912 -0.15903448 0.043320864 0.019147934 0.79822576 0.960311 0.4015397
-0.0032681457 -0.030720133 -0.051303655 -0.19599748 -0.18106231 -0.013170357 -0.2935439 -1.3218807
0.16784908 -0.15559666 -0.11958687 0.0026769792 0.03363323 2.2576907 0.08925309 0.39080414
1.4934123 -0.09926227 0.022437057 -0.062410768 -0.024745572 0.25049147 0.43110526 0.038757563
-0.9432305 -1.6086088 -0.240333 -0.818277 -1.2510204 -0.37377 -0.2591412 -0.15059489
0.017685961 0.18032321 -0.08192196 -0.005359368 -0.903206 -1.2642643 -0.37746862 -0.1810574
-0.09275019 -0.016506206 -0.90651363 -1.3573296 -0.4475093 -0.022906587 0.023026202 0.0019105207
0.15255317 0.045164768 0.034596473 0.5067132 1.0616233 -0.1259165 -0.69358397 -1.2628137
-0.24405636 -0.1680281 -0.20808065 -0.006084473 -0.60792196 0.068962894 -0.0048610223 -0.02087502
0.37136206 0.03317502 -0.6285825 -0.33743963 -0.06430988 0.020702913 0.28294608 0.49322608
0.13363157 -0.033002295 -0.02877451 -0.77264005 -1.1348655 -0.14996952 -0.270257 1.6284091
0.06872924 -0.018039612 -0.07424198 -0.010938072 0.04821903 -0.13641214 0.045821685 0.7981174
1.5452174 -0.1558615 -1.1306572 -0.6074877 -0.13080989 -0.04950216 0.25775516 0.043600034
-0.03627638 0.09757334 0.018655289 -0.012577715 0.08581106 0.0046000727 0.043478664 0.94610083
-0.05296576 -0.46986908 2.09939 -0.014395152 -0.39548877 -0.5885108 0.07871628 -0.048291206
-0.03919516 -0.0042685764 -0.65409344 -1.2881576 -0.3674341 -0.5786669 1.4137673 -0.021916496
0.13197695 0.021607263 0.060020026 -0.04736425 0.11404974 0.022197984 0.22376445 0.062740706
-0.02626649 -0.050634 0.0259528 0.0106419595 -1.3092333 -0.8309294 -0.12946905 0.012705402
00000000: b3bc 383f d192 7e3f 82fb c13e ed20 dd3d
00000010: bbbd c73b e19a f8bc aa36 59bf 52aa 9fbf
00000020: 47c0 c0be bb8b 8fbd d7a6 39bc 714a b53a
00000030: fcbe 3fbf 01cb 84bf 9570 65be a42d 843e
00000040: c610 ef3f 0a90 b03c cb10 5abe 1a27 2f3d
00000050: 1e0d 223e beb2 9cbc 47dc 063f 2056 8b3d
00000060: a5a8 1a3f 046d b43f b166 98bd b10c f83e
00000070: 7f86 213f 75a3 5b3e c7c2 023e b6f2 3a3d
00000080: ecd9 4abd 3871 113e 25cc f93d cab5 f53c
00000090: 07ec 17be 445a e5bd d1ef 0bbd ab94 1c3e
000000a0: a9b8 97bd 7360 06bd 3e69 863f 4387 7e3f
000000b0: 5d4d 85be 3db3 a03d c54e c9bd 9f33 1fbd
000000c0: 9932 35bd e972 91be 226b 1fbd 55f4 e0bd
000000d0: 3261 e2bd a8fe 2a3b 4945 d33e 5ab8 bb3f
000000e0: f362 cdbd 19fe c7bd 3394 2a3e d7a8 0a3d
000000f0: 3e69 84bf 6224 cbbf b51e 6bbe aab0 58bf
00000100: 27c9 c9bf eded ecbe afce 8ebb 5042 ddbd
00000110: 2116 b9bc b608 de3e 6042 e2bf 2829 ab3b
00000120: e31e 1dbe ed35 4fbc 676c d63a 3fe0 023f
00000130: 3c8e 523f 26d3 35be 0742 3f3f e7b8 6c3f
00000140: b7ec bb3e 48bb a63d d391 163d e00e da3b
00000150: ec94 75bd 2532 293e 056b a23c d546 85bc
00000160: 8b04 723d d77c 293d 91aa 15be cc54 d63e
00000170: cece 9a3d 9771 bdbd e3a5 8bbd 3390 bbbb
00000180: 3738 9dbd aac5 a63e 20d0 683d 07f9 59bf
00000190: 6416 bfbf 8f17 e7be a590 f2be 2214 0d40
000001a0: b190 8dbc 7dcb 81be 7b28 39be 1e40 9c3d
000001b0: c347 3fbf 8331 9bbf a7f4 85be 8a10 873c
000001c0: 11e2 13bd 7bee 913c efd9 22be 3871 313d
000001d0: 21dc 9c3c 8658 4c3f f1d6 753f 9d96 cd3e
000001e0: 632e 56bb caa8 fbbc c823 52bd 90b3 48be
000001f0: 6668 39be 7bc8 57bc 634b 96be 6333 a9bf
00000200: a1e0 2b3e bb54 1fbe f6e9 f4bd 4270 2f3b
00000210: ffc2 093d 017e 1040 53ca b63d 7b17 c83e
00000220: 2228 bf3f 044a cbbd ebcd b73c 6fa2 7fbd
00000230: 3ab7 cabc 6b40 803e d4b9 dc3e 40c0 1e3d
00000240: 8e77 71bf e5e6 cdbf db19 76be 9a7a 51bf
00000250: 7021 a0bf c85e bfbe 28ae 84be 8c35 1abe
00000260: 26e2 903c a6a6 383e b3c6 a7bd a39d afbb
00000270: 8238 67bf 6ad3 a1bf 9143 c1be 1c67 39be
00000280: d0f3 bdbd 0638 87bc 4711 68bf fabc adbf
00000290: f01f e5be 98a6 bbbc 72a1 bc3c 706a fa3a
000002a0: e636 1c3e b1fe 383d 08b5 0d3d f5b7 013f
000002b0: 46e3 873f 41f0 00be b88e 31bf e1a3 a1bf
000002c0: e9e9 79be 8f0f 2cbe 1813 55be 4260 c7bb
000002d0: c6a0 1bbf 6b3c 8d3d 3649 9fbb 1702 abbc
000002e0: 2b23 be3e 88e2 073d c8ea 20bf e3c4 acbe
000002f0: e6b4 83bd 2899 a93c 4fde 903e 2188 fc3e
00000300: b7d6 083e 6a2d 07bd 85b8 ebbc bdcb 45bf
00000310: 4643 91bf 9c91 19be 205f 8abe b66f d03f
00000320: eac1 8c3d cfc7 93bc 2e0c 98bd 9935 33bc
00000330: 5181 453d a0af 0bbe 85af 3b3d 6c51 4c3f
00000340: afc9 c53f 289a 1fbe 60b9 90bf 5084 1bbf
00000350: 07f3 05be c7c2 4abd 7cf8 833e f395 323d
00000360: 8b96 14bd 88d4 c73d fad2 983c c312 4ebc
00000370: b6bd af3d 35bc 963b af16 323d aa33 723f
00000380: a0f2 58bd ae92 f0be 685c 0640 a5d9 6bbc
00000390: 817d cabe a5a8 16bf 0036 a13d 00cd 45bd
000003a0: 1b8b 20bd 6adf 8bbb ab72 27bf 59e2 a4bf
000003b0: 5320 bcbe 8423 14bf 54f6 b43f 398a b3bc
000003c0: f724 073e b701 b13c 8fd7 753d 0401 42bd
000003d0: e992 e93d 8cd8 b53c 8222 653e 337e 803d
000003e0: d22c d7bc 9965 4fbd f79a d43c 9d5b 2e3c
000003f0: f594 a7bf cab7 54bf 8993 04be 522a 503c

fc1.bias f4 [100]
-0.37513137 -0.61294156 0.083696425 -0.0075783986 -0.019608023 -0.7035749 0.5590106 0.21152306
-0.6596693 -0.3471833 -0.5399965 -0.4089217 -0.46615744 -0.65308094 -0.83005947 -0.4675809
-0.10621333 -0.19154768 -0.36326763 0.17101309 -0.44417602 -0.06608831 -0.504649 -0.05251222
-0.25252932 -1.1147392 -0.44121194 -0.48148587 0.021996202 -0.43990117 0.31039852 -0.013405072
0.25678802 -0.020965597 0.21070905 0.34985536 -0.114802875 -0.40601975 -0.31915215 -0.4555595
-0.54003316 0.05200949 0.51193607 0.13594542 -0.72165376 -0.4125526 -0.23636442 -0.29490507
-0.40483534 0.07657266 -0.48272938 -0.6214896 0.1320114 -0.19300431 0.098935634 -0.40596205
-0.18398291 -0.8865834 -0.20218699 -0.6026211 -0.61835057 0.04199237 -0.6298647 -0.547299
-0.47772008 -0.46660006 0.3380258 -0.01915416 -0.60706085 -1.1078496 -0.68998146 0.36090714
0.043636557 -0.0328686 -0.27515706 0.06071056 0.24658927 -0.019123344 -0.08299783 0.3228971
-0.46844304 0.05492186 -0.56740284 -0.018809881 -0.55399853 -0.030309055 0.123660274 -0.45628378
0.17706828 0.21090691 -0.83202994 -0.29069874 -0.45638114 -0.6127064 -0.12434658 -0.5541986
-0.21794619 -0.7933351 -0.6651029 0.2459836
00000000: 3811 c0be bde9 1cbf 0869 ab3d 3754 f8bb
00000010: 01a1 a0bc 7c1d 34bf 521b 0f3f 8099 583e
00000020: 16e0 28bf 02c2 b1be 363d 0abf 2f5e d1be
00000030: 30ac eebe 5030 27bf c77e 54bf c466 efbe
00000040: 6086 d9bd 1325 44be 37fe b9be 0e1e 2f3e
00000050: 0a6b e3be 4f59 87bd ad30 01bf 0e17 57bd
00000060: 864b 81be c6af 8ebf 88e6 e1be 5185 f6be
00000070: 6131 b43c ba3a e1be 8eec 9e3e f2a0 5bbc
00000080: b879 833e 0bc0 abbc 1dc4 573e 3e20 b33e
00000090: c51d ebbd d2e1 cfbe e967 a3be 183f e9be
000000a0: 9d3f 0abf e707 553d 3e0e 033f 4735 0b3e
000000b0: 4dbe 38bf 183a d3be 8409 72be ccfd 96be
000000c0: 9446 cfbe 20d2 9c3d 4e28 f7be f119 1fbf
000000d0: ff2d 073e eca2 45be c49e ca3d 42da cfbe
000000e0: 0466 3cbe 21f7 62bf 1b0a 4fbe 6045 1abf
000000f0: 394c 1ebf 3100 2c3d d03e 21bf ca1b 0cbf
00000100: ba97 f4be 34e6 eebe b811 ad3e 2fe9 9cbc
00000110: 5768 1bbf 04ce 8dbf a0a2 30bf d2c8 b83e
00000120: 3fbc 323d 3aa1 06bd 63e1 8cbe a3ab 783d
00000130: e681 7c3e 8fa8 9cbc c4fa a9bd c552 a53e
00000140: c4d7 efbe bff5 603d 5041 11bf 2e17 9abc
00000150: d9d2 0dbf b24a f8bc 9941 fd3d 079e e9be
00000160: 6351 353e fbf7 573e eaff 54bf 77d6 94be
00000170: caaa e9be 54da 1cbf 6ba9 febd f6df 0dbf
00000180: 492d 5fbe 0218 4bbf 2f44 2abf 20e3 7b3e

out.weight f4 [1, 100]
-0.5511475 0.014562326 -1.0233773 -0.00062627165 -0.23479278 0.75692815 0.10500336 0.017221414
0.40715918 -0.11157102 0.19844086 0.020516742 0.005955987 0.15869279 0.7007744 -0.16501488
0.0026231685 0.015751282 0.5497632 0.00305262 -0.8137679 -1.1074839 -0.1198952 0.91205704
0.005818311 0.3181521 -0.43608907 -0.09672777 0.0028222764 0.08626627 0.008468856 -0.0023788773
0.017178733 -0.9843539 1.3607731 0.049251918 -0.4656171 -0.020893412 0.03525386 -0.64416456
-0.039579947 -0.013025878 0.60996515 -0.0020647973 0.96403545 0.5961482 0.090617105 -0.06836546
-0.4647391 -0.5242812 -0.016521232 0.016721923 -0.34731784 0.025085893 -0.8774181 0.0032283794
-0.004448084 0.2196071 -0.38064983 0.010472518 0.063286096 0.009752714 -0.08058472 -0.35411507
0.10171304 -0.11480311 0.4272628 -0.00060721155 -0.020330073 0.8496423 -0.3759044 0.022886802
0.0007792193 0.0013806486 0.22013113 0.9156024 0.17394169 -0.0014879053 -0.6447068 0.6071707
-0.009736647 0.000956413 0.028322456 0.0025920894 -0.27736667 -7.488845e-05 1.0465816 0.0022048925
0.0046922797 -0.0037677013 -0.21136665 -0.0610233 -0.28774798 -0.05222119 0.0007065463 0.15208687
0.006662867 -0.6248273 -0.8619438 0.97802716
00000000: 0118 0dbf d296 6e3c 07fe 82bf 612c 24ba
00000010: 856d 70be 0bc6 413f 000c d73d ec13 8d3c
00000020: 2b77 d03e 597f e4bd 1534 4b3e ba12 a83c
00000030: 712a c33b 5d80 223e f365 333f a9f9 28be
00000040: 77e9 2b3b d508 813c 48bd 0c3f 770e 483b
00000050: 1853 50bf 08c2 8dbf 9d8b f5bd 927c 693f
00000060: 88a7 be3b d5e4 a23e 1147 dfbe 3619 c6bd
00000070: f1f5 383b 5fac b03d f5c0 0a3c f0e6 1bbb
00000080: 6aba 8c3c 9efe 7bbf d02d ae3f 61bc 493d
00000090: 5d65 eebe a928 abbc 5a66 103d f8e7 24bf
000000a0: 951e 22bd 7e6a 55bc ad26 1c3f 8d51 07bb
000000b0: 07cb 763f 2b9d 183f 7695 b93d 3103 8cbd
000000c0: 49f2 edbe 4b37 06bf 8957 87bc 6afc 883c
000000d0: a5d3 b1be ee80 cd3c 799e 60bf 3893 533b
000000e0: 3cc1 91bb afe0 603e 89e4 c2be ed94 2b3c
000000f0: 249c 813d d9c9 1f3c 9a09 a5bd 924e b5be
00000100: ed4e d03d e51d ebbd 31c2 da3e 472d 1fba
00000110: 418b a6bc 2882 593f 8b76 c0be 1a7d bb3c
00000120: 8644 4c3a e1f6 b43a 0e6a 613e eb64 6a3f
00000130: c51d 323e d105 c3ba 810b 25bf 8a6f 1b3f
00000140: 7586 1fbc cab7 7a3a 7f04 e83c 0be0 293b
00000150: 0103 8ebe 6e0d 9db8 63f6 853f f57f 103b
00000160: b2c1 993b 8aeb 76bb 8070 58be 91f3 79bd
00000170: b453 93be e3e5 55bd 8537 393a a9bc 1b3e
00000180: 2e54 da3b aff4 1fbf 59a8 5cbf fd5f 7a3f
