models/Pendulum-v0/DisWeightSample/Dagger_955.pth (torch, 3551 bytes, 3 tensors)

fc1.weight f4 [100, 3]
0.7428584 1.0204959 0.4090968 0.10797296 0.0060956157 -0.03034729 -0.8748162 -1.3918828
-0.44582775 -0.04220705 -0.028258001 0.0021258786 -0.7651823 -1.2821532 -0.20065784 0.4565321
1.8781843 -0.009218302 -0.22381128 0.015620014 0.109943956 -0.033279926 0.4807148 0.053069886
0.7321407 1.5055985 -0.01891437 0.43362218 0.617562 0.21416567 0.12769614 0.045641623
-0.049524233 0.14203346 0.121971406 0.02999391 -0.14836131 -0.111988574 -0.034164254 0.15291087
-0.07408268 -0.032806825 1.1281416 1.149016 -0.27852044 0.07846687 -0.09829477 -0.03886759
-0.09124863 -0.25795645 -0.037259772 -0.10984103 -0.11053695 0.0026091728 0.5159116 1.5993273
-0.06449557 -0.048230633 0.12764743 0.024339912 -1.2436972 -1.639738 -0.32337004 -0.8635432
-1.7034304 -0.5485483 -0.0043581347 -0.10803664 -0.02259356 0.4642878 -1.8572109 0.028137945
-0.15343814 -0.012647134 0.0016359211 0.7146154 0.94614714 -0.10602228 0.76654536 0.9486342
0.39286506 0.0814119 0.036760163 0.0066546053 0.043247055 0.20438397 0.009992353 -0.016269127
0.059086364 0.041378822 -0.1041021 0.34409505 0.06478083 -0.07283117 -0.07300148 -0.005536037
-0.08122416 0.288891 0.05100899 -0.8665007 -1.6224413 -0.53244126 -0.5141606 2.3813348
-0.00018787403 -0.23101734 -0.14254197 0.028931206 -0.81308794 -1.4334567 -0.27211812 0.016487379
-0.036104266 0.017813912 -0.15903448 0.043320864 0.019147934 0.8216107 0.9874595 0.43464518
-0.0032681457 -0.030720133 -0.051303655 -0.14998113 -0.19564109 -0.014958657 -0.3251156 -1.4317408
0.18321289 -0.12670782 -0.099571556 -0.0028379373 0.026418926 2.3787851 0.14763102 0.53332746
1.6281515 -0.07550563 0.022437057 -0.062410768 -0.024745572 0.30770496 0.36104378 0.075711094
-0.84729 -1.8724891 -0.32942984 -0.8663509 -1.4315615 -0.3918311 -0.2591412 -0.15059489
0.017685961 0.18032321 -0.08192196 -0.005359368 -0.9828406 -1.4759077 -0.34915748 -0.18105467
-0.09275025 -0.016505588 -0.93708605 -1.5074193 -0.51284915 -0.022906587 0.023026202 0.0019105207
0.15042453 0.045254666 0.033966236 0.669776 1.1484438 -0.03783474 -0.74223137 -1.4768407
-0.28623655 -0.1680281 -0.20808065 -0.006084473 -0.60792196 0.068962894 -0.0048609986 0.040709533
0.35988075 0.049126666 -0.75432014 -0.46584246 0.03399165 0.019275254 0.38843477 0.5167032
0.13363157 -0.033002295 -0.02877451 -0.81305563 -1.140268 -0.15178849 -0.21397461 1.8616674
0.09925799 -0.032121573 -0.07193381 -0.010466467 0.04821903 -0.13641214 0.045821685 0.8479731
1.7329122 -0.092355914 -1.2748493 -0.692614 -0.2535523 -0.09865716 0.24551885 0.049714275
-0.014099964 0.10007398 0.022266334 0.038363125 0.12536837 0.00894566 0.1716017 0.9754939
0.020002553 -0.43499175 2.2629738 -0.011275628 -0.42841148 -0.5803294 0.058257513 -0.039752092
-0.041875508 -0.004780408 -0.70816785 -1.4630874 -0.3926973 -0.55513525 1.5865209 0.0039624516
0.13197695 0.021607263 0.060020026 -0.012400238 0.12066884 0.018802324 0.22376445 0.062740706
-0.02626649 -0.03132088 0.026754884 0.0012152843 -1.4286418 -1.0199589 -0.22804144 -0.020521943
00000000: f82b 3e3f 9c9f 823f 2375 d13e ed20 dd3d
00000010: bbbd c73b e19a f8bc f4f3 5fbf 3729 b2bf
00000020: 8943 e4be 4de1 2cbd 537d e7bc 5352 0b3b
00000030: fde2 43bf 991d a4bf 4079 4dbe 93be e93e
00000040: 5868 f03f 5c08 17bc c92e 65be 16eb 7f3c
00000050: 4c2a e13d 8850 08bd 4020 f63e cf5f 593d
00000060: 936d 3b3f 74b7 c03f 4ff2 9abc ba03 de3e
00000070: 8b18 1e3f 3f4e 5b3e c7c2 023e b6f2 3a3d
00000080: ecd9 4abd 3871 113e 25cc f93d cab5 f53c
00000090: 07ec 17be 445a e5bd d1ef 0bbd ab94 1c3e
000000a0: a9b8 97bd 7360 06bd f266 903f f512 933f
000000b0: 3b9a 8ebe 3db3 a03d c54e c9bd 9f33 1fbd
000000c0: 90e0 babd de12 84be b49d 18bd 55f4 e0bd
000000d0: 3261 e2bd a8fe 2a3b c812 043f c2b6 cc3f
000000e0: 4116 84bd 7c8d 45bd 02b6 023e 7f64 c73c
000000f0: 7831 9fbf efe2 d1bf c290 a5be 2b11 5dbf
00000100: 020a dabf a96d 0cbf afce 8ebb 5042 ddbd
00000110: 2116 b9bc 21b7 ed3e 16b9 edbf 8c81 e63c
00000120: e31e 1dbe ed35 4fbc 676c d63a 09f1 363f
00000130: b336 723f 3622 d9bd 513c 443f b1d9 723f
00000140: 9c25 c93e 48bb a63d d391 163d e00e da3b
00000150: d323 313d 084a 513e f7b6 233c d546 85bc
00000160: 8b04 723d d77c 293d 7b33 d5bd 3a2d b03e
00000170: d0ab 843d 8228 95bd cd81 95bd a567 b5bb
00000180: da58 a6bd 85e9 933e cdee 503d fdd2 5dbf
00000190: 28ac cfbf 124e 08bf 07a0 03bf ca67 1840
000001a0: 0d00 45b9 cf8f 6cbe 86f6 11be 2301 ed3c
000001b0: 8826 50bf 827b b7bf 1153 8bbe 8a10 873c
000001c0: 11e2 13bd 7bee 913c efd9 22be 3871 313d
000001d0: 21dc 9c3c 1455 523f 25ca 7c3f d089 de3e
000001e0: 632e 56bb caa8 fbbc c823 52bd a794 19be
000001f0: 2356 48be 2815 75bc 8d75 a6be 4843 b7bf
00000200: 299c 3b3e b2bf 01be 2cec cbbd b0fc 39bb
00000210: 816c d83c 043e 1840 962c 173e 2688 083f
00000220: 4567 d03f b2a2 9abd ebcd b73c 6fa2 7fbd
00000230: 3ab7 cabc 818b 9d3e bbda b83e 6b0e 9b3d
00000240: ffe7 58bf b9ad efbf 07ab a8be 2cc9 5dbf
00000250: 683d b7bf 169e c8be 28ae 84be 8c35 1abe
00000260: 26e2 903c a6a6 383e b3c6 a7bd a39d afbb
00000270: 719b 7bbf 8bea bcbf c5c4 b2be 6566 39be
00000280: d8f3 bdbd ba36 87bc dfe4 6fbf 1ef3 c0bf
00000290: 154a 03bf 98a6 bbbc 72a1 bc3c 706a fa3a
000002a0: e308 1a3e f55c 393d 2e20 0b3d 7176 2b3f
000002b0: 3500 933f 9af8 1abd e002 3ebf 1e09 bdbf
000002c0: 998d 92be 8f0f 2cbe 1813 55be 4260 c7bb
000002d0: c6a0 1bbf 6b3c 8d3d 0349 9fbb 0abf 263d
000002e0: 4a42 b83e 0b39 493d 201b 41bf e782 eebe
000002f0: d43a 0b3d 23e7 9d3c ece0 c63e a946 043f
00000300: b7d6 083e 6a2d 07bd 85b8 ebbc 6a24 50bf
00000310: 4df4 91bf 716e 1bbe 291c 5bbe 1e4b ee3f
00000320: c647 cb3d e991 03bd 0952 93bd 8b7b 2bbc
00000330: 5181 453d a0af 0bbe 85af 3b3d c414 593f
00000340: 11d0 dd3f 1925 bdbd 432e a3bf 274f 31bf
00000350: 9bd1 81be c40c cabd 4b69 7b3e 32a1 4b3d
00000360: 8903 67bc 96f3 cc3d e367 b63c a722 1d3d
00000370: 9160 003e d190 123c 5bb8 2f3e f8b9 793f
00000380: 65dc a33c 3db7 debe 90d4 1040 69bd 38bc
00000390: c058 dbbe 7890 14bf 6e9f 6e3d 17d3 22bd
000003a0: a785 2bbd f8a4 9cbb 7d4a 35bf 7346 bbbf
000003b0: 9f0f c9be 581d 0ebf 1e13 cb3f 74d7 813b
000003c0: f724 073e b701 b13c 8fd7 753d 5e2a 4bbc
000003d0: 3a21 f73d 5507 9a3c 8222 653e 337e 803d
000003e0: d22c d7bc 534a 00bd 0f2d db3c 2d4a 9f3a
000003f0: bcdd b6bf 038e 82bf b283 69be a21d a8bc

fc1.bias f4 [100]
-0.37686586 -0.61294156 0.047036525 -0.044274043 -0.11642257 -0.98898625 0.5153327 0.066047594
-0.8393729 -0.4103775 -0.5399965 -0.4089217 -0.46615744 -0.65308094 -0.9346956 -0.4675809
-0.19402555 -0.19154768 -0.4911758 0.07598509 -0.6276947 -0.117077224 -0.504649 -0.10618744
-0.25252932 -1.2435496 -0.4452471 -0.48148587 -0.10895991 -0.43990117 0.1605527 -0.06719724
0.1489787 -0.07898875 0.1914144 0.2545665 -0.24287038 -0.40601975 -0.31915215 -0.454848
-0.54003316 -0.04206779 0.51719326 0.010411517 -0.7719285 -0.49928945 -0.23636442 -0.3258952
-0.4374674 -0.019250637 -0.48272938 -0.6214896 -0.023709636 -0.19300617 0.050876334 -0.40596205
-0.18690524 -1.055151 -0.25624838 -0.6026211 -0.61835057 -0.09596737 -0.81440103 -0.59649265
-0.47772008 -0.69127 0.27893218 -0.026985163 -0.60706085 -1.2877748 -0.75396186 0.21998225
-0.039279364 -0.11037462 -0.43265957 0.08674806 0.30844724 -0.044861946 -0.16387224 0.31119072
-0.46844304 -0.048493575 -0.56740284 -0.03699842 -0.7056973 -0.091428034 0.13579196 -0.45628378
0.030465182 0.07501845 -0.96897537 -0.36441088 -0.4674661 -0.6127064 -0.12470842 -0.73075736
-0.21794619 -0.8395664 -0.6609547 0.24165784
00000000: 90f4 c0be bde9 1cbf 5fa9 403d b358 35bd
00000010: f56e eebd 342e 7dbf d8ec 033f f643 873d
00000020: 24e1 56bf 001d d2be 363d 0abf 2f5e d1be
00000030: 30ac eebe 5030 27bf 3648 6fbf c466 efbe
00000040: a2ae 46be 1325 44be 657b fbbe 129e 9b3d
00000050: 9ab0 20bf 2fc6 efbd ad30 01bf cd78 d9bd
00000060: 864b 81be a22c 9fbf 6ef7 e3be 5185 f6be
00000070: 6026 dfbd ba3a e1be ed67 243e b59e 89bd
00000080: df8d 183e dbc4 a1bd 2302 443e 8a56 823e
00000090: 03b3 78be d2e1 cfbe e967 a3be d6e1 e8be
000000a0: 9d3f 0abf 464f 2cbd c766 043f 1195 2a3c
000000b0: 1b9d 45bf dea2 ffbe 8409 72be bcdb a6be
000000c0: bafb dfbe 83b3 9dbc 4e28 f7be f119 1fbf
000000d0: b63a c2bc 69a3 45be b463 503d 42da cfbe
000000e0: 1664 3fbe 300f 87bf fd32 83be 6045 1abf
000000f0: 394c 1ebf 8a8a c4bd 967c 50bf beb3 18bf
00000100: ba97 f4be 12f7 30bf 33d0 8e3e fd0f ddbc
00000110: 5768 1bbf ced5 a4bf a503 41bf 0743 613e
00000120: 66e3 20bd 170c e2bd 8e85 ddbe f8a8 b13d
00000130: ccec 9d3e 29c1 37bd 20ce 27be 6454 9f3e
00000140: c4d7 efbe 33a1 46bd 5041 11bf a88b 17bd
00000150: 94a8 34bf 9f3e bbbd 0c0d 0b3e 079e e9be
00000160: 1e92 f93c 46a3 993d c50e 78bf 1094 babe
00000170: b757 efbe 54da 1cbf 2167 ffbd ea12 3bbf
00000180: 492d 5fbe d3ed 56bf 5434 29bf 2775 773e

out.weight f4 [1, 100]
-0.5373062 0.014562326 -1.0374616 -0.0012322462 -0.21936241 0.73520356 0.06957478 0.0037086902
0.36228374 -0.07735486 0.19844086 0.020516742 0.005955987 0.15869279 0.70890045 -0.16501488
-6.828171e-05 0.015751282 0.498303 0.00060899864 -0.9129724 -1.1615272 -0.1198952 0.9204931
0.005818311 0.19528899 -0.41806987 -0.09672777 -0.01288974 0.08626627 0.0013044332 -0.0014927718
0.0019550773 -1.0296514 1.3491905 0.009508198 -0.48290297 -0.020893412 0.03525386 -0.6346019
-0.039579947 0.0010230405 0.6279848 0.004049553 0.89823806 0.5469048 0.090617105 -0.027100284
-0.5431449 -0.5343459 -0.016521232 0.016721923 -0.35935202 0.025085893 -0.91369575 0.0032283794
-0.009417163 0.13376342 -0.4051047 0.010472518 0.063286096 -0.012827597 -0.050447144 -0.37028915
0.10171304 -0.11946877 0.40422544 0.0005954502 -0.020330073 0.87625164 -0.39496052 0.0059273285
-0.0077216467 0.019952305 0.11402888 0.89068854 0.15225935 -0.00043849053 -0.6571018 0.56177807
-0.009736647 -0.0067368066 0.028322456 0.00032080294 -0.3196977 0.0007072614 1.02036 0.0022048925
0.00087746134 -0.005731165 -0.1466152 -0.100447066 -0.26280284 -0.05222119 0.00065546937 0.07666698
0.006662867 -0.63343215 -0.8693166 0.97973883
00000000: e68c 09bf d296 6e3c 8bcb 84bf 5283 a1ba
00000010: 8aa0 60be 4d36 3c3f 397d 8e3d 7f0d 733b
00000020: 417d b93e 3a6c 9ebd 1534 4b3e ba12 a83c
00000030: 712a c33b 5d80 223e 807a 353f a9f9 28be
00000040: 7732 8fb8 d508 813c 9221 ff3e 35a5 1f3a
00000050: 8fb8 69bf ecac 94bf 9d8b f5bd 70a5 6b3f
00000060: 88a7 be3b d6f9 473e 410d d6be 3619 c6bd
00000070: 7d2f 53bc 5fac b03d 84f9 aa3a 1ca9 c3ba
00000080: c120 003b 9ecb 83bf 46b2 ac3f 46c8 1b3c
00000090: 0f3f f7be a928 abbc 5a66 103d 4575 22bf
000000a0: 951e 22bd 8b17 863a 9dc3 203f 1db2 843b
000000b0: eef2 653f f401 0c3f 7695 b93d 6a01 debc
000000c0: 8b0b 0bbf e5ca 08bf 8957 87bc 6afc 883c
000000d0: fdfc b7be ee80 cd3c f7e7 69bf 3893 533b
000000e0: 724a 1abc 47f9 083e e269 cfbe ed94 2b3c
000000f0: 249c 813d d72a 52bc aaa1 4ebd 8a96 bdbe
00000100: ed4e d03d 0bac f4bd a3f6 ce3e fd17 1c3a
00000110: 418b a6bc 0752 603f 4438 cabe 093a c23b
00000120: de05 fdbb 0473 a33c f987 e93d 2a04 643f
00000130: e0e9 1b3e 34e5 e5b9 d337 28bf b0d0 0f3f
00000140: 7586 1fbc 6ec0 dcbb 7f04 e83c 7131 a839
00000150: 6baf a3be 8267 393a 289b 823f f57f 103b
00000160: 6f05 663a 7fcc bbbb 4c22 16be 31b7 cdbd
00000170: 188e 86be e3e5 55bd ced3 2b3a 9403 9d3d
00000180: 2e54 da3b 9c28 22bf 888b 5ebf 2ad0 7a3f
