models/Pendulum-v0/DisWeightSample/Dagger_105.pth (torch, 3551 bytes, 3 tensors)

fc1.weight f4 [100, 3]
000000 f3 5f 20 3f 98 cf 51 3f 67 53 9f 3e ed 20 dd 3d
       0.62646407 0.8195739 0.31118318 0.10797296
000010 bb bd c7 3b e1 9a f8 bc 9c 77 21 bf 4a b1 42 bf
       0.0060956157 -0.03034729 -0.63073134 -0.7605177
000020 23 bf 7f be 1a 31 22 be c4 6f 98 bd 88 0f 0b 3c
       -0.24975257 -0.15839043 -0.074431926 0.00848759
000030 33 e3 11 bf 42 3a 08 bf 30 36 84 be 94 a5 9f bd
       -0.56987303 -0.53213894 -0.25822592 -0.077952534
000040 d0 ce b6 3f 8a 60 88 3d a9 5f bd bd ab 80 e8 3d
       1.4281864 0.06659038 -0.09246761 0.113526665
000050 36 9d 53 3e 54 9e a2 3d 9c 44 07 3f 5c e3 6b bc
       0.2066544 0.07940355 0.52839065 -0.014397468
000060 90 f6 6c 3d 16 33 83 3f 05 21 19 3d 59 aa de 3e
       0.057852328 1.0249965 0.037385006 0.4348934
000070 bc 61 fe 3e 66 e3 51 3e c7 c2 02 3e b6 f2 3a 3d
       0.4968394 0.20496902 0.12769614 0.045641623
000080 ec d9 4a bd 38 71 11 3e 25 cc f9 3d ca b5 f5 3c
       -0.049524233 0.14203346 0.121971406 0.02999391
000090 07 ec 17 be 44 5a e5 bd d1 ef 0b bd ab 94 1c 3e
       -0.14836131 -0.111988574 -0.034164254 0.15291087
0000a0 a9 b8 97 bd 73 60 06 bd bb 1d c8 3e e7 be 01 3f
       -0.07408268 -0.032806825 0.39085183 0.5068192
0000b0 ec 34 65 be 3d b3 a0 3d c5 4e c9 bd 9f 33 1f bd
       -0.2238347 0.07846687 -0.09829477 -0.03886759
0000c0 cb 86 23 3d 5b 31 be be c7 dd ab bc 55 f4 e0 bd
       0.03992347 -0.3714703 -0.020979775 -0.10984103
0000d0 32 61 e2 bd a8 fe 2a 3b e7 ec 9e bc 99 b0 8f 3f
       -0.11053695 0.0026091728 -0.019400073 1.1225768
0000e0 b3 2a 48 bd 09 10 60 3d 82 ec 09 3e b4 b4 f1 bb
       -0.048868846 0.054702792 0.13469127 -0.007376278
0000f0 d9 c0 df be bb 6d 6c bf 8b fd 78 be 52 cc 17 bf
       -0.4370182 -0.92354935 -0.24315469 -0.59296143
000100 79 3d 89 bf b3 64 a8 be af ce 8e bb 50 42 dd bd
       -1.0721885 -0.32889327 -0.0043581347 -0.10803664
000110 21 16 b9 bc 29 9e 93 3e ff 77 ba bf ab 6f 4b bd
       -0.02259356 0.28831604 -1.456787 -0.04966704
000120 e3 1e 1d be ed 35 4f bc 67 6c d6 3a 97 dd 2a 3e
       -0.15343814 -0.012647134 0.0016359211 0.16686092
000130 00 0b 31 3e 2f 7e 23 be 33 a0 27 3f 68 84 3f 3f
       0.17289352 -0.15966104 0.6547882 0.7481141
000140 20 66 9d 3e 48 bb a6 3d d3 91 16 3d e0 0e da 3b
       0.30741978 0.0814119 0.036760163 0.0066546053
000150 f4 2f 0c bd 58 2e 1c 3e fd e2 1d 3d d5 46 85 bc
       -0.03422542 0.15252054 0.03854655 -0.016269127
000160 8b 04 72 3d d7 7c 29 3d b2 6d 88 bd 1a cc cc 3e
       0.059086364 0.041378822 -0.06661548 0.39999467
000170 b6 41 1f 3d 7d e7 ac bd 65 aa 32 be ea 52 00 bb
       0.038881026 -0.084425904 -0.17447813 -0.001958067
000180 be 9c b3 bc 5e 64 9b 3e b4 e4 9d 3c f2 37 1c bf
       -0.021925326 0.30350012 0.019274093 -0.61022866
000190 02 f6 74 bf f7 37 a5 be db 12 8c be cc 1d ca 3f
       -0.9568788 -0.3226926 -0.27358136 1.5790343
0001a0 c7 5d d7 3b d7 13 53 be b3 62 31 be 73 03 19 3e
       0.0065724584 -0.20613037 -0.17322807 0.14942722
0001b0 3e 37 fa be 06 81 24 bf 0d 5a 6e be 8a 10 87 3c
       -0.4887027 -0.64259374 -0.23276539 0.016487379
0001c0 11 e2 13 bd 7b ee 91 3c ef d9 22 be 38 71 31 3d
       -0.036104266 0.017813912 -0.15903448 0.043320864
0001d0 21 dc 9c 3c cc 3f 32 3f 5a 8e 48 3f 13 23 a8 3e
       0.019147934 0.69628596 0.7834221 0.3283926
0001e0 63 2e 56 bb ca a8 fb bc c8 23 52 bd 13 f5 f0 bd
       -0.0032681457 -0.030720133 -0.051303655 -0.11765494
0001f0 83 2b 8c be 02 58 1a 3b e9 43 5f bc 39 d9 8e bf
       -0.27376947 0.0023550992 -0.013627031 -1.1160041
000200 d6 a1 99 3d 77 4d a4 bd b5 90 1d be 6c be cd bc
       0.07501571 -0.08022588 -0.15387233 -0.025115214
000210 e1 3c e9 bd cc c0 e0 3f c5 51 87 3d 57 2a 66 bb
       -0.11388565 1.7558837 0.06607393 -0.0035120451
000220 b5 95 90 3f 91 69 3c bd eb cd b7 3c 6f a2 7f bd
       1.1295687 -0.045999113 0.022437057 -0.062410768
000230 3a b7 ca bc 9b 82 76 3e a5 7c be 3e 91 50 02 3e
       -0.024745572 0.2407326 0.3720447 0.12726046
000240 8b 38 82 be b8 93 83 bf 9d 4a 3e be 02 e9 25 bf
       -0.25433764 -1.0279455 -0.1858315 -0.64808667
000250 3a 35 34 bf d5 c7 9a be 28 ae 84 be 8c 35 1a be
       -0.7039372 -0.30230585 -0.2591412 -0.15059489
000260 26 e2 90 3c a6 a6 38 3e b3 c6 a7 bd a3 9d af bb
       0.017685961 0.18032321 -0.08192196 -0.005359368
000270 12 1d 42 bf 94 50 38 bf c7 38 ae be db 54 3a be
       -0.7582561 -0.7199795 -0.34027693 -0.18196432
000280 39 dc bd bd 12 18 89 bc 71 a2 31 bf f5 0e 5a bf
       -0.0927052 -0.01673511 -0.6938849 -0.8517907
000290 aa f1 a7 be 98 a6 bb bc 72 a1 bc 3c 70 6a fa 3a
       -0.32801563 -0.022906587 0.023026202 0.0019105207
0002a0 a0 89 b0 3e 3e bb 68 bd f8 c0 94 3d d0 4b 09 3e
       0.3448 -0.056819193 0.07263368 0.13407826
0002b0 f8 cd 32 3f e1 aa 31 bb 94 a4 d2 be 2e f0 30 bf
       0.69845533 -0.0027109908 -0.41141188 -0.69116485
0002c0 48 ac 78 be 8f 0f 2c be 18 13 55 be 42 60 c7 bb
       -0.2428447 -0.1680281 -0.20808065 -0.006084473
0002d0 73 6b 21 bf 37 b7 0c bd af e9 17 3c f4 6c 84 3d
       -0.6305458 -0.034354415 0.009272023 0.06466094
0002e0 d9 28 d6 3e c9 ec 64 3b 41 65 ce be b2 22 d5 bd
       0.4182804 0.0034931174 -0.40311626 -0.10407008
0002f0 81 af 67 bd 24 cb 1a bd 77 ac c0 3c b8 a1 e3 3d
       -0.056563858 -0.037791386 0.023519738 0.1111483
000300 b7 d6 08 3e 6a 2d 07 bd 85 b8 eb bc ce 08 be be
       0.13363157 -0.033002295 -0.02877451 -0.37116092
000310 34 6d 19 bf b7 68 37 be 8e c6 71 be 03 85 8b 3f
       -0.59932256 -0.1791104 -0.23610899 1.0899967
000320 f9 41 72 3b 62 14 2f 3e 33 74 f7 bd 48 4b b0 3b
       0.0036965592 0.17097619 -0.1208271 0.005380068
000330 51 81 45 3d a0 af 0b be 85 af 3b 3d e1 01 74 3e
       0.04821903 -0.13641214 0.045821685 0.23828842
000340 93 26 89 3f 54 d7 05 bc b4 d8 09 bf 1a 0c 70 be
       1.0714897 -0.008169014 -0.5384629 -0.23442116
000350 8f 53 bf bd b1 d4 b7 3d 0a 20 49 3e e1 46 ff 3a
       -0.093421094 0.089761145 0.19641128 0.001947608
000360 97 3a 04 3e f2 16 b0 3d 8d 2d bd bb 73 05 fa bd
       0.12912975 0.085981265 -0.0057732523 -0.122080706
000370 85 d7 18 3e 56 74 cc 3c a1 78 34 bd 94 c7 3d 3f
       0.14925964 0.024957817 -0.044060353 0.7413266
000380 a3 cb cb bd c4 fc 69 be be 07 c0 3f 3c d8 0a 3c
       -0.0995095 -0.22850329 1.5002363 0.008474406
000390 57 ff 5f bd 83 3e 06 bf be f0 55 3c ea dd 01 3b
       -0.05468687 -0.52439135 0.013057886 0.001981611
0003a0 62 98 f9 bd 28 6d ee bc 02 d0 ea be cb fa 42 bf
       -0.12187268 -0.029104784 -0.45861822 -0.7616393
0003b0 0a 3c 8a be 14 fe cd be 12 f2 65 3f 8d 23 4e bc
       -0.2699893 -0.4023291 0.89822495 -0.012581718
0003c0 f7 24 07 3e b7 01 b1 3c 8f d7 75 3d 90 9b 1f 3d
       0.13197695 0.021607263 0.060020026 0.038966715
0003d0 24 00 cf 3d ee 5a 00 3d 82 22 65 3e 33 7e 80 3d
       0.10107449 0.031336717 0.22376445 0.062740706
0003e0 d2 2c d7 bc ef 8a 85 be 66 38 c1 bb 02 27 e5 3b
       -0.02626649 -0.2608256 -0.005896616 0.0069931755
0003f0 5c df 6c bf 1b ab ba be 9a 18 33 bd ee 96 8a 3d
       -0.9252832 -0.36458668 -0.043724634 0.06767069

fc1.bias f4 [100]
000000 63 e5 9d be bd e9 1c bf 9b 97 33 3e 9f 92 d5 3e
       -0.3083907 -0.61294156 0.17538302 0.41713426
000010 19 5d 7c 3e 09 ab 81 be 91 39 f3 3e 6e bd d3 3e
       0.24644889 -0.25325802 0.47504857 0.4135546
000020 4d cd f8 bd ad c3 75 be 36 3d 0a bf 2f 5e d1 be
       -0.12148533 -0.24000426 -0.5399965 -0.4089217
000030 30 ac ee be 50 30 27 bf b3 42 c0 be c4 66 ef be
       -0.46615744 -0.65308094 -0.37550887 -0.4675809
000040 7a 11 39 3d 13 25 44 be af bc a4 3c df 0a eb 3e
       0.045182683 -0.19154768 0.020109503 0.4590673
000050 91 e0 79 bd 33 2c 4f 3c ad 30 01 bf ab ed 2d 3d
       -0.06100518 0.012644815 -0.504649 0.042462986
000060 86 4b 81 be 7b 75 ff be f8 b7 bc be 51 85 f6 be
       -0.25252932 -0.49894318 -0.36859107 -0.48148587
000070 86 1d d9 3e ba 3a e1 be fe 50 15 3f 98 1d ea 3e
       0.42405337 -0.43990117 0.5832671 0.45725703
000080 82 82 d1 3e 83 ef a0 3d d7 b6 a4 3d 91 ea ac 3e
       0.40919882 0.07858183 0.080426864 0.3377271
000090 69 d2 de 3d d2 e1 cf be e9 67 a3 be a1 6a ca be
       0.10879976 -0.40601975 -0.31915215 -0.39534476
0000a0 9d 3f 0a bf 18 c3 cf 3e c9 d2 10 3e b2 b4 d6 3e
       -0.54003316 0.40578532 0.14142908 0.41934735
0000b0 56 f6 92 be 12 25 13 3c 84 09 72 be e4 ff dd bd
       -0.28703564 0.008981006 -0.23636442 -0.10839823
0000c0 80 0a a8 be 40 c5 6b 3e 4e 28 f7 be f1 19 1f bf
       -0.3282051 0.23024464 -0.48272938 -0.6214896
0000d0 4a 10 a4 3e 63 fe 44 be 17 83 4a 3e 42 da cf be
       0.32043678 -0.19237666 0.1977657 -0.40596205
0000e0 76 d7 59 bc ea 95 26 be 68 66 51 3d 60 45 1a bf
       -0.013295999 -0.16268125 0.051123053 -0.6026211
0000f0 26 a4 f8 be f0 44 b7 3e ca 1f 9d be 4b 11 0e be
       -0.48562735 0.35794783 -0.30688316 -0.13873784
000100 ba 97 f4 be c7 03 eb 3c be e0 09 3e 9d 32 15 3e
       -0.47772008 0.028688325 0.13464639 0.14570089
000110 57 68 1b bf cd 16 95 be 30 19 cf be 28 12 11 3f
       -0.60706085 -0.29118958 -0.40448904 0.5666833
000120 02 81 a7 3e 0c f9 b6 3e 8b 04 84 3d f8 73 3f 3d
       0.32715613 0.35736883 0.06446179 0.046741456
000130 b6 20 12 3e 46 eb aa 3e 2e 4c 58 3d 6d 22 91 3e
       0.1427029 0.33382624 0.052807026 0.28346577
000140 c4 d7 ef be 81 75 9f 3e 50 41 11 bf 7e 1f fc 3e
       -0.46844304 0.31144336 -0.56740284 0.49242777
000150 6d d7 86 bc 76 13 ab 3e 2e a4 bc bc 07 9e e9 be
       -0.016460145 0.33413285 -0.023027506 -0.45628378
000160 45 91 e7 3e 42 a9 f6 3e 2f ac c4 be cd c6 2d be
       0.4522802 0.48176008 -0.38412616 -0.16970368
000170 0d 86 c1 be 54 da 1c bf 9f 28 79 bd 9f 72 b4 3b
       -0.37797585 -0.6127064 -0.060829755 0.005506828
000180 49 2d 5f be a3 dc 98 be 69 e0 1a bf 48 0c 1d 3e
       -0.21794619 -0.29855832 -0.6049867 0.15336716

out.weight f4 [1, 100]
000000 3f bf 17 bf d2 96 6e 3c 02 8d 71 bf 15 78 15 3d
       -0.59276193 0.014562326 -0.94355786 0.036491472
000010 df 71 84 be e4 cf 46 3f ab 36 f6 3d b3 c1 0c 3e
       -0.25868127 0.77660966 0.12022146 0.13745765
000020 d7 af 9e 3e 78 28 87 be 15 34 4b 3e ba 12 a8 3c
       0.3099353 -0.26398063 0.19844086 0.020516742
000030 71 2a c3 3b 5d 80 22 3e 18 e5 dc 3e a9 f9 28 be
       0.005955987 0.15869279 0.43143535 -0.16501488
000040 ea 6d 6a 3d d5 08 81 3c b1 9f 0a 3f 82 e9 e0 3d
       0.05723373 0.015751282 0.5414992 0.10982038
000050 9d 42 1c bf ca 99 6c bf 9d 8b f5 bd db 71 66 3f
       -0.61039144 -0.92422163 -0.1198952 0.9001748
000060 88 a7 be 3b d8 6d 27 3e 89 ee f7 be 36 19 c6 bd
       0.005818311 0.16350496 -0.48424175 -0.09672777
000070 5e 3c 4a 3d 5f ac b0 3d 4e ff ef 3d 13 ee 09 3d
       0.049373977 0.08626627 0.117186174 0.03367431
000080 ce f9 46 3e d0 a5 56 bf e6 fc 9a 3f 54 e2 c7 3d
       0.1943123 -0.8384676 1.2108428 0.097599655
000090 ef 53 fe be a9 28 ab bc 5a 66 10 3d 7c f8 2a bf
       -0.4967341 -0.020893412 0.03525386 -0.6678541
0000a0 95 1e 22 bd 9b a4 2d bb 29 49 04 3f d0 09 ff bc
       -0.039579947 -0.0026495818 0.51674134 -0.031132609
0000b0 a5 3d 5f 3f 10 ec 13 3f 76 95 b9 3d c6 a2 26 be
       0.8720344 0.5778208 0.090617105 -0.1627303
0000c0 01 d8 9e be 7a 58 f6 be 89 57 87 bc 6a fc 88 3c
       -0.31024173 -0.48114377 -0.016521232 0.016721923
0000d0 48 08 9d be 4b 88 cd 3c c2 4f 43 bf 38 93 53 3b
       -0.3067038 0.025089404 -0.76293576 0.0032283794
0000e0 54 7c b0 bd 26 4d e6 3d 98 68 cd be ed 94 2b 3c
       -0.08617464 0.11245184 -0.4011886 0.010472518
0000f0 0f 92 66 3e 57 96 84 3d e7 22 99 bd 03 e1 52 bd
       0.22516654 0.064739875 -0.0747736 -0.05148412
000100 ed 4e d0 3d 2c 03 e4 bd 60 88 d5 3e 52 bd 78 bc
       0.10171304 -0.111334175 0.41705608 -0.015181856
000110 41 8b a6 bc 96 58 ca 3e 70 e8 97 be 98 96 21 3e
       -0.020330073 0.3952071 -0.29669523 0.15780103
000120 51 c6 90 3d 86 1e ab 3c 98 33 95 3e 10 66 51 3f
       0.07069076 0.020888578 0.29140925 0.8179636
000130 e5 80 39 3e e6 81 02 3d b0 96 1c bf 0b 21 10 3f
       0.18115576 0.031862162 -0.6116743 0.5630042
000140 75 86 1f bc 55 11 8b 3d 7f 04 e8 3c ab 15 f2 3c
       -0.009736647 0.06790415 0.028322456 0.029551348
000150 bf 1e 3a be e4 d7 06 3d 5d fe 5d 3f f5 7f 10 3b
       -0.18175791 0.032920733 0.8671625 0.0022048925
000160 cb d8 d7 3d 3b 3c 97 bd f5 a8 1a be a5 49 7b be
       0.10539397 -0.07384535 -0.15103514 -0.24539812
000170 3e c8 af be e3 e5 55 bd 65 c4 a4 3b a3 5a 2c 3e
       -0.3433246 -0.05222119 0.005028295 0.1683145
000180 2e 54 da 3b 81 6d c2 bd c5 2e 52 bf 3d 73 50 3f
       0.006662867 -0.094935425 -0.82102615 0.8142584
