models/InvertedDoublePendulum-v2/LossPER/Dagger_705.pth (torch, 6751 bytes, 3 tensors)

fc1.weight f4 [100, 11]
0	0xbee57652	-0.44816834
1	0xbeb760e2	-0.35816103
2	0x3eb293d7	0.34878418
3	0x3f112ae4	0.5670607
4	0x3f3fccdb	0.7492196
5	0xbe1ead93	-0.15495901
6	0xbe61a075	-0.22033866
7	0xbf014728	-0.504992
8	0x3d9a3e1b	0.07531377
9	0x3dde9e95	0.10870091
10	0xbe0791b6	-0.13239178
11	0x3f496234	0.7866547
12	0x3d1cb441	0.03825784
13	0xbfe332be	-1.774986
14	0xbe9e4d01	-0.30918124
15	0xbf82ac70	-1.0208874
16	0x3e4b5920	0.19858217
17	0xbe8e4d26	-0.27793235
18	0xbedae84f	-0.42755362
19	0x3ed0896c	0.40729845
20	0xbd9a2896	-0.075272724
21	0x3d55f992	0.052239962
22	0xbe14079f	-0.14456032
23	0xbe98ff59	-0.29882315
24	0x3f701761	0.93785673
25	0x3eca4b11	0.39510396
26	0x3d5cc2bf	0.05389666
27	0x3e0e46fb	0.13894264
28	0x3d07405f	0.033020373
29	0x3e46f825	0.19430597
30	0x3cf25d67	0.029585553
31	0x3e6dd113	0.23224287
32	0xbd0cba43	-0.03435732
33	0xbd656b1a	-0.056010343
34	0x3be6a1bb	0.0070383227
35	0x3eccd5cd	0.40006867
36	0xbe3c1ac1	-0.18369581
37	0xbea86328	-0.3288815
38	0x3cbcd310	0.023049861
39	0xbd582e2c	-0.052778408
40	0x3e4c7f80	0.19970512
41	0xbec093f0	-0.37612867
42	0x3e4790ca	0.19488826
43	0x3e01e4d0	0.12684941
44	0xbdf6bfc3	-0.120482944
45	0xbda6a84a	-0.08137567
46	0x3d7b0f4d	0.06129389
47	0xbe0c13fd	-0.136795
48	0xbe09f586	-0.13472566
49	0xbe05bf6e	-0.13061306
50	0xbe0e47ba	-0.13894549
51	0xbcc79032	-0.02436075
52	0xbe7ffe85	-0.24999435
53	0x3c1a1342	0.0094040055
54	0x3dfbadb8	0.122889936
55	0x3e7299b7	0.2369145
56	0xbe64ca6a	-0.2234284
57	0xbfe6e419	-1.803836
58	0xbdd70012	-0.1049806
59	0xbef0e203	-0.47047433
60	0xbe29ea53	-0.16593294
61	0xbf09440e	-0.5361947
62	0xbee5804b	-0.44824442
63	0xbea2cd31	-0.31797174
64	0xbda804cf	-0.08204042
65	0xbb3cbb68	-0.0028798226
66	0xbd5f82b1	-0.054567996
67	0xbe3df89b	-0.18551867
68	0x3eac364f	0.33635184
69	0x3e0b98c9	0.13632502
70	0xbcf4ab38	-0.0298668
71	0xbc882f0c	-0.016623996
72	0xbbb1b904	-0.005423667
73	0x3cc5ad01	0.024130346
74	0xbe3b72f3	-0.18305568
75	0x3ddf026a	0.10889132
76	0x3bdf373a	0.0068120034
77	0xbec579ec	-0.38569582
78	0xbf8ede8e	-1.1161668
79	0xbd090fd2	-0.033462353
80	0xbe851224	-0.25990403
81	0xbe949466	-0.2901947
82	0xbf465eda	-0.7748848
83	0xbf0b6682	-0.5445329
84	0xbb631f44	-0.0034656087
85	0x3ce43236	0.027855974
86	0x3d016062	0.03158606
87	0x3d57bc8a	0.05267004
88	0x3e1ec057	0.1550306
89	0xbef1410d	-0.47119942
90	0x3f01d66b	0.507178
91	0xbe1728a5	-0.14761598
92	0xbdd50681	-0.10401631
93	0xbe18599c	-0.14877933
94	0x3cfe3d52	0.0310351
95	0x3e25a277	0.16175257
96	0x3d019f60	0.031646132
97	0x3c2e80cc	0.010650825
98	0x3d20b343	0.039233457
99	0x3ef75812	0.4830938
100	0xbf312e43	-0.69211215
101	0xc00cc912	-2.1997724
102	0xbe93cb32	-0.28865963
103	0xbe8a6ab5	-0.27034536
104	0xbd95abf9	-0.07308192
105	0xbf42f558	-0.76155615
106	0xbf0f3fde	-0.5595683
107	0xbee57f44	-0.44823658
108	0x3debd6cd	0.115155794
109	0x3ca0f04c	0.019645832
110	0xbe631e6e	-0.22179577
111	0x3e4f4dfe	0.20244595
112	0x3e92eaeb	0.28694853
113	0x3e760b9b	0.24027865
114	0x3ea523e0	0.32253933
115	0x3d48a9c7	0.048990037
116	0x3d9f078f	0.077651136
117	0xbdf77f10	-0.12084782
118	0xbdcb212c	-0.099184364
119	0x3df4dc0f	0.11956035
120	0xbddaf9e2	-0.106921926
121	0x3e99fc4d	0.30075303
122	0x3d3e72e9	0.046496306
123	0x3e689db0	0.22716403
124	0xbe5b0be7	-0.21391259
125	0xbeb3e391	-0.35134557
126	0xbe3fea44	-0.18741709
127	0x3eb69dc5	0.35667244
128	0x3ea2145d	0.3165616
129	0xbe98a0fa	-0.29810315
130	0x3d9d3f3c	0.076780766
131	0x3dd81413	0.10550704
132	0x3e3dacc1	0.18522932
133	0x3e356e0c	0.17717761
134	0xbea05a8d	-0.31319085
135	0xbda080a6	-0.07837038
136	0xbea59402	-0.32339483
137	0xbd208f12	-0.039198942
138	0xbc9e9ac7	-0.019360913
139	0x3d4801e6	0.048829935
140	0xbed205dc	-0.41020095
141	0x3d8cd6a2	0.068768755
142	0xbe1d19eb	-0.15341918
143	0xbe768a51	-0.24076201
144	0xbde17c5e	-0.11010049
145	0xbf680b11	-0.90641886
146	0xbedb4bc5	-0.42831245
147	0xbf17dda8	-0.59322596
148	0x3ca51468	0.020151332
149	0xbe2d4783	-0.16921811
150	0xbdc136d2	-0.09434284
151	0x3eb2791c	0.34858024
152	0x3cbaa792	0.022784982
153	0xbdf464c5	-0.11933283
154	0x3e03d467	0.12873994
155	0x3a1a3ed0	0.00058839936
156	0xbeea9ffb	-0.4582518
157	0x3d2506d5	0.04028972
158	0x3e8df7ad	0.27728024
159	0x3d2c4bd5	0.042064507
160	0xbeb8772c	-0.3602842
161	0xbe832af5	-0.2561871
162	0xbebb27bb	-0.3655375
163	0xbdebc008	-0.115112364
164	0x3deba7a0	0.11506581
165	0x3db51112	0.088411465
166	0xbe34614a	-0.17615238
167	0x3dd59163	0.10428121
168	0xbe5a8287	-0.21338855
169	0x3d4364bb	0.047703486
170	0xbc8ea09a	-0.017410565
171	0xbc7aa6b7	-0.015298537
172	0x3c2eab62	0.010660978
173	0xbe6168a8	-0.2201258
174	0xbd9a0407	-0.075202994
175	0x3e0d92c3	0.13825516
176	0x3e877bc7	0.26461622
177	0xbd9df71f	-0.0771315
178	0xbf686318	-0.90776205
179	0xbde558ba	-0.11198564
180	0xbf06009d	-0.52344686
181	0x3dd38fae	0.10330139
182	0xbdd26eb6	-0.10275023
183	0xbdb4087b	-0.0879068
184	0xbea57ab1	-0.3232017
185	0xbd9bd753	-0.07609429
186	0xb9735e9f	-0.00023209535
187	0x3f122690	0.5709009
188	0x3d8ecfd7	0.06973236
189	0xbea09314	-0.31362212
190	0xbe884139	-0.2661226
191	0xbedb9a33	-0.42891082
192	0x3ea4ffb6	0.32226342
193	0xbd54e0b8	-0.05197212
194	0xbdd4c2f3	-0.10388746
195	0xbcb7790d	-0.022396589
196	0x3c94ee2c	0.018179975
197	0xbd30a263	-0.043123614
198	0x3de4aa5d	0.11165307
199	0x3e586fec	0.21136445
200	0x40400c12	3.0007367
201	0xbe545daa	-0.20738855
202	0xbe00f242	-0.12592414
203	0xbe6dcbbd	-0.23222251
204	0x3edc85fd	0.43070975
205	0x3f550c41	0.8322182
206	0x3e89c68f	0.269093
207	0xbd447a33	-0.0479681
208	0x3df58d32	0.119898215
209	0x3effc95e	0.49958318
210	0xbee495df	-0.44645593
211	0xc01f530d	-2.489444
212	0xbd83ea0b	-0.064411245
213	0xbed23947	-0.41059324
214	0xbe8cc43f	-0.27493474
215	0xbf5cd4c6	-0.86262167
216	0xbf1ba1c9	-0.6079374
217	0xbe82ff9f	-0.25585648
218	0xbe0981bf	-0.134284
219	0x3dc64654	0.09681383
220	0xbdc5d5a9	-0.09659893
221	0x3e17a33b	0.14808361
222	0x3cd6117b	0.026131382
223	0xbe28ec66	-0.16496429
224	0xbe35a20e	-0.177376
225	0x3da945e8	0.08265287
226	0x3d47b554	0.048756912
227	0xbd13dfa5	-0.036101956
228	0xbc1c15f7	-0.009526721
229	0x3bb9929f	0.0056632305
230	0x3d589cc8	0.052883893
231	0x3f9b4df5	1.2133166
232	0x3f4bf73c	0.79674125
233	0xbf97ca17	-1.1858548
234	0xbf6032b8	-0.8757739
235	0xbfad8ccf	-1.3558596
236	0xbe9905a4	-0.29887116
237	0x3efb18c3	0.4904233
238	0x3de1cff6	0.110259935
239	0xbaae89b5	-0.0013316186
240	0x3d9d2200	0.076725006
241	0x3cec3773	0.028835034
242	0x3f1550f7	0.5832667
243	0xbedceb64	-0.4314834
244	0xc0143527	-2.3157442
245	0xbe943da8	-0.2895329
246	0xbedf0f10	-0.4356618
247	0xbe779eb1	-0.2418163
248	0xbf454aec	-0.77067447
249	0xbf0d591a	-0.55214083
250	0xbe70134b	-0.2344486
251	0x3d49d912	0.04927928
252	0x3d3ecb67	0.0465807
253	0xbdbd9887	-0.09257608
254	0xbeb9582d	-0.36200085
255	0xbf985fec	-1.1904273

fc1.bias f4 [100]
0	0x3ef8a30d	0.48561898
1	0xbf049f07	-0.51805156
2	0x3ebf6059	0.37378195
3	0xbe01b0fb	-0.12665169
4	0xbe83f606	-0.25773638
5	0xbe4b2902	-0.19839862
6	0x3d3059c7	0.04305437
7	0xbda760cc	-0.081727594
8	0xbe8d598e	-0.27607387
9	0xbeb3dcac	-0.35129297
10	0x3e66dbdf	0.22544812
11	0xbd39797c	-0.045281872
12	0xbe0fc0d1	-0.14038397
13	0x3cc586a2	0.02411205
14	0x3dcf8bf1	0.101341136
15	0xbebb595e	-0.3659162
16	0xbeb0441f	-0.34426972
17	0xbef1009f	-0.47070786
18	0xbee5b494	-0.44864333
19	0xbeea343e	-0.45742983
20	0xbe936b2d	-0.28792706
21	0xbf1f3ad6	-0.6219915
22	0xbe7e2961	-0.24820472
23	0xbe8951cb	-0.26820216
24	0xbec7673f	-0.38945958
25	0xbe8a0d0d	-0.26963082
26	0xbe1baa00	-0.15201569
27	0xbe7fb7b0	-0.24972415
28	0xbe26d47a	-0.16291991
29	0xbf143307	-0.5789036
30	0xbc845857	-0.016155405
31	0x3df93127	0.12167578
32	0x3dc57f00	0.09643364
33	0xbf1691ae	-0.5881604
34	0x3e40498a	0.18778053
35	0xbd184f2f	-0.03718489
36	0x3cf355c5	0.029703984
37	0x3e4fa663	0.20278315
38	0xbf10b216	-0.5652174
39	0xbea9717d	-0.33094397
40	0xbf0f8e55	-0.56076556
41	0x3e8b37c5	0.27190986
42	0xbe9e7858	-0.3095119
43	0xbe8b3ab0	-0.27193213
44	0xbe444561	-0.19167091
45	0xbebd04af	-0.36917636
46	0xbe4eca0d	-0.20194264
47	0x3eae67a5	0.3406345
48	0x3e96bbcd	0.29440156
49	0x3ebaa002	0.364502
50	0xbe89da15	-0.26924196
51	0xbe3a2da5	-0.18181475
52	0xbda19bb6	-0.07891028
53	0xbf102121	-0.5630055
54	0xbeb44b6d	-0.35213795
55	0xbea10ce2	-0.3145514
56	0xbef9f188	-0.48817086
57	0xbf13b0ed	-0.5769184
58	0xbe052fc9	-0.1300651
59	0xbf5d6a54	-0.8649037
60	0xbef88a58	-0.48543048
61	0xbe9a73b1	-0.3016639
62	0xbe3d6996	-0.18497309
63	0xbe050f2b	-0.12994067
64	0xbe1286ff	-0.1430931
65	0xbe0b68bc	-0.13614172
66	0x3e8907cc	0.2676376
67	0x3cbeafa7	0.023277117
68	0xbe5e9703	-0.21737294
69	0xbeb73bce	-0.35787815
70	0xbe166413	-0.14686613
71	0x3d1ae20a	0.037813224
72	0xbe9a6f25	-0.30162922
73	0xbd2effbe	-0.042724364
74	0xbe9a09d1	-0.30085614
75	0x3ead1711	0.3380666
76	0xbe5da080	-0.21643257
77	0xbd553655	-0.05205377
78	0x3cb95490	0.02262333
79	0xbec978eb	-0.39350066
80	0xbed090c3	-0.40735444
81	0x3dfd477d	0.12367151
82	0xbcf42efe	-0.029807564
83	0x3e0d7f10	0.13818002
84	0xbea4450e	-0.32083935
85	0xbe05e8ae	-0.13077042
86	0xbeddcc54	-0.43319952
87	0x3e35e105	0.1776162
88	0xbec71bd3	-0.38888416
89	0xbddd2b06	-0.10799222
90	0xbe1993e0	-0.14997816
91	0xbe80bd54	-0.25144446
92	0x3d805176	0.062655374
93	0xbe96078f	-0.29302642
94	0xbea80018	-0.32812572
95	0xbea7ced7	-0.32774994
96	0xbe9a10e0	-0.30091
97	0xbad76f53	-0.0016436375
98	0x3e0fbc08	0.14036572
99	0x3edb8db1	0.4288154

out.weight f4 [1, 100]
0	0x3ea5c816	0.32379216
1	0xbf939739	-1.1530524
2	0xbe28466e	-0.16433117
3	0xbe10e5a6	-0.14150104
4	0x3caa1c5c	0.020765476
5	0xbdb799ac	-0.089648575
6	0xbc84a18f	-0.016190318
7	0x3ec14169	0.37745216
8	0x3c2745cd	0.010209513
9	0xbf38c5c1	-0.7217675
10	0x3e07bfde	0.13256785
11	0xbdb6dc18	-0.08928698
12	0xbdabf9fb	-0.08397289
13	0xbe379996	-0.17929682
14	0xbc31ff62	-0.010864111
15	0x3d03905f	0.032120105
16	0xbe11018f	-0.14160751
17	0xbc017d00	-0.0079033375
18	0xbf097a23	-0.5370199
19	0xbf81f415	-1.0152613
20	0x3c061671	0.008184061
21	0xbebb2114	-0.36548674
22	0xbf7ba179	-0.9829326
23	0xbe6b3221	-0.22968341
24	0x3d3d8fef	0.046279844
25	0xbe658975	-0.22415717
26	0x3d506776	0.050879918
27	0xbe8984fa	-0.26859266
28	0xbf4726d8	-0.77793646
29	0x3df9d31b	0.12198468
30	0xbc881248	-0.01661028
31	0xbd7e752f	-0.062123474
32	0xbdd32119	-0.10309047
33	0xbe8239b1	-0.2543464
34	0xbe0401d1	-0.12891318
35	0xbc7108e3	-0.014711591
36	0x3dd35fef	0.10321032
37	0xbc677c95	-0.014128824
38	0xbee94b4d	-0.45565262
39	0x3caedc4c	0.02134528
40	0xbc2b72fd	-0.010464427
41	0x3e6911c9	0.22760691
42	0xbd0af57b	-0.033925515
43	0xbdff4dec	-0.12466034
44	0x38ba0c0d	8.871416e-05
45	0xbd0ea794	-0.034827784
46	0xbd8b2e07	-0.067958884
47	0x3e6ba9f3	0.23014049
48	0x3bed6073	0.0072441637
49	0xbeaa9848	-0.33319306
50	0xbee2d6f2	-0.44304615
51	0xbd66662d	-0.056249786
52	0xbc5ed362	-0.013600202
53	0xbe04c5d5	-0.12966092
54	0x3c366b45	0.0111339735
55	0xbd66747f	-0.056263443
56	0x3de09319	0.10965557
57	0x3c1e767e	0.009671805
58	0xbdb709bf	-0.08937406
59	0xbe3cc2fd	-0.18433757
60	0xbd89f56b	-0.06736263
61	0xbd2d49c7	-0.042306688
62	0xbc65145a	-0.013981903
63	0xbc5a60cf	-0.013328745
64	0xbe095e91	-0.1341498
65	0x3c91e993	0.017811572
66	0xbcc95536	-0.024576765
67	0x3d10e83f	0.035377737
68	0x3b9b84ea	0.004746069
69	0x3cf0f0b9	0.02941166
70	0x3d92a7af	0.07160889
71	0xbe0a9df1	-0.13536812
72	0xbe318a81	-0.17337991
73	0xbd542a0d	-0.051797915
74	0xbcd1523f	-0.025551913
75	0xbf75f838	-0.96081877
76	0xbdc5498f	-0.09633171
77	0xbd3477c1	-0.04405952
78	0x3c83da8b	0.01609542
79	0xbd8d75b0	-0.06907213
80	0xbdfc32a0	-0.123143435
81	0xbd8ddc0f	-0.069267385
82	0xbda1a3bf	-0.0789256
83	0xbd5b2fc2	-0.053512342
84	0xbd8cd721	-0.0687697
85	0xbe0b2256	-0.13587317
86	0xbe144576	-0.14479622
87	0xbe0591e7	-0.13043939
88	0x3e0f9b17	0.14024006
89	0x3ce5c55b	0.028048208
90	0xbc54a76b	-0.012979369
91	0xbb897666	-0.0041950224
92	0xbcdb99a5	-0.026806662
93	0xbe02e958	-0.12784326
94	0xbe8f56a3	-0.27995786
95	0xbdf20ed1	-0.11819232
96	0xbccf8a7a	-0.025334585
97	0x3e2867ad	0.16445799
98	0x3da0fb5d	0.07860444
99	0x3deda80f	0.1160432
