models/HalfCheetah-v2/MaxDisSample/Dagger_725.pth (torch, 11167 bytes, 4 tensors)

fc1.weight f4 [100, 17]
00000000: 3608 bbbd bfe4 8abe 56b8 5f3e 3abe 88bd
00000010: ef5d 863d 4615 7c3e bede 19bd a965 07bc
00000020: 5996 28be 54a7 033e 73ba 81bd 055e adbd
00000030: 3df6 233e 18e9 ae3c 495f 1f3e 858c 9f3d
00000040: ddbd 243e 081f 3ebf 21d8 303f f8e6 92be
00000050: f773 343d cc15 3a3d 2a95 cc3c b232 6a3e
00000060: d575 debd b7ec 183e 12f2 5cbe 5333 2f3e
00000070: 53df 35bd b161 5d3d b44a efbd 2366 363e
00000080: 4d6f 76bd 8c1e 973d 10c8 073f 0537 54bf
00000090: 70e3 b33e 4d76 35bd 8123 e13d cdc6 6e3e
000000a0: 1b6a 03be 60f7 96bc 1162 27be cc54 5b3e
000000b0: 1705 753c 63db 06be 48fb 85bc c603 92bd
000000c0: 1672 753d a604 37bc b04d 6bbc 4c35 c53d
000000d0: 0421 89be 5acc bd3e de02 7d3e cbb5 56bd
000000e0: 5098 dcbd 5e67 00bd 98ff 083e 989f 1cbe
000000f0: a6f6 c33d 1a72 94be 3f01 373c 64ff e73d
00000100: 123f 083d d5dc 76bd d383 a23d 9ec4 e73d
00000110: cd4a 23be 8ba1 5e3e a6d0 23be 8818 183e
00000120: 005b 28be 2040 e4bd c8a7 873d 6d71 4dbd
00000130: c0e5 003e 86ed 5dbe fd91 0f3e f22f 463e
00000140: 03f5 30bc 3dc6 be3d 49f3 603d 1941 ddbd
00000150: 7007 563d b237 aabe 87b6 a73e 6c74 07be
00000160: 7768 333e 542a 813d 66dd b5bd 004d 1e3e
00000170: c0ea 0c3e 1117 56be 9763 2fbe d6a5 42bc
00000180: b976 2f3c 73f8 84bd 173b a8bc 3d30 683e
00000190: b2c7 02be c5cb 313c 9b80 803d 22aa 813e
000001a0: a547 72bd fda3 843d 59ae 52bd 16e9 95bd
000001b0: 9978 87bd e8de 45be acbf b13d 1faf 86bd
000001c0: 1ea4 9b3e d4a5 b1bd bde6 ca3d b2f3 fc3d
000001d0: 03db bb3d 0f21 00be 871d aebd 59c4 25bc
000001e0: 8f66 d6bd 7922 c8bd 7864 e6bd 0ff6 2a3d
000001f0: 5f6e f0bd 4668 533c 6964 39bd 9da9 ebbd
00000200: e112 383e 8efa 4b3b 2436 aebd ecae fdbd
00000210: 12fd 243e a58b 833d 5bd0 1c3e 1a3e da3d
00000220: 7eab e23c e08e 6bbe 8b8a c73d 38a5 333e
00000230: 906f 9c3d 3783 243e 7bb3 94bd e2ac e13c
00000240: 5519 7dbc 7fc9 443e ea56 ab3d ed41 1fbd
00000250: d73b bc3d d99e 8e3c 1fd3 debb a8ae 82bd
00000260: 7601 e03d 0071 5b3e b0cc 60bf 7048 bd3e
00000270: 121c b8bc 71c5 9bbe 694b 74bd c364 22be
00000280: 48f7 12be dd67 0fbf 354e ad3e 5b76 8bbe
00000290: eef9 a6bc c324 d7bc 0b41 a6bd 57d8 4bbe
000002a0: 7967 04be f190 263d 4c8d 3d3f 61cd 3cbf
000002b0: 82ca 723e 6173 08be 6a8b 1dbe a21e d53d
000002c0: 2a57 83be be7f babb d66f 2e3d 8c92 b13d
000002d0: 13df 97bd 4fcb 89bb 88d2 a43d 356e 10bd
000002e0: 4351 0cbe 3dcd e9bd a181 903d d836 973d
000002f0: 25bf 63be b783 6c3e 4e5f 40bc 6cff efbd
00000300: e671 003b 1bf2 13be fb54 34bc 9c14 563e
00000310: f57f 153c c33e fd3b 1a85 b1bd 118b cd3d
00000320: 6060 2d3d ac7c e2bd 9563 b5bd 7ac6 c5bc
00000330: 00fd 9d3e 37ba 36bf 5f82 9a3d 5a14 963d
00000340: 4db5 ed3d fdde 67be b415 8dbe 1b6a 98bd
00000350: 425e e1bd 4d6d 3c3e 5aa9 f1bd 7b50 4f3d
00000360: add1 84bb 5787 debd dd37 44bd eef8 333e
00000370: b1ad c93d 740e 9abc 92f6 10bf 251b 7a3e
00000380: e0c0 63be 70ff 963b baa6 64bd 626a 823d
00000390: 246d 133e d5b5 a0be 5e34 78bc df67 8cbd
000003a0: c0f7 cf3d d9c8 72bd 112b 9c3c a245 253e
000003b0: 681c 363c 2ef3 0ebe 9cac 37be 2b74 033f
000003c0: a3a2 1ebe 5d94 9b3c f234 5e3e fdba 083d
000003d0: b2c1 ce3d ced2 1e3e bebf 643e 97fb 9b3c
000003e0: 3fb4 743e 0347 97bd 5b6a 483e 2995 10be
000003f0: ab92 913d 2a7f 993c 92a4 9f3d a715 1bbe
-0.091324255 -0.27127644 0.21847662 -0.06676908 0.06560885 0.2461749 -0.03756594 -0.008263984
-0.16463603 0.128568 -0.063343905 -0.084651984 0.16011901 0.021351382 0.15563692 0.07790474
0.16088052 -0.742661 0.69079787 -0.2869184 0.044055905 0.045430943 0.02497347 0.22870901
-0.108623184 0.1493405 -0.21576717 0.17109422 -0.04440243 0.054048244 -0.1168417 0.178124
-0.06016474 0.07378873 0.53039646 -0.82896453 0.3513446 -0.044302274 0.109931 0.23318024
-0.12833445 -0.018428504 -0.16346003 0.21419066 0.014954827 -0.13169627 -0.016355172 -0.07129626
0.059923254 -0.011170542 -0.014361784 0.09629306 -0.26783 0.3706997 0.24708125 -0.052419465
-0.10771239 -0.03134858 0.13378751 -0.15295255 0.09568529 -0.28993303 0.011169731 0.11328009
0.033263274 -0.060269196 0.079353 0.113167986 -0.15946503 0.21741311 -0.15997562 0.14853108
-0.16440964 -0.111450434 0.066237986 -0.050157 0.12587643 -0.21672639 0.14020534 0.19354227
-0.010800603 0.09315155 0.054919515 -0.10803432 0.052253187 -0.33245617 0.32756445 -0.13228005
0.17520319 0.063069016 -0.08880119 0.1545906 0.13761425 -0.20907237 -0.17127834 -0.011880359
0.010709458 -0.064927004 -0.020535989 0.22674651 -0.1277149 0.010851805 0.062745295 0.25325114
-0.059150357 0.06476591 -0.051435802 -0.07319848 -0.06614799 -0.19323313 0.08679137 -0.065763704
0.3039865 -0.08674207 0.09907291 0.12351169 0.091726325 -0.12512611 -0.08501726 -0.010117614
-0.1046878 -0.097722 -0.11249632 0.041738566 -0.117398016 0.012903279 -0.045261774 -0.115069605
0.17975952 0.0031124684 -0.0850642 -0.12386879 0.16112164 0.064231195 0.15313856 0.10656376
0.027669664 -0.23003721 0.09743222 0.17543495 0.07638466 0.1606568 -0.07260796 0.027548257
-0.015447934 0.1921749 0.08366187 -0.03888123 0.09191101 0.017409729 -0.00680007 -0.06380969
0.10937779 0.21429825 -0.8781233 0.36969328 -0.022474322 -0.30424073 -0.05964223 -0.1585875
-0.14352143 -0.5601786 0.3384873 -0.27238736 -0.020382848 -0.026262647 -0.08117875 -0.19906746
-0.12930097 0.04066557 0.74043727 -0.73750883 0.23710063 -0.13325264 -0.15385213 0.10406233
-0.25652438 -0.0056914976 0.042587124 0.0867053 -0.07415595 -0.0042051445 0.08047968 -0.03526135
-0.13702874 -0.11416099 0.07055975 0.073835075 -0.22240885 0.2309712 -0.011741472 -0.1171864
0.0019599139 -0.14447825 -0.011006589 0.209063 0.009124746 0.007728429 -0.08667965 0.100362904
0.04232824 -0.110589355 -0.088568844 -0.024142493 0.30857086 -0.7137789 0.075443976 0.073281005
0.11606846 -0.22643657 -0.2755562 -0.07442113 -0.110043064 0.1840107 -0.11799879 0.05061386
-0.0040533156 -0.10865658 -0.047904838 0.17575428 0.09847582 -0.01880572 -0.56626236 0.24424417
-0.22241545 0.0046080872 -0.055823065 0.06367947 0.14397103 -0.31388727 -0.015149204 -0.06855749
0.101546764 -0.059273575 0.019063504 0.16139844 0.011115171 -0.13959953 -0.17936939 0.51349133
-0.15491728 0.018991644 0.21699885 0.03338145 0.10095538 0.15510103 0.22338769 0.019040866
0.23896883 -0.07386591 0.19571821 -0.141194 0.07108053 0.018737394 0.07795061 -0.15144978

fc1.bias f4 [100]
00000000: 819a e23e 28a6 61be 76b0 a1bc 5e30 1abe
00000010: 6359 ddbd fa1f 443e 2965 283e a35c c4bd
00000020: b52a 8a3c f0a3 d73e 32c6 2ebe 68a0 8c3b
00000030: 4ec4 c03e 1aaa c0bc 393d d53d fdc9 c83d
00000040: 5bf9 e7bd 75f7 8abc 3d4f 4d3d e830 8c3d
00000050: 6224 8a3e 25af 0c3e 0afa 50bd bf43 03be
00000060: e8a2 c8bd 9208 24be a768 24be 226f babc
00000070: 8ad5 233f 7a77 89bd a438 083e a79a 8e3e
00000080: 33a0 1bbe 1d80 44bd 8727 c03e f460 b43e
00000090: dec8 a73e 319c bf3e 6f8f d03e 8a20 1c3e
000000a0: 9203 5a3e db34 a7bd 3fc0 0c3f 473f 923e
000000b0: 5cd2 6a3f d6cd d53e 161f 343f 8125 8d3d
000000c0: 97ab d63d ec57 ec3d 41c9 553e 4291 8b3e
000000d0: b959 2dbe 3d8b a03d ba1e 833e b041 b0bd
000000e0: ce5c fa3d 29fa 283d f1d5 11be 1c48 4dbe
000000f0: baf8 0c3e 7e25 49be 7aa9 99bd 11bb b23e
00000100: 6170 483b 1165 14be f329 363e 29b7 5c3e
00000110: ec09 833e b443 83be 24b8 10bd 5bf4 243e
00000120: a189 1e3e e930 d33d 373f b73e 9373 e538
00000130: aa00 fdb9 1e67 aabd 13be 81be 0e9f 823e
00000140: 97cf 4fbd 003f b6bd 3718 1bbe 8d7f 98bd
00000150: 89ac 87bc 9f9e e1bd c512 2bbe e4bb 81be
00000160: ea75 943e 7754 be3e 439d 96bd 2cd8 1cbd
00000170: abe7 60be f18b 873d 4385 513e 866b ab3e
00000180: b95c 30be 3f35 ad3e d510 f9bd 94fa 8d3e
0.44258502 -0.2203604 -0.019737463 -0.15057513 -0.10808065 0.19152823 0.1644484 -0.095879816
0.016866067 0.42117262 -0.17067793 0.004291583 0.3764977 -0.02351861 0.10412068 0.09804151
-0.11326858 -0.0169637 0.050124396 0.068452656 0.26980883 0.13738687 -0.051019706 -0.12818812
-0.09796697 -0.16018894 -0.16055547 -0.02275807 0.6399771 -0.067122415 0.13302857 0.27852365
-0.1519783 -0.04797374 0.37530157 0.3523022 0.32770437 0.37423852 0.4073443 0.15246788
0.21290424 -0.08164378 0.54980844 0.28563902 0.9172723 0.41758603 0.70359933 0.06891919
0.10481947 0.11540207 0.20877554 0.2725926 -0.16928758 0.078390576 0.2560938 -0.08606279
0.12224732 0.041254196 -0.14241768 -0.20047039 0.13766757 -0.19643208 -0.07503028 0.34908345
0.0030584561 -0.14491679 0.1778944 0.21554245 0.25593507 -0.2563759 -0.03533186 0.16108839
0.15482189 0.10312063 0.35790417 0.00010941098 -0.00048256415 -0.08320449 -0.25340328 0.25511974
-0.050735082 -0.08898735 -0.15145956 -0.074462034 -0.016561763 -0.11016583 -0.16706379 -0.25338662
0.2899621 0.37173817 -0.07354214 -0.038292095 -0.21963374 0.066184886 0.20460992 0.3348047
-0.17222871 0.33829686 -0.121614136 0.27730238

out.weight f4 [6, 100]
00000000: 1c8b 983e a51c f43d 71c3 a53c 3b67 803e
00000010: ffc5 fb3d f0dd c9bd 9268 c93d d036 49be
00000020: cacb acba d41e 943e 89cd ba3d 93f6 053e
00000030: 2549 54bd c658 a43e b1a1 ca3d 054c 3e3d
00000040: 6a74 723c 7a79 f2bd 5524 3c3d fa93 11bd
00000050: c8f1 1e3d 4de8 5fbc 070b 673d 7336 993c
00000060: 1a3f 95bc 4bb6 8b3d 973a 9fbd d426 903d
00000070: 2272 e83d 94a9 0abe 50b0 d33d 63c6 cd3d
00000080: f0b0 363d 0820 373d c67e c43c f245 bf3d
00000090: d58a d63d 02b1 b0bd b8e1 543e 7c63 a33c
000000a0: fd14 663e 3a10 5ebc 2533 393e 555c 3f3d
000000b0: 6325 0f3f 5a29 8d3e 5c85 4d3d 0519 bc3b
000000c0: 00c2 343d 137b 993d ad13 fe3d ec53 7d3d
000000d0: 693d 8ebd fb69 0d3e 826b f73c 0b54 45bd
000000e0: 261c 753e ca88 183e 70f5 0a3d 4345 aebd
000000f0: 1018 073e 80ab 923d 0bbe ff3d 2d05 963e
00000100: a241 fbbc 5a1a 3cbe 7166 2abe f2db 523c
00000110: 7d05 dbbb 3d53 35be 6801 df3d 4853 4a3d
00000120: 52dc a83d a83d 483d 5ec2 353e bb89 83bd
00000130: 29ec fabd 133d b43d eeb3 c5bc c6a8 a6bd
00000140: dca0 253d 81eb ed3c 5070 093e fe50 1a3d
00000150: d631 bcbd 5972 463e 62c2 da3c c730 fa3c
00000160: 4980 263e 819d 6d3e 5a7a 053e ea24 c8bd
00000170: 47db f73c 2ce0 013e f186 593e efd4 213e
00000180: 1e2a 40bd c5c8 413e 6e3f d13d b9ad 2dbd
00000190: 1695 e0bd 7fd7 9bbc ac08 77bd 520d f9bd
000001a0: 117a d4bd 5d64 debd d884 733c c279 34bd
000001b0: b6f4 f43d 7339 03be 3068 49bd 5b83 de3d
000001c0: 4283 e33c 8f92 d53b 154a eebd 6eec 653e
000001d0: 39d9 8a3d c7de 2ebd 9851 d23c 6768 d53d
000001e0: 3e6c 4c3c 14c5 693d 97ac 3dbe 5427 00be
000001f0: 88f6 92bb 18c5 13be 30aa 3ebe 8de4 c83d
00000200: 5292 c0be 7fd3 713d 1e9f 65bd ed6e 34bd
00000210: 274a 88be 2c16 dbbd 26ae d0bd 2eab 01bd
00000220: 399e 10be afa5 f1bd d173 99be 7ffc 0fbc
00000230: 36b3 b7bd ccef 98bd 1bc2 29bf 204b 093c
00000240: fb89 71bc a658 11bf da23 0abf 6b83 74bc
00000250: cc2c 56bc 2cfc 563d 4d3e 463d 4e01 a83c
00000260: 3da4 fe3c a966 33be 3ea0 46be 79c1 4ebe
00000270: 766e 603d 5ee4 93be 071b 4dbd 5ffe ad3b
00000280: 59ac 9abe 8b9f 04bd f414 493e f556 52be
00000290: 3678 693e 83ab e53d 0d98 d83c 4f20 95bc
000002a0: 1cfa 3c3d 3d3a e43d 9cc7 353e 07e9 2fbd
000002b0: e242 08be 3a96 b73c 054a 14bd c62c 8fbe
000002c0: fc0c 333d 4d3f 583c 0e3a a33d e2f6 93bd
000002d0: fb6c 173e e423 ad3d 606b a9bd c883 b4bc
000002e0: 11b4 4a3e 2098 c3bc 438e c6bc 019b 5ebd
000002f0: 18a2 94bd 0676 29be 00a5 dfbd 4235 0dbe
00000300: b8ab 35be c518 19bc b480 a0bd a690 bcbd
00000310: 48fb 02be baaa 773b 0c8e af3c 1b91 53bc
00000320: 38a0 c33d 69d7 03be f9c3 e33d 5e02 c73b
00000330: 7576 42be 8d01 a8bc 1115 17be c34c 2b3e
00000340: e2d9 3a3b 5fee 023f 26b3 b1bc 15eb 7e3c
00000350: 0b35 0a3e df74 a33e bc60 fcbd c2bf 2c3e
00000360: dad6 db3d f2a4 e63c 11e7 edbd 66c6 3c3d
00000370: 26b7 eebd b7d6 8e3d 926b 21bd 8eec a0bc
00000380: 37be 1ebe bbb7 9d3d d140 09bd f021 2ebd
00000390: 87bd cd3e 69ce 80bc 9f8c 08be 9af3 00bc
000003a0: 1932 723d 3412 94bd 4d24 8a3d 772a b03d
000003b0: 8c6f 6ebe 7e5c 623e 8203 bb3e ce54 b8bd
000003c0: ade9 823c 8caf ef3a d4f3 f33e 22fd d0bd
000003d0: a980 193f 3250 1a3e b53d 1b3f e7b1 14be
000003e0: 4cda 963e b7c3 23be 62e5 e3bd 26ca 093e
000003f0: 9164 99bd 3b4b e9bd 6954 123e b936 08be
0.29793632 0.11919526 0.020234795 0.2507876 0.12293624 -0.09856784 0.09834398 -0.19649816
-0.0013183292 0.2892977 0.09121234 0.13082342 -0.05182757 0.3209898 0.098941214 0.046459217
0.014798263 -0.11839576 0.045933086 -0.035541512 0.0388048 -0.013666225 0.056407 0.018702721
-0.018218566 0.06821879 -0.07774847 0.07038656 0.11349894 -0.13541251 0.10336363 0.10047605
0.044602334 0.04470828 0.023986232 0.09339513 0.10475699 -0.086275116 0.2078923 0.019944899
0.22468944 -0.013553673 0.18085916 0.046718914 0.5591642 0.2757061 0.05017601 0.0057402872
0.044130325 0.07494178 0.124060966 0.061847612 -0.06945307 0.1380996 0.03020263 -0.048175853
0.23936519 0.14895931 0.033925474 -0.085093044 0.13192773 0.07161617 0.1248742 0.29300824
-0.030670945 -0.18369427 -0.16640641 0.012869822 -0.006684004 -0.17707534 0.1088894 0.04939583
0.08245148 0.048886925 0.17749926 -0.064227544 -0.12252075 0.088007115 -0.024133649 -0.0813766
0.04043661 0.029042961 0.1342175 0.037674896 -0.09189193 0.19379558 0.026704017 0.030540837
0.16259874 0.23204614 0.13034955 -0.09772666 0.030255927 0.12683171 0.21242882 0.15803884
-0.046915166 0.18924244 0.102171764 -0.042402003 -0.10965936 -0.019023655 -0.060311005 -0.12160744
-0.10374845 -0.108589865 0.014863215 -0.04406143 0.119607374 -0.12814884 -0.049171627 0.10864898
0.02777255 0.0065177153 -0.11635224 0.22453472 0.06779713 -0.042692926 0.025673673 0.10420304
0.012476979 0.057072714 -0.18522869 -0.12515002 -0.004484955 -0.14430654 -0.18619609 0.098092176
-0.37611634 0.05903959 -0.05605995 -0.0440511 -0.26619074 -0.10697588 -0.10189466 -0.03165739
-0.14122857 -0.1179918 -0.29971173 -0.008788227 -0.08969729 -0.074676126 -0.66311806 0.008379728
-0.01474237 -0.5677589 -0.53960955 -0.014923911 -0.013072204 0.052486584 0.04839926 0.020508435
0.031084174 -0.1751963 -0.19397065 -0.20190991 0.054792844 -0.28885168 -0.050074603 0.0053098644
-0.30209616 -0.032378715 0.19636899 -0.20540984 0.22799763 0.11214354 0.026439691 -0.018203883
0.04613696 0.111439206 0.17751926 -0.04294684 -0.13306764 0.0224105 -0.036203403 -0.27963847
0.043713555 0.013198686 0.079700574 -0.072248235 0.14787666 0.08454111 -0.08272433 -0.022035494
0.19795252 -0.02387625 -0.024237758 -0.054347042 -0.072574794 -0.16548929 -0.10920143 -0.13789847
-0.17741287 -0.009344284 -0.07837048 -0.09207277 -0.12791169 0.003779097 0.021430038 -0.012913014
0.09552044 -0.12875141 0.11121363 0.0060732802 -0.189905 -0.020508552 -0.1475413 0.16728501
0.0028511216 0.51144975 -0.02169187 0.015558978 0.13496797 0.31925103 -0.12323138 0.16870025
0.10734339 0.028154824 -0.11616338 0.046087645 -0.116560265 0.06974547 -0.039409228 -0.019644048
-0.15502249 0.077010594 -0.03350908 -0.042512834 0.4018366 -0.015723424 -0.13334893 -0.007870579
0.059129808 -0.072300345 0.06745205 0.086018495 -0.2328474 0.22105595 0.36526114 -0.0900055
0.015980566 0.001828657 0.47646964 -0.10204531 0.59961945 0.15069655 0.6064103 -0.1452099
0.29463422 -0.15992628 -0.11127736 0.1345602 -0.07489885 -0.11391302 0.14290012 -0.13302125

out.bias f4 [6]
00000000: 40a0 0d3e 259e 10bd c23c 403c 35c9 873e
00000010: ea00 f43c 50fe ce3d
0.13830662 -0.03530707 0.011733236 0.26520696 0.029785592 0.101071
