models/HalfCheetah-v2/MaxDisSample/Dagger_390.pth (torch, 11167 bytes, 4 tensors)

fc1.weight f4 [100, 17]
-0.111377135 -0.18979548 0.12283326 -0.017121835 0.0721705 0.16359909 -0.04006172 -0.04965272
-0.16411169 0.11442421 -0.031133885 -0.08843791 0.15998697 0.0459457 0.15047517 0.09442298
0.16526002 -0.5778008 0.48746988 -0.17355263 0.0038611568 0.080844626 0.08177208 0.14065908
-0.08445607 0.23540322 -0.15814377 0.14510491 -0.034541275 0.050637096 -0.12385613 0.18465982
-0.057872377 0.07375362 0.28048712 -0.49791855 0.25417778 -0.030470945 0.0765509 0.18528537
0.028139833 -0.023381995 -0.21153119 0.14601634 0.045347746 -0.12861626 -0.022592178 -0.0689717
0.056799497 -0.010743358 -0.025347952 0.076946914 -0.24688497 0.32519284 0.26942274 -0.026775641
-0.12646809 -0.008055055 0.11426832 -0.1438889 0.05817474 -0.26164722 -0.011340325 0.116320305
0.044011723 -0.059657723 0.05867228 0.1309375 -0.050443962 0.029665768 -0.10827836 0.13423674
-0.11561937 -0.07416484 0.0022683248 -0.059346087 0.09905799 -0.10824758 0.07041141 0.14130078
-0.06649621 0.10126717 0.061481256 -0.10564782 0.06289634 -0.20196167 0.1689606 -0.04154586
0.15584688 0.11984675 -0.039254088 0.05121194 0.14201665 -0.102989666 -0.112758 -0.059874874
0.0029338961 -0.05890324 -0.023578359 0.26670218 -0.15122268 0.016357852 0.088350564 0.13601202
-0.027584048 0.052506175 -0.044379838 -0.02341561 -0.120616466 -0.18749806 0.08595419 -0.029617058
0.25775993 -0.083156645 0.09493572 0.12685348 0.095603146 -0.12828495 -0.0711394 -0.008698614
-0.09842689 -0.086221024 -0.118377365 0.0433393 -0.11113023 0.05180379 -0.035249554 -0.10841434
0.15783386 0.02831648 -0.07938198 -0.128522 0.1616673 0.06779991 0.15282515 0.10016315
-0.041275337 -0.09923486 0.025790717 0.1848736 0.06476815 0.11529395 -0.01577458 0.016000124
-0.02988921 0.18534552 0.08074763 -0.037650127 0.09738619 0.035822686 -0.009246121 -0.056634516
0.095613934 0.048896443 -0.6603914 0.27618003 0.016550949 -0.30390245 -0.11037911 -0.08583214
-0.16888827 -0.5630432 0.28411546 -0.2612884 -0.012251416 -0.024825092 -0.078110546 -0.18607426
-0.13862894 0.02026449 0.5327682 -0.5426582 0.1555069 -0.12227984 -0.21667299 0.061863165
-0.124911 -0.0048066066 -0.021130927 0.042916805 -0.06511123 0.031235432 0.06740257 -0.036385342
-0.14319661 -0.09230389 0.06647907 -0.015571726 -0.09018921 0.1528106 -0.00077696284 -0.13330781
-0.04287382 -0.0746585 -0.02528967 0.18138592 0.022684671 -0.02551932 -0.0853863 0.10780955
0.05111936 -0.115463264 -0.079731375 -0.05340976 0.22529575 -0.65517133 0.052331824 0.08932261
0.14989299 -0.23187037 -0.23328456 -0.08095495 -0.081099935 0.14860529 -0.13105251 0.054796323
-0.026276171 -0.11278963 -0.030490402 0.16680428 0.09396777 -0.12123332 -0.32842362 0.17337404
-0.21585049 0.047446676 -0.07726067 0.12080245 0.14684832 -0.24249515 -0.064465076 -0.07321498
0.1408663 -0.009365586 0.0010646906 0.14162362 -0.0081984885 -0.11748409 -0.07378389 0.37865752
-0.08405394 -0.014362892 0.20420359 0.0741682 0.043500293 0.17108165 0.23535375 0.07117097
0.20033456 -0.064073354 0.1919961 -0.14387167 0.090056226 0.022543943 0.08530999 -0.07042467
00000000: b219 e4bd bf59 42be 0190 fb3d 1743 8cbc
00000010: 21ce 933d 8586 273e c217 24bd a760 4bbd
00000020: e50c 28be 3d57 ea3d 7d0c ffbc ef1e b5bd
00000030: a0d3 233e 8f31 3c3d 2a16 1a3e d660 c13d
00000040: ec39 293e c1ea 13bf a795 f93e c8b7 31be
00000050: 760b 7d3b de91 a53d 1f78 a73d ef08 103e
00000060: 4ef7 acbd 8b0d 713e 71f0 21be 6296 143e
00000070: 277b 0dbd d868 4f3d 48a8 fdbd 7717 3d3e
00000080: 960b 6dbd 230c 973d 029c 8f3e 2eef febe
00000090: 9723 823e 349e f9bc b8c6 9c3d 73bb 3d3e
000000a0: 8285 e63c 998b bfbc a29b 58be 4f85 153e
000000b0: 8fbe 393d fbb3 03be 3b13 b9bc 0941 8dbd
000000c0: 97a6 683d e904 30bc 82a6 cfbc 5896 9d3d
000000d0: 6acf 7cbe ad7f a63e c7f1 893e 9758 dbbc
000000e0: da80 01be 59f9 03bc 8205 ea3d 9d57 13be
000000f0: a348 6e3d a0f6 85be c5cc 39bc 5739 ee3d
00000100: a345 343d a85b 74bd 5852 703d 7b14 063e
00000110: 549e 4ebd a005 f33c 0bc1 ddbd 5b75 093e
00000120: d9c9 ecbd bce3 97bd 2da8 143b e214 73bd
00000130: eade ca3d e8b0 ddbd db33 903d 27b1 103e
00000140: 2a2f 88bd 2965 cf3d c5d3 7b3d e25d d8bd
00000150: cccf 803d 0acf 4ebe 0204 2d3e fe2b 2abd
00000160: 5396 1f3e 3672 f53d e5c8 20bd 9cc3 513d
00000170: d06c 113e 3fec d2bd abed e6bd 5b3f 75bd
00000180: 9c46 403b 8644 71bd 6727 c1bc 308d 883e
00000190: 1eda 1abe e700 863c 24f1 b43d bc46 0b3e
000001a0: f1f7 e1bc b710 573d a2c7 35bd 18d2 bfbc
000001b0: c405 f7bd 7eff 3fbe c008 b03d 799f f2bc
000001c0: 1cf9 833e 084e aabd a96d c23d e1e5 013e
000001d0: 95cb c33d 215d 03be 89b1 91bd a284 0ebc
000001e0: 0a94 c9bd a694 b0bd d56f f2bd 8d84 313d
000001f0: 3f98 e3bd 3630 543d d661 10bd 5608 debd
00000200: 339f 213e f6f7 e73c 0593 a2bd 459b 03be
00000210: 1d8c 253e aeda 8a3d 327e 1c3e 5622 cd3d
00000220: 5410 29bd a53b cbbd 0e47 d33c 814f 3d3e
00000230: 2aa5 843d 3c1f ec3d b139 81bc b112 833c
00000240: 37da f4bc 37cb 3d3e 035f a53d 0537 1abd
00000250: 6972 c73d cfba 123d 0b7d 17bc 98f9 67bd
00000260: 3dd1 c33d a347 483d 690f 29bf 7867 8d3e
00000270: db95 873c 1a99 9bbe 710e e2bd c3c8 afbd
00000280: 0cf1 2cbe 9923 10bf 9577 913e 98c7 85be
00000290: 2aba 48bc fe5d cbbc 6cf8 9fbd 408a 3ebe
000002a0: bff4 0dbe b701 a63c 7f63 083f a6eb 0abf
000002b0: 333d 1f3e da6d fabd 86df 5dbe 3b64 7d3d
000002c0: 57d1 ffbd bd80 9dbb c41a adbc 88c9 2f3d
000002d0: 0959 85bd 73e1 ff3c 5c0a 8a3d cc08 15bd
000002e0: 22a2 12be d209 bdbd 2e26 883d 8d20 7fbc
000002f0: 1fb5 b8bd 627a 1c3e 18ad 4bba d881 08be
00000300: 759c 2fbd 8ee6 98bd 482c cfbc 3bbd 393e
00000310: 34d5 b93c e50d d1bc 03df aebd 41cb dc3d
00000320: 8962 513d 0178 ecbd 344a a3bd 31c4 5abd
00000330: eeb3 663e 4fb9 27bf e559 563d c6ee b63d
00000340: 8c7d 193e 6d6f 6dbe 26e2 6ebe b5cb a5bd
00000350: b917 a6bd fc2b 183e a132 06be 1c72 603d
00000360: 2041 d7bc 40fe e6bd 02c7 f9bc bece 2a3e
00000370: 2d72 c03d 2d49 f8bd 2427 a8be f788 313e
00000380: e907 5dbe 7257 423d d83a 9ebd 4667 f73d
00000390: 685f 163e a650 78be 4406 84bd bcf1 95bd
000003a0: 413f 103e 1d72 19bc 178d 8b3a c805 113e
000003b0: f452 06bc 809b f0bd 021c 97bd 66df c13e
000003c0: 7924 acbd 5652 6bbc bf1a 513e 7fe5 973d
000003d0: 5d2d 323d 0730 2f3e 9300 713e 16c2 913d
000003e0: 8124 4d3e e438 83bd a09a 443e 1853 13be
000003f0: 666f b83d 13ae b83c 01b7 ae3d cf3a 90bd

fc1.bias f4 [100]
0.39683816 -0.17068538 -0.054808978 -0.16843215 -0.09802248 0.19114837 0.1768675 -0.096658
0.0036676882 0.3536125 -0.20912571 -0.010497304 0.35187837 -0.048069634 0.11292408 0.09510025
-0.10318436 -0.033148516 0.03750267 0.07847147 0.26678425 0.12458348 -0.017114315 -0.10679541
-0.05724694 -0.17585234 -0.16836075 -0.044043668 0.5543263 -0.10146982 0.12561333 0.2925883
-0.1586371 -0.04419828 0.3792131 0.30193046 0.35297453 0.33728915 0.32117826 0.13536873
0.18918478 -0.079696424 0.47595128 0.2565094 0.80668515 0.4036569 0.63639903 0.05907486
0.03826833 0.114705496 0.23203053 0.23241495 -0.15527996 0.09690208 0.21644634 -0.040761057
0.10347412 -0.034257554 -0.14111303 -0.17216504 0.14196882 -0.19128312 -0.05886285 0.35379893
-0.017367 -0.107761405 0.14458498 0.22336027 0.19970159 -0.24089682 -0.044148047 0.16023031
0.12402062 0.1060946 0.31981605 -0.0149407415 -0.008731473 -0.095589064 -0.21407102 0.24136133
-0.07554198 -0.09815206 -0.114590175 -0.041631334 -0.029658642 -0.121624045 -0.17210287 -0.24113147
0.28046215 0.35471553 -0.087996095 -0.03997472 -0.21674064 0.09336855 0.16953832 0.3221018
-0.14895628 0.31220153 -0.09216407 0.15944612
00000000: 5f2e cb3e 26c8 2ebe 617f 60bd 7a79 2cbe
00000010: 03c0 c8bd 66bc 433e c11c 353e a1f4 c5bd
00000020: 995d 703b b30c b53e 0d25 56be e2fc 2bbc
00000030: 6729 b43e aae4 44bd bd44 e73d ebc3 c23d
00000040: 5252 d3bd bdc6 07bd 669c 193d a6b5 a03d
00000050: f297 883e a025 ff3d 5233 8cbc 8db7 dabd
00000060: c47b 6abd a312 34be c366 2cbe 2267 34bd
00000070: 54e8 0d3f 69cf cfbd c8a0 003e 22ce 953e
00000080: c471 22be 4109 35bd 3828 c23e a196 9a3e
00000090: 14b9 b43e 2ab1 ac3e 7a71 a43e 1a9e 0a3e
000000a0: a8b9 413e e137 a3bd e3af f33e 3355 833e
000000b0: eb82 4e3f 1eac ce3e 0ceb 223f 7bf8 713d
000000c0: 41bf 1c3d b7ea ea3d 6999 6d3e 2ffe 6d3e
000000d0: b601 1fbe 9974 c63d 1ca4 5d3e 11f5 26bd
000000e0: 3dea d33d a651 0cbd ef7f 10be 084c 30be
000000f0: 4660 113e b9df 43be 2c1a 71bd 2225 b53e
00000100: 3d45 8ebc 03b2 dcbd 160e 143e 8eb8 643e
00000110: 937e 4c3e a8ad 76be 95d4 34bd 6a13 243e
00000120: 86fe fd3d 2048 d93d eebe a33e 03ca 74bc
00000130: 740e 0fbc 33c4 c3bd 6f35 5bbe 6d27 773e
00000140: c1b5 9abd f203 c9bd 41ae eabd 9e85 2abd
00000150: aef6 f2bc 0716 f9bd bc3b 30be 2beb 76be
00000160: bc98 8f3e 469d b53e 4c37 b4bd 88bc 23bd
00000170: 42f1 5dbe 0338 bf3d 749b 2d3e 87ea a43e
00000180: ff87 18be e1d8 9f3e 84c0 bcbd d845 233e

out.weight f4 [6, 100]
0.2926081 0.11918617 0.019995527 0.25076643 0.12367697 -0.10107195 0.09392374 -0.19650112
-0.001761855 0.23909804 0.09119086 0.13067035 -0.05931584 0.31958282 0.0981532 0.043829385
0.013798657 -0.11865868 0.04488293 -0.035978638 0.03755803 -0.016243977 0.055833716 0.018747406
-0.018241107 0.06815536 -0.07793395 0.07027321 0.0960592 -0.13545439 0.09313128 0.096755505
0.04457211 0.044605404 0.0022618955 0.08636704 0.09629534 -0.08916977 0.18395454 0.01740785
0.2192898 -0.013621575 0.15672562 0.04280164 0.4902009 0.26967168 0.01891744 0.005235545
0.04057123 0.06457617 0.12119778 0.043285664 -0.06943578 0.13177377 0.02642891 -0.047976214
0.23619305 0.14246395 0.033779018 -0.0850978 0.1271799 0.07162232 0.12471948 0.2794605
-0.030822983 -0.18370917 -0.16993366 0.010420616 -0.030262835 -0.17702323 0.10885399 0.047998946
0.080127835 0.047900725 0.17078424 -0.06445234 -0.12283957 0.088042036 -0.024158323 -0.08316695
0.04041349 0.02913438 0.13424894 0.037638865 -0.09192284 0.193785 0.026700597 0.030511646
0.15922737 0.22820017 0.1304091 -0.09776036 0.030268393 0.1259254 0.21053429 0.14525469
-0.04689101 0.17069326 0.1021404 -0.06392319 -0.10868031 -0.018411344 -0.060188435 -0.12154727
-0.09886855 -0.102236204 0.015854312 -0.044049222 0.119804546 -0.10546657 -0.048999 0.10875774
0.029631075 0.007988274 -0.115313515 0.2252945 0.068140335 -0.04262458 0.025926575 0.10431225
0.012719676 0.061442453 -0.18249513 -0.12487876 -0.003524333 -0.14412811 -0.18602088 0.098127395
-0.32088482 0.059194107 -0.05111159 -0.043289192 -0.26618364 -0.10694615 -0.0980914 -0.030403083
-0.1375811 -0.117345735 -0.28411707 -0.0066328174 -0.08772797 -0.07458589 -0.59901696 0.009214306
0.03681353 -0.52862823 -0.47034407 -0.014796183 0.002337155 0.055215403 0.049299896 0.029362323
0.031444434 -0.17186052 -0.19250719 -0.20160398 0.055668652 -0.28144145 -0.048973132 0.00537433
-0.29999757 -0.03112367 0.19658135 -0.196845 0.22804448 0.11278362 0.027131671 -0.016807275
0.054785926 0.11153003 0.17759384 -0.04258521 -0.13258712 0.022627689 -0.032447644 -0.27953348
0.04388257 0.013423312 0.08594946 -0.07187608 0.14789312 0.08484396 -0.08237281 -0.020882022
0.19839607 -0.023872713 -0.023484036 -0.054008707 -0.07191107 -0.16476266 -0.10889015 -0.13789152
-0.17735548 -0.008636032 -0.07793852 -0.08916478 -0.12749946 0.008720164 0.021526169 0.004572794
0.09069885 -0.109669626 0.0960142 0.001241698 -0.15466166 -0.012909074 -0.14426059 0.16584848
0.0013773298 0.4522695 -0.027242526 0.016329043 0.10598295 0.24216068 -0.115006864 0.14056206
0.088279605 0.028956981 -0.11968013 0.045746077 -0.116521046 0.042165082 -0.027718697 -0.0013763196
-0.12681827 0.07850993 -0.03371573 -0.041825373 0.3614997 -0.02678721 -0.13614534 -0.0074486197
0.05853646 -0.0706541 0.052583806 0.07892237 -0.20077743 0.22006065 0.33722955 -0.083571665
0.007380557 0.0035406994 0.41274107 -0.101948544 0.5832593 0.14175676 0.5351872 -0.14528501
0.23750609 -0.14437611 -0.097703665 0.09126086 -0.055313762 -0.09281135 0.13989536 -0.13391815
00000000: bbd0 953e e117 f43d a9cd a33c 7564 803e
00000010: 5a4a fd3d cffe cebd 175b c03d 9737 49be
00000020: 0bee e6ba 1ed6 743e 46c2 ba3d 73ce 053e
00000030: 2bf5 72bd 5ca0 a33e 8b04 c93d 7186 333d
00000040: c313 623c 5203 f3bd 2ad7 373d 565e 13bd
00000050: 73d6 193d 1712 85bc e5b1 643d 2994 993c
00000060: 606e 95bc 0a95 8b3d d69b 9fbd 67eb 8f3d
00000070: b0ba c43d 8eb4 0abe 9dbb be3d c027 c63d
00000080: 3f91 363d 28b4 363d 4f3c 143b 34e1 b03d
00000090: 7e36 c53d a49e b6bd 945e 3c3e e89a 8e3c
000000a0: 818d 603e 072d 5fbc ae7c 203e c650 2f3d
000000b0: 9dfb fa3e 6812 8a3e bff8 9a3c ef8e ab3b
000000c0: 052e 263d 8340 843d 8b36 f83d 4f4c 313d
000000d0: 5934 8ebd b4ef 063e 7181 d83c b582 44bd
000000e0: 97dc 713e 12e2 113e de5b 0a3d c147 aebd
000000f0: 733b 023e b9ae 923d ed6c ff3d 7215 8f3e
00000100: 7b80 fcbc 421e 3cbe 1703 2ebe 3bbb 2a3c
00000110: c4e9 f7bc 9445 35be d7ee de3d 8b9a 443d
00000120: 101a a43d 8d33 443d 10e2 2e3e 97ff 83bd
00000130: 5093 fbbd 624f b43d ade7 c5bc 6f53 aabd
00000140: 9e88 253d 39ab ee3c 8e78 093e 362b 1a3d
00000150: 0b42 bcbd 936f 463e 36bb da3c 8ff3 f93c
00000160: 800c 233e 4ead 693e f789 053e 9536 c8bd
00000170: 6cf5 f73c 97f2 003e 4d96 573e a5bd 143e
00000180: ca10 40bd 37ca 2e3e fc2e d13d 29ea 82bd
00000190: c893 debd 63d3 96bc 2688 76bd c6ed f8bd
000001a0: 987b cabd 3761 d1bd e7e0 813c f56c 34bd
000001b0: 165c f53d dbfe d7bd 2db3 48bd 61bc de3d
000001c0: debc f23c 40e1 023c 7e29 ecbd 9ab3 663e
000001d0: 298d 8b3d 1d97 2ebd f863 d43c a9a1 d53d
000001e0: 3066 503c 15ab 7b3d 01e0 3abe 6fc0 ffbd
000001f0: 7ff8 66bb 5296 13be 427c 3ebe 04f7 c83d
00000200: 044b a4be 8575 723d 635a 51bd 0250 31bd
00000210: 3949 88be 9506 dbbd 25e4 c8bd e30f f9bc
00000220: 0fe2 0cbe f652 f0bd cb77 91be 1b58 d9bb
00000230: b9aa b3bd 7dc0 98bd 2d59 19bf 9af7 163c
00000240: c9c9 163d 2e54 07bf f0d0 f0be b16b 72bc
00000250: f42a 193b 8c29 623d b0ee 493d 4189 f03c
00000260: e1cb 003d 34fc 2fbe 9b20 45be 4671 4ebe
00000270: d004 643d 1819 90be 0d98 48bd 261b b03b
00000280: 4899 99be 11f7 febc 9f4c 493e bc91 49be
00000290: 7e84 693e 19fb e63d 3d43 de3c 69af 89bc
000002a0: 3567 603d db69 e43d 29db 353e d46d 2ebd
000002b0: ebc4 07be b45d b93c d2e7 04bd 031f 8fbe
000002c0: 36be 333d 74ed 5b3c 4506 b03d c433 93bd
000002d0: 4b71 173e acc2 ad3d 13b3 a8bd c610 abbc
000002e0: 5728 4b3e b590 c3bc 9861 c0bc 3c38 5dbd
000002f0: 1c46 93bd 8bb7 28be cd01 dfbd 6f33 0dbe
00000300: ad9c 35be 257e 0dbc 3b9e 9fbd 069c b6bd
00000310: 388f 02be 05df 0e3c a657 b03c 60d7 953b
00000320: 52c0 b93d 789a e0bd 18a3 c43d 79c0 a23a
00000330: a05f 1ebe 9580 53bc 0cb9 13be 2fd4 293e
00000340: 8587 b43a de8f e73e b82b dfbc 7cc4 853c
00000350: 970d d93d f8f8 773e b888 ebbd 80ef 0f3e
00000360: f0cb b43d 3137 ed3c db1a f5bd 3d60 3b3d
00000370: 96a2 eebd 4bb5 2c3d 5212 e3bc 9f65 b4ba
00000380: a6dc 01be d0c9 a03d 8119 0abd 1551 2bbd
00000390: 7d16 b93e da70 dbbc af69 0bbe 8d13 f4bb
000003a0: edc3 6f3d 19b3 90bd 1e62 573d 0da2 a13d
000003b0: 9998 4dbe 9457 613e 5aa9 ac3e 9f27 abbd
000003c0: 99d8 f13b 140b 683b cc52 d33e 66ca d0bd
000003d0: 7b50 153f af28 113e 0702 093f 98c5 14be
000003e0: cc34 733e 55d7 13be dc18 c8bd f9e6 ba3d
000003f0: af90 62bd e113 bebd bb40 0f3e d721 09be

out.bias f4 [6]
0.12236506 -0.029385911 -0.010987241 0.2402028 0.023656579 0.09525359
00000000: 889a fa3d b9ba f0bc d403 34bc b9f7 753e
00000010: 71cb c13c 5014 c33d
