models/MountainCarContinuous-v0/Random/Dagger_760.pth (torch, 3167 bytes, 3 tensors)

fc1.weight f4 [100, 2]
0	0x3eb2115f	0.34778878
1	0x3e75b5f8	0.23995197
2	0xbe8aae19	-0.2708595
3	0xbf7500cc	-0.9570434
4	0xbec7a5d0	-0.38993692
5	0xbf81a7f6	-1.0129383
6	0xbe379cdc	-0.17930931
7	0x3df561ca	0.119815424
8	0x3da010c3	0.07815697
9	0xbd9a90cc	-0.07547149
10	0xbe060efb	-0.13091652
11	0xbd5a21af	-0.05325478
12	0x3d862fec	0.06552109
13	0xbd198193	-0.037477087
14	0xbb5f9943	-0.003411845
15	0xbdc20a4c	-0.0947462
16	0xbe5d1d02	-0.21593097
17	0x3d526e6d	0.05137484
18	0x3d9ad329	0.07559807
19	0x3da98c53	0.08278718
20	0x3e1022a1	0.1407571
21	0xbf464bda	-0.7745949
22	0x3ea07cf5	0.31345335
23	0x40033fad	2.0507615
24	0x3b17ade0	0.002314441
25	0x3da46864	0.080277234
26	0xbeb25b18	-0.34835124
27	0xbf8453e5	-1.0338103
28	0x3edd7d5e	0.4325971
29	0x3fa2c22a	1.2715504
30	0xbd3aaff7	-0.04557797
31	0xbda47ca8	-0.08031589
32	0xbe464d9a	-0.1936554
33	0xbf9451e4	-1.1587491
34	0xbe50a199	-0.20374145
35	0xbf968267	-1.1758546
36	0xbdc781fb	-0.09741589
37	0xbf8756d5	-1.0573374
38	0x3e50b90f	0.20383094
39	0xbeff1365	-0.49819484
40	0xbf1311a3	-0.57448786
41	0xbf997e32	-1.1991637
42	0xbde208fd	-0.11036871
43	0x3e3d93a8	0.18513358
44	0x3db925e8	0.09040433
45	0xbd2e6c33	-0.042583656
46	0x3e588109	0.21142973
47	0x3f947809	1.1599132
48	0x3e1b6f07	0.15179072
49	0x3e31da9a	0.17368546
50	0xbeabe17b	-0.33570465
51	0xbf6be62d	-0.92148095
52	0x3eb4ea69	0.3533509
53	0x3f72ef1b	0.94896096
54	0xbdc6f3b2	-0.0971445
55	0x3d21b65a	0.039480545
56	0x3cfb5db2	0.030684326
57	0x3da29858	0.079392135
58	0x3c026dec	0.007960778
59	0x3e3a9453	0.18220644
60	0xbd9872cc	-0.07443771
61	0x3c64537d	0.013935921
62	0x3ede5ed2	0.43431717
63	0xbd5e2c4d	-0.054241467
64	0x3ea1cb59	0.31600454
65	0x3f814eb2	1.0102141
66	0x3db918fc	0.090379685
67	0x3dd26eec	0.10275063
68	0xba8dc892	-0.0010817221
69	0xbd3fa27a	-0.04678581
70	0x3ea1dc9d	0.31613627
71	0x3f90f00e	1.1323259
72	0x3cbdf90c	0.023190044
73	0xbdefad12	-0.117029324
74	0x3db28470	0.08716667
75	0x3dc1ac5b	0.09456702
76	0xbe5e2891	-0.21695162
77	0xbf968ad9	-1.1761123
78	0xbd644133	-0.05572624
79	0xbf90cc90	-1.1312428
80	0x3d39463a	0.04523299
81	0x3cc79571	0.024363251
82	0x3e0c11c7	0.13678657
83	0x3ccc6d97	0.0249546
84	0x3f098a10	0.5372629
85	0x3f8719f1	1.0554792
86	0x3ea9c60a	0.33158904
87	0x3f4a6b1b	0.7906968
88	0xbdb0af85	-0.08627228
89	0xbd00a43f	-0.031406637
90	0x3cc1862e	0.023623552
91	0x3d38d6d9	0.04512677
92	0x3ef1d730	0.47234488
93	0x3f80fe24	1.0077558
94	0x3d1ed57c	0.038777813
95	0xbf692dd2	-0.9108554
96	0x3d89b6bb	0.06724306
97	0x3da25623	0.079265855
98	0x3e85a1f5	0.26100126
99	0x3fe91687	1.821
100	0xbe84ff4b	-0.25976023
101	0xbf80ce43	-1.0062946
102	0x3e325819	0.17416419
103	0x3d5bcfcb	0.053664964
104	0x3e3c7bac	0.18406552
105	0x3fc24441	1.517708
106	0x3ebc1879	0.3673742
107	0x3f3636dd	0.71177465
108	0x3eabdcf3	0.33567008
109	0xbf161df0	-0.5863943
110	0xbe266f8f	-0.16253494
111	0xbf9c53fd	-1.2213131
112	0x3cb75eda	0.022384096
113	0x3dd37350	0.103247285
114	0x3d9918c3	0.07475426
115	0x3d0d7995	0.034539778
116	0xbe5c379e	-0.21505591
117	0xbf848194	-1.0352044
118	0x3f175dab	0.591273
119	0x3f37ff83	0.71874255
120	0x3f505fad	0.8139599
121	0x3e4b0236	0.19825062
122	0x3e371c79	0.17881955
123	0x3f90beda	1.1308243
124	0x3e0f18e0	0.13974333
125	0x3da0724b	0.078343
126	0x3e401165	0.18756635
127	0x3eac8fa8	0.3370335
128	0xbd5e9d8b	-0.054349463
129	0xbd2cd351	-0.042193715
130	0x3de2726d	0.11056981
131	0xbe12e813	-0.14346342
132	0xbeabf7ac	-0.33587396
133	0xbf9a23be	-1.2042158
134	0xbd6b905b	-0.057510715
135	0x3ba6b403	0.005087377
136	0xbb465eee	-0.0030268985
137	0x3d26fa0b	0.040765803
138	0x3e603e63	0.21898799
139	0x3fea81a1	1.832081
140	0xbe70a1b3	-0.23499183
141	0x3d16f04d	0.036850262
142	0x3ccdbb28	0.025113657
143	0xbdd61bdd	-0.10454533
144	0x3e94d59c	0.2906922
145	0x3fceea0e	1.6165178
146	0x3eab732e	0.33486313
147	0x3fa060e1	1.2529565
148	0x3edc7f30	0.43065786
149	0x3e3d8b6a	0.18510213
150	0xbac00167	-0.0014648855
151	0x3ce64c20	0.028112471
152	0xbe78d730	-0.24300838
153	0xbf872756	-1.0558879
154	0xbda7e10d	-0.08197222
155	0x3f77613f	0.9663276
156	0x3ea0c1f4	0.31397974
157	0x3f81b85d	1.0134388
158	0x3e0c4367	0.13697587
159	0x3a81102c	0.0009846739
160	0x3dae955f	0.08524584
161	0x3d1361d7	0.03598198
162	0xbe3a5972	-0.18198183
163	0xbf8d17bd	-1.1022869
164	0x3e90203c	0.28149593
165	0x3f8a5ae5	1.0808989
166	0xbd5a2b43	-0.053263914
167	0x3e25f024	0.16204888
168	0x3eb2b930	0.34906912
169	0x3f7c348b	0.98517674
170	0xbe3d6099	-0.1849388
171	0xbf907454	-1.12855
172	0x3e91a2e7	0.28444597
173	0x3f944415	1.1583277
174	0x3e4b740d	0.19868489
175	0xbf07fe41	-0.53122336
176	0x3d70bdca	0.058774747
177	0xbd74ee25	-0.059797425
178	0x3cbe6e02	0.023245815
179	0xbc816933	-0.015797233
180	0x3e9e7b68	0.30953526
181	0x3fa0f06c	1.2573371
182	0x3e86d59f	0.26334855
183	0x3f8f050b	1.1173414
184	0xbe397227	-0.18109952
185	0xbf851e5f	-1.0399894
186	0xbd0006f7	-0.031256642
187	0xbd2e4ed0	-0.04255563
188	0xbcb77558	-0.022394821
189	0xbf9af8c9	-1.2107173
190	0x3d6571c7	0.05601671
191	0xbb70c31f	-0.0036737395
192	0xbe2177b8	-0.15768325
193	0x3d3b9976	0.04580065
194	0x3e6fd009	0.23419203
195	0x3fef1ded	1.8681008
196	0x3ec72818	0.38897777
197	0x3f8ddd1b	1.1083101
198	0x3d36b6c7	0.044607904
199	0xbe3482dc	-0.17628044

fc1.bias f4 [100]
0	0x3e72083f	0.23635958
1	0x3e67f977	0.22653757
2	0x3effc146	0.49952143
3	0xbf279221	-0.6545735
4	0xbe17cd98	-0.14824522
5	0xbeeb7ffe	-0.45996088
6	0xbe8eb495	-0.27872148
7	0xbe77aa22	-0.24185994
8	0xbe982f65	-0.2972366
9	0xbe02fb26	-0.12791118
10	0x3ed89139	0.42298296
11	0x3e84359c	0.2582215
12	0xbeb7513d	-0.35804167
13	0x3f0d4d07	0.5519566
14	0x3ea0d200	0.31410217
15	0xbd77f903	-0.06054021
16	0x3ee686cd	0.4502472
17	0x3c87c747	0.016574515
18	0x3cb5f3a6	0.022210907
19	0x3e2c78e4	0.16842991
20	0xbca38f67	-0.01996584
21	0xbf19f4b3	-0.60139006
22	0xbee0d6f2	-0.4391399
23	0x3e2feaab	0.17179362
24	0xbe8f090f	-0.279366
25	0x3eef83e6	0.46780318
26	0x3e9ed225	0.31019703
27	0xbe9fd308	-0.31215692
28	0xbf043eee	-0.51658523
29	0xbf30531e	-0.68876827
30	0xbf1360ed	-0.5756977
31	0x3e981f65	0.29711452
32	0x3f18920c	0.5959785
33	0xbd310df1	-0.043226186
34	0xbe47c9e4	-0.19510609
35	0x3f25a86a	0.64710104
36	0xbf0a594c	-0.54042506
37	0xbd9f34b8	-0.07773727
38	0x3e1325f0	0.14369941
39	0x3f001f48	0.5004773
40	0xbf12e3dc	-0.57378936
41	0xbed9591e	-0.42450804
42	0x3ef11787	0.47088262
43	0x3e9614ab	0.29312643
44	0xbed76ffc	-0.42077625
45	0xbf02b308	-0.5105443
46	0x3f1c4340	0.61040115
47	0x3dcd0aaf	0.10011803
48	0xbee56562	-0.4480391
49	0x3e5edfb0	0.21765018
50	0x3e9a67c4	0.30157292
51	0xbde102d0	-0.109868646
52	0x3e1e17e8	0.15438807
53	0x3ea52840	0.3225727
54	0x3e7088f3	0.23489742
55	0x3e9eafb7	0.30993435
56	0xbea95c68	-0.33078313
57	0xbddc31c0	-0.107516766
58	0x3e75eb9b	0.24015658
59	0x3ecf096b	0.40436873
60	0x3f10ab6c	0.5651157
61	0x3f084c10	0.5324106
62	0xbf06313b	-0.5241887
63	0x3d183379	0.037158463
64	0xbf0562f7	-0.52104133
65	0xbef3f4f0	-0.4764781
66	0x3ef64c58	0.4810512
67	0xbf247a86	-0.64249456
68	0xbeb32456	-0.3498866
69	0x3e3cde07	0.18444072
70	0xbf2ac62d	-0.6670864
71	0xbebd1803	-0.36932382
72	0x3e7a004f	0.2441418
73	0x3e8c0088	0.27344155
74	0x3e97461c	0.29545677
75	0xbe5ca4ba	-0.21547213
76	0x3ee0fdb1	0.4394355
77	0x3ea6a4d2	0.32547623
78	0x3f10728d	0.5642479
79	0xbdca1a48	-0.09868294
80	0xbf2fe42f	-0.68707556
81	0x3ef24686	0.4731943
82	0x3ed50d1a	0.41611558
83	0xbec9fe3e	-0.39451784
84	0x3f1b52da	0.60673296
85	0x3e3217af	0.17391847
86	0x3f0754d4	0.5286381
87	0x3ea19b2a	0.31563693
88	0xbe8647b5	-0.26226583
89	0xbee3d5ca	-0.44499046
90	0x3f16e4ac	0.58942676
91	0x3f10ec74	0.566108
92	0x3e19e6b2	0.1502941
93	0xbf1808c8	-0.593884
94	0xbca5e083	-0.020248657
95	0xbeedcfb8	-0.4644754
96	0xbee6144b	-0.44937357
97	0x3e4b1734	0.1983307
98	0x3ef2f4fd	0.47452536
99	0xbf219e0c	-0.63131785

out.weight f4 [1, 100]
0	0x3dac0d30	0.08400953
1	0xbe451c25	-0.19249018
2	0xbe066489	-0.13124289
3	0x3d7db6b2	0.06194181
4	0x3d392584	0.045201793
5	0xbd161dfb	-0.036649685
6	0xbd2ebdf5	-0.042661626
7	0xbd6bf0b7	-0.05760261
8	0xbdb9590b	-0.09050187
9	0x3d0047d4	0.0313185
10	0xbc37a8e3	-0.011209699
11	0x3dfd41d1	0.12366069
12	0xbc2f8674	-0.0107132085
13	0xbe2b2e10	-0.1671679
14	0x3f26d00c	0.65161204
15	0x3c1999cd	0.009375048
16	0xbd0f5aea	-0.03499881
17	0xbe0c9cb9	-0.1373166
18	0xbde9847b	-0.11402222
19	0x3d5c5eef	0.053801473
20	0xbe924ea7	-0.28575632
21	0xbdd06383	-0.1017523
22	0x3d38ef68	0.04515019
23	0x3dc4b36c	0.096045345
24	0x3cb0f97b	0.021603337
25	0xbe5142ed	-0.20435686
26	0x3e437406	0.19087228
27	0x3d0ae59e	0.033910386
28	0xbd8ba987	-0.06819444
29	0xbd8b5b0b	-0.068044744
30	0xbda833c4	-0.082129985
31	0x3e98a6ca	0.2981475
32	0x3e32ccfd	0.1746101
33	0x3c838593	0.016054904
34	0xbe1630d3	-0.14667062
35	0x3e0073d6	0.12544188
36	0xbd22f3a2	-0.039783128
37	0x3bea1d15	0.00714458
38	0xbdc222a7	-0.09479266
39	0xbd4aa13f	-0.049470183
40	0x3de66e9f	0.11251568
41	0x3decee6d	0.115689136
42	0x3d7b3b72	0.06133599
43	0x3e88637f	0.2663841
44	0x3d98d89c	0.0746319
45	0xbe48df9b	-0.19616549
46	0x3d9de0b7	0.077088766
47	0xbd315cc0	-0.043301344
48	0xbe0aabf8	-0.13542163
49	0x3e11a1b8	0.14221847
50	0xbe357698	-0.17721021
51	0xbdc8dbcd	-0.09807549
52	0x3eae256c	0.34012926
53	0x3e7844e8	0.24245036
54	0x3f2ae8be	0.66761386
55	0xbd0e8274	-0.03479238
56	0xbd1064f0	-0.03525251
57	0xbd85509b	-0.06509515
58	0xbdc9fd87	-0.0986281
59	0x3ebc150f	0.36734816
60	0x3e214a6c	0.15751046
61	0x3daaba7e	0.08336352
62	0x3d93ca03	0.07216265
63	0x3e6b3849	0.2297069
64	0x3d0f4c47	0.034984853
65	0x3dfe362d	0.12412677
66	0xbde5e2b8	-0.11224884
67	0xbd0ce364	-0.034396544
68	0x3db4b93c	0.08824393
69	0x3e987d4a	0.29783088
70	0x3e629b12	0.22129467
71	0xbd1d236b	-0.038363855
72	0x3de7293a	0.1128716
73	0x3df6135a	0.1201541
74	0x3e6754a0	0.22590876
75	0x3e1bc82a	0.15213075
76	0xbe1631f6	-0.14667496
77	0x3d6661d7	0.05624565
78	0x3ed98c97	0.42490074
79	0x3e598e88	0.21245778
80	0xbd3f7b5c	-0.046748504
81	0xbda30192	-0.07959284
82	0x3e04ca72	0.12967852
83	0x3e79a43d	0.24379058
84	0x3e4b9c41	0.19883825
85	0xbdd42aa0	-0.103596926
86	0x3e65fd76	0.22459969
87	0xbb759c20	-0.003747709
88	0xbd84c668	-0.064831555
89	0xbb7929af	-0.003801923
90	0x3e46ee74	0.194269
91	0x3de65c59	0.11248083
92	0xbd8dd8d5	-0.06926123
93	0x3d5ac453	0.053409886
94	0x3a99eb86	0.0011743165
95	0xbd5d99f0	-0.054101884
96	0x3ca7a0da	0.020462442
97	0x3ebc704a	0.3680442
98	0x3d5ddc92	0.05416543
99	0xbd129e3b	-0.03579543
