models/MountainCarContinuous-v0/Random/Dagger_305.pth (torch, 3167 bytes, 3 tensors)

fc1.weight f4 [100, 2]
0	0x3e8dc72d	0.27691022
1	0x3ed88dc4	0.4229566
2	0xbe8e4ad4	-0.27791464
3	0xbf681ba8	-0.906672
4	0xbed16256	-0.40895337
5	0xbf7631c4	-0.96169686
6	0xbe379cdc	-0.17930931
7	0x3df561ca	0.119815424
8	0x3da010c3	0.07815697
9	0xbd9a90cc	-0.07547149
10	0xbe060efb	-0.13091652
11	0xbd5a21af	-0.05325478
12	0x3d862fec	0.06552109
13	0xbd198193	-0.037477087
14	0xbb5f9943	-0.003411845
15	0xbdc20a4c	-0.0947462
16	0xbe5d1d02	-0.21593097
17	0x3d526e6d	0.05137484
18	0x3d9ad329	0.07559807
19	0x3da98c53	0.08278718
20	0xbc57f49a	-0.013180876
21	0xbf48286e	-0.7818669
22	0x3e9bb570	0.30411863
23	0x3fbea899	1.4895202
24	0x3b17ade0	0.002314441
25	0x3da46864	0.080277234
26	0xbeb78b23	-0.3584834
27	0xbf7ba0f0	-0.98292446
28	0x3eced5a5	0.40397373
29	0x3f2b6dc8	0.6696439
30	0xbd3aaff7	-0.04557797
31	0xbda47ca8	-0.08031589
32	0xbe9d2e06	-0.30699176
33	0xbf9034d6	-1.1266124
34	0xbe666901	-0.22500993
35	0xbf93e91a	-1.1555512
36	0xbdec7677	-0.11546033
37	0xbf84ee68	-1.0385256
38	0x3e21038e	0.15724012
39	0xbf014d51	-0.505086
40	0xbf15d5dc	-0.5852945
41	0xbf9571ee	-1.1675394
42	0xbde208fd	-0.11036871
43	0x3e3d93a8	0.18513358
44	0x3db925e8	0.09040433
45	0xbd2e6c33	-0.042583656
46	0x3e46d2f4	0.1941641
47	0x3f42b57c	0.76058173
48	0x3e1b6f07	0.15179072
49	0x3e31da9a	0.17368546
50	0xbeae6820	-0.34063816
51	0xbf5ec89c	-0.87024856
52	0x3ea96b54	0.33089697
53	0x3f883523	1.0641216
54	0xbdc6f3b2	-0.0971445
55	0x3d21b65a	0.039480545
56	0x3cfb5db2	0.030684326
57	0x3da29858	0.079392135
58	0x3c026dec	0.007960778
59	0x3e3a9453	0.18220644
60	0xbd9872cc	-0.07443771
61	0x3c64537d	0.013935921
62	0x3ecf1ed6	0.40453213
63	0x3da8d4db	0.08243724
64	0x3e8d0316	0.27541417
65	0x3f7475fe	0.9549254
66	0x3db918dd	0.090379454
67	0x3dd2422e	0.10266529
68	0xba8dc892	-0.0010817221
69	0xbd3fa27a	-0.04678581
70	0x3e88add2	0.26695114
71	0x3f89c6f6	1.0763843
72	0x3cbdf90c	0.023190044
73	0xbdefad12	-0.117029324
74	0x3db28470	0.08716667
75	0x3dc1ac5b	0.09456702
76	0xbe7e9dcb	-0.2486488
77	0xbf90eff5	-1.1323229
78	0xbdef2f33	-0.116789244
79	0xbf8c5b9c	-1.0965457
80	0x3d39463a	0.04523299
81	0x3cc79571	0.024363251
82	0x3e0c11c7	0.13678657
83	0x3ccc6d97	0.0249546
84	0x3ed7f6bc	0.4218043
85	0x3f9c1175	1.2192827
86	0x3e9e5d86	0.30930728
87	0x3f721cce	0.945752
88	0xbdb0af85	-0.08627228
89	0xbd00a43f	-0.031406637
90	0x3cc1862e	0.023623552
91	0x3d38d6d9	0.04512677
92	0x3ecff04e	0.40613025
93	0x3f7270fc	0.9470365
94	0x3c1d453f	0.009599029
95	0xbf666164	-0.89992356
96	0x3d89b6bb	0.06724306
97	0x3da25623	0.079265855
98	0x3e7b16df	0.24520443
99	0x3fa54558	1.2911787
100	0xbe8975bb	-0.26847634
101	0xbf74dd38	-0.95650053
102	0x3e325819	0.17416419
103	0x3d5bcfcb	0.053664964
104	0x3e225e6b	0.1585633
105	0x3f9ae5e6	1.210141
106	0x3eae51c5	0.3404676
107	0x3f6b6589	0.91951805
108	0x3e9ba102	0.30396277
109	0xbef40635	-0.47660986
110	0xbe891b2b	-0.2677854
111	0xbf98a14b	-1.1924223
112	0x3cb75eda	0.022384096
113	0x3dd37350	0.103247285
114	0x3d9918c3	0.07475426
115	0x3d0d7995	0.034539778
116	0xbe79ff2e	-0.2441375
117	0xbf7d5971	-0.989646
118	0x3f0fb811	0.5614024
119	0x3f07a4ab	0.5298564
120	0x3f4a3c5a	0.7899834
121	0x3e9f388d	0.31097832
122	0x3df62de4	0.12020472
123	0x3f8a0f38	1.0785894
124	0x3e0f18e0	0.13974333
125	0x3da0724b	0.078343
126	0x3e2430fe	0.16034314
127	0x3d821406	0.063514754
128	0xbd5e9d8b	-0.054349463
129	0xbd2cd351	-0.042193715
130	0x3de2726d	0.11056981
131	0xbe12e813	-0.14346342
132	0xbeb8d3ce	-0.36099094
133	0xbf93c6de	-1.1545064
134	0xbd6b905b	-0.057510715
135	0x3ba6b403	0.005087377
136	0xbb465eee	-0.0030268985
137	0x3d26fa0b	0.040765803
138	0x3e42ce0e	0.19023916
139	0x3fc01875	1.5007464
140	0xbe70a1b3	-0.23499183
141	0x3d16f04d	0.036850262
142	0x3ccdbb28	0.025113657
143	0xbdd61bdd	-0.10454533
144	0x3e8d7c9d	0.27634135
145	0x3f9b98bb	1.2155985
146	0x3ea980f4	0.33106196
147	0x3f526f4a	0.82201064
148	0x3ecbf630	0.39836264
149	0x3e918fca	0.28430015
150	0xbac00167	-0.0014648855
151	0x3ce64c20	0.028112471
152	0xbe836069	-0.25659493
153	0xbf80e920	-1.0071144
154	0xbe0f44b4	-0.13991052
155	0x3f6d0b0f	0.92595
156	0x3e92947b	0.28628907
157	0x3f75a07a	0.9594799
158	0x3e0c4367	0.13697587
159	0x3a81102c	0.0009846739
160	0x3dae955f	0.08524584
161	0x3d1361d7	0.03598198
162	0xbe617e51	-0.22020842
163	0xbf8778fc	-1.0583797
164	0x3e72620e	0.23670217
165	0x3f8373b6	1.0269687
166	0xbd5a2b43	-0.053263914
167	0x3e25f024	0.16204888
168	0x3e9f25d8	0.3108356
169	0x3f6df6e9	0.9295488
170	0xbe582a48	-0.21109879
171	0xbf8ad893	-1.0847343
172	0x3e7f02a1	0.24903347
173	0x3f8d5198	1.1040525
174	0x3d2f9390	0.042865336
175	0xbf11a483	-0.5689165
176	0x3d70bdca	0.058774747
177	0xbd74ee25	-0.059797425
178	0x3cbe6e02	0.023245815
179	0xbc816933	-0.015797233
180	0x3e8ac232	0.27101284
181	0x3f99e76e	1.2023752
182	0x3e598b6f	0.21244596
183	0x3f880794	1.0627313
184	0xbe67b318	-0.22626913
185	0xbf8017f1	-1.0007306
186	0xbd0006f7	-0.031256642
187	0xbd2e4ed0	-0.04255563
188	0xbd7652b2	-0.06013746
189	0xbfaf7847	-1.3708581
190	0x3d6571c7	0.05601671
191	0xbb70c31f	-0.0036737395
192	0xbe2177b8	-0.15768325
193	0x3d3b9976	0.04580065
194	0x3e53b48d	0.20674343
195	0x3fb77c01	1.4334718
196	0x3ea071d0	0.31336832
197	0x3f8695dc	1.0514483
198	0x3d36b6c7	0.044607904
199	0xbe3482dc	-0.17628044

fc1.bias f4 [100]
0	0x3e739785	0.23788269
1	0x3e793b76	0.24339089
2	0x3f073a4e	0.5282334
3	0xbf279221	-0.6545735
4	0xbe17cd98	-0.14824522
5	0xbeeb7ffe	-0.45996088
6	0xbe8eb495	-0.27872148
7	0xbe77aa22	-0.24185994
8	0xbe982f65	-0.2972366
9	0xbe02fb26	-0.12791118
10	0x3f121523	0.570635
11	0x3e67f4fd	0.2265205
12	0xbeb7513d	-0.35804167
13	0x3f1268d0	0.5719118
14	0x3e972012	0.29516655
15	0xbd77f903	-0.06054021
16	0x3f11f811	0.57019144
17	0x3d1c8c85	0.038219947
18	0x3d385e56	0.04501184
19	0x3e48af07	0.19598018
20	0xbc83ab7d	-0.016072983
21	0xbf19f4b3	-0.60139006
22	0xbee0d6f2	-0.4391399
23	0x3e1de678	0.15419948
24	0xbe8f090f	-0.279366
25	0x3ef72121	0.48267463
26	0x3e90415d	0.28174868
27	0xbe9fd308	-0.31215692
28	0xbf043eee	-0.51658523
29	0xbf30531e	-0.68876827
30	0xbf1360ed	-0.5756977
31	0x3e8b64ff	0.2722549
32	0x3f203ad6	0.62589777
33	0xbd310e53	-0.04322655
34	0xbe47c9e4	-0.19510609
35	0x3f2f8712	0.68565476
36	0xbf0a594c	-0.54042506
37	0xbd9f34b8	-0.07773727
38	0x3e3cb818	0.18429601
39	0x3f1168c7	0.568005
40	0xbf12e3dc	-0.57378936
41	0xbed9591e	-0.42450804
42	0x3f09a225	0.5376304
43	0x3e862925	0.26203266
44	0xbed76ffc	-0.42077625
45	0xbf02b308	-0.5105443
46	0x3f2ae0bc	0.6674917
47	0x3e081b18	0.13291585
48	0xbee56562	-0.4480391
49	0x3e4c96b0	0.19979358
50	0x3ea3d9f8	0.32002234
51	0xbde102d0	-0.109868646
52	0x3e04f63a	0.12984553
53	0x3e94b3c6	0.29043406
54	0x3e58e3b6	0.21180615
55	0x3ed80338	0.42189956
56	0xbea95c68	-0.33078313
57	0xbddc31c0	-0.107516766
58	0x3e8e74da	0.27823526
59	0x3ec3242e	0.3811354
60	0x3f091fe0	0.5356426
61	0x3f1491b2	0.58034813
62	0xbf06313b	-0.5241887
63	0x3d19011f	0.037354585
64	0xbf0562f7	-0.52104133
65	0xbef3f4f0	-0.4764781
66	0x3f040212	0.5156566
67	0xbf247a86	-0.64249456
68	0xbeb32456	-0.3498866
69	0x3e1f6bae	0.1556842
70	0xbf2ac62d	-0.6670864
71	0xbebd1803	-0.36932382
72	0x3e62beaf	0.22143053
73	0x3e758a71	0.23978592
74	0x3e8c2f4e	0.2737984
75	0xbe5ca4ba	-0.21547213
76	0x3eecd604	0.4625703
77	0x3ebef142	0.3729344
78	0x3f14cdcc	0.5812652
79	0xbdca1a48	-0.09868294
80	0xbf2fe42f	-0.68707556
81	0x3f051b25	0.51994544
82	0x3ee6aabf	0.45052144
83	0xbec9fe3e	-0.39451784
84	0x3f226143	0.6342966
85	0x3e56060d	0.20900746
86	0x3f0da9dd	0.55337316
87	0x3eeb6cc8	0.4598143
88	0xbe8647b5	-0.26226583
89	0xbee3d5ca	-0.44499046
90	0x3f1e0421	0.6172505
91	0x3f1b3cef	0.6063985
92	0x3e5099fd	0.20371242
93	0xbf1808c8	-0.593884
94	0x3c576331	0.013146208
95	0xbeedcfb8	-0.4644754
96	0xbee6144b	-0.44937357
97	0x3e2fb6de	0.17159602
98	0x3f0aa580	0.5415878
99	0xbf219e0c	-0.63131785

out.weight f4 [1, 100]
0	0x3dc939d9	0.09825487
1	0xbe4cb6ff	-0.19991682
2	0xbe0599a7	-0.13046895
3	0x3d7db6b2	0.06194181
4	0x3d392584	0.045201793
5	0xbd161dfb	-0.036649685
6	0xbd2ebdf5	-0.042661626
7	0xbd6bf0b7	-0.05760261
8	0xbdb9590b	-0.09050187
9	0x3d0047d4	0.0313185
10	0xbc3d0d21	-0.011538775
11	0x3e07067b	0.13186066
12	0xbc2f8674	-0.0107132085
13	0xbe2a080f	-0.16604637
14	0x3f278df8	0.65451
15	0x3c1999cd	0.009375048
16	0xbd184ec5	-0.037184495
17	0xbe3da7c8	-0.18521035
18	0xbe35125b	-0.17682783
19	0x3d2a4986	0.041574024
20	0xbe9fd435	-0.3121659
21	0xbdd06383	-0.1017523
22	0x3d38ef68	0.04515019
23	0x3df993ff	0.12186431
24	0x3cb0f97b	0.021603337
25	0xbe513dd1	-0.20433737
26	0x3e388e7b	0.18023102
27	0x3d0ae59e	0.033910386
28	0xbd8ba987	-0.06819444
29	0xbd8b5b0b	-0.068044744
30	0xbda833c4	-0.082129985
31	0x3ea3950c	0.3194965
32	0x3e44452c	0.19167012
33	0x3c838586	0.01605488
34	0xbe1630d3	-0.14667062
35	0x3e10e931	0.14151455
36	0xbd22f3a2	-0.039783128
37	0x3bea1d15	0.00714458
38	0xbddf4b07	-0.10902982
39	0xbd51286b	-0.051063936
40	0x3de66e9f	0.11251568
41	0x3decee6d	0.115689136
42	0x3d75227c	0.05984734
43	0x3e83872a	0.2568906
44	0x3d98d89c	0.0746319
45	0xbe48df9b	-0.19616549
46	0x3dbfdc43	0.093681835
47	0xbd872960	-0.065996885
48	0xbe0aabf8	-0.13542163
49	0x3e130b1f	0.14359711
50	0xbe3a456d	-0.18190546
51	0xbdc8dbcd	-0.09807549
52	0x3ecbcfe6	0.3980705
53	0x3e6bbb8e	0.23020765
54	0x3f3e7574	0.7439797
55	0xbd24ef10	-0.04026705
56	0xbd1064f0	-0.03525251
57	0xbd85509b	-0.06509515
58	0xbdda1bec	-0.10649857
59	0x3eb6b03e	0.35681337
60	0x3e12d8b0	0.14340472
61	0x3dcda9df	0.10042166
62	0x3d93ca03	0.07216265
63	0x3e1a09ce	0.15042803
64	0x3d0f4c47	0.034984853
65	0x3dfe362d	0.12412677
66	0xbde5f50e	-0.11228381
67	0xbd0ce364	-0.034396544
68	0x3db4b93c	0.08824393
69	0x3eb3dd68	0.35129857
70	0x3e629b12	0.22129467
71	0xbd1d236b	-0.038363855
72	0x3de71217	0.11282747
73	0x3e005cfd	0.12535472
74	0x3e79b863	0.24386744
75	0x3e1bc82a	0.15213075
76	0xbe17d1c4	-0.14826113
77	0x3d98bc1a	0.074577525
78	0x3ee2a612	0.44267327
79	0x3e598e88	0.21245778
80	0xbd3f7b5c	-0.046748504
81	0xbda62a16	-0.08113496
82	0x3e1aa0ea	0.15100446
83	0x3e79a43d	0.24379058
84	0x3e5cf9c4	0.21579653
85	0xbdee4cd1	-0.11635745
86	0x3e78d2db	0.24299185
87	0xbb0f10ce	-0.0021830085
88	0xbd84c668	-0.064831555
89	0xbb7929af	-0.003801923
90	0x3e587785	0.21139343
91	0x3e04c2cd	0.12964936
92	0xbdaa5a37	-0.08317988
93	0x3d5ac453	0.053409886
94	0xbd54e051	-0.051971737
95	0xbd5d99f0	-0.054101884
96	0x3ca7a0da	0.020462442
97	0x3ed17412	0.40908867
98	0x3d94a40d	0.07257853
99	0xbd129e3b	-0.03579543
